results/MLP_tree/hidden_size_128/s_MLP_tree_t_simglucose_data_insilico_seed_56_2024-04-03_PH_120/model_epoch_51_loss_0.01.pth (torch, 722246 bytes, 23 tensors)

X_1.0.weight f4 [128, 20]
0.25015557 -0.1460796 -0.22469823 0.2275299 0.040248804 0.063198686 -0.15918933 0.03561382
0.1697369 -0.10656465 -0.101849474 0.14519052 -0.0010977825 -0.0818335 -0.024904957 0.07165107
0.052817967 0.016857725 -0.097392105 -0.0725258 0.031057827 -0.09603684 -0.16883115 -0.21283874
-0.08707639 -0.046664983 0.121884964 0.1579088 0.13318036 -0.071541265 0.05258977 -0.03609619
-0.009226732 -0.22732458 0.16618662 0.06313077 0.14303763 -0.114057764 -0.012027525 0.08542074
0.0033212064 0.015662612 0.016851157 0.005716108 -0.24334858 0.11738571 -0.19292028 -0.1592777
0.16186252 0.077608705 -0.20260093 -0.14903429 0.1424007 0.09013211 0.083113 -0.17704847
-0.04076471 0.006713159 0.034349427 0.1295419 0.15426119 -0.13995269 0.2561461 -0.18001805
-0.08584916 0.03051296 0.0414119 -0.012121945 -0.08847373 -0.07006939 -0.13440391 -0.12029512
0.05702249 0.0073728566 0.13913809 -0.12748708 -0.12880217 -0.12650834 0.035260227 0.020834466
0.15318513 0.12568164 -0.15938374 -0.035357114 -0.12230252 0.1514671 -0.08392425 0.08266384
-0.017772334 -0.13729185 -0.061952773 -0.16662374 0.029771514 -0.1697785 -0.22566101 0.08621704
-0.0018898908 0.021343742 -0.13890281 -0.21757945 0.02605949 0.15032074 -0.13876908 -0.06816308
0.06384987 -0.11351312 -0.09351275 -0.14853632 -0.14709553 -0.27073744 -0.13807102 -0.07548756
-0.19493705 -0.23390004 -0.05158262 -0.23697379 -0.057124536 0.060947124 0.18042666 0.17254321
0.094864264 -0.110026255 0.21409878 -0.119375005 0.02670621 0.19126406 -0.13801442 0.021602072
-0.11340056 0.12165314 0.11290579 -0.01643749 0.06276633 -0.20099458 0.08741362 -0.10915093
-0.15350717 -0.12107607 -0.021930475 -0.115585625 0.02875177 0.17024264 -0.038556095 -0.07768775
-0.05655585 0.19223447 -0.14150362 0.14762212 -0.0030041656 -0.13471211 -0.19019374 0.047710102
0.12822548 -0.035291605 -0.12278092 0.1919812 -0.21123098 -0.14857411 0.1961025 -0.1759412
-0.08457111 -0.06587524 -0.18175408 0.031037517 -0.2130125 -0.07810796 -0.19189799 -0.07271927
-0.1941773 0.028229015 0.0991337 -0.014303679 0.08936284 -0.09789074 -0.20776147 0.12944481
-0.24787585 -0.0073008034 -0.10984622 -0.2602564 -0.013843645 0.18514422 0.28287315 0.2239872
0.1917071 -0.03885598 0.08365574 -0.16323969 -0.20278463 0.123289496 0.10288275 -0.22073373
-0.16778938 0.085218385 -0.102067485 -0.0074103856 0.07808745 0.13297956 -0.025975265 0.023926547
0.18248464 0.04859414 0.22932546 -0.12167414 -0.17138514 -0.1300193 -0.3355318 0.10689828
-0.056227136 -0.26352814 0.0069297515 -0.10059674 -0.1381348 -0.024216544 -0.021834327 0.053269483
-0.11366508 0.03925915 0.1110325 -0.12530406 0.03950132 -0.0017064977 -0.0790878 0.060370754
0.15407924 0.29166433 0.20195402 -0.09996343 0.21141724 0.027113965 -0.1961493 0.020254953
0.1552341 -0.0491634 -0.08744246 -0.15536541 -0.22630496 -0.24761768 -0.18437515 -0.20032123
0.004317995 -0.17380352 0.097998805 -0.21161988 0.16278903 0.40257102 -0.011227073 -0.18004407
0.22805375 0.09353592 -0.19399808 -0.1251946 -0.07824651 -0.24006324 0.15338765 0.03309345
00000000: 6414 803e e495 15be 4b17 66be 99fd 683e
00000010: eedb 243d 506e 813d 8702 23be ccdf 113d
00000020: 83cf 2d3e 913e dabd 7596 d0bd d3ac 143e
00000030: 78e3 8fba 5298 a7bd 7b05 ccbc ccbd 923d
00000040: a757 583d 3619 8a3c 8375 c7bd 6888 94bd
00000050: fc6c fe3c f6ae c4bd 13e2 2cbe 66f2 59be
00000060: 1b55 b2bd c823 3fbd d39e f93d d8b2 213e
00000070: 6f60 083e 3a84 92bd 5f68 573d 99d9 13bd
00000080: b82b 17bc c6c7 68be d32c 2a3e b54a 813d
00000090: 7578 123e 1e97 e9bd 190f 45bc 12f1 ae3d
000000a0: 99a8 593b e14e 803c 700b 8a3c 304e bb3b
000000b0: 5f30 79be eb67 f03d e58c 45be b219 23be
000000c0: 4abf 253e 50f1 9e3d 9e76 4fbe 729c 18be
000000d0: 7dd1 113e 2f97 b83d 2637 aa3d 324c 35be
000000e0: e6f8 26bd 0ffa db3b fcb1 0c3d a2a6 043e
000000f0: a5f6 1d3e c24f 0fbe 9525 833e a756 38be
00000100: afd1 afbd 51f6 f93c 869f 293d 1f9b 46bc
00000110: b731 b5bd 8a80 8fbd 2ea1 09be 4a5d f6bd
00000120: 6a90 693d 0198 f13b 377a 0e3e f98b 02be
00000130: b7e4 03be 678b 01be 076d 103d 0bad aa3c
00000140: 90dc 1c3e b0b2 003e 7e35 23be 9fd2 10bd
00000150: be79 fabd 311a 1b3e 7ae0 abbd a94b a93d
00000160: 4997 91bc 3c96 0cbe 31c2 7dbd 6a9f 2abe
00000170: 64e3 f33c 6ada 2dbe ae13 67be 8f92 b03d
00000180: 36b6 f7ba 12d9 ae3c 8a3c 0ebe 26cd 5ebe
00000190: b67a d53c aeed 193e 7b19 0ebe 1699 8bbd
000001a0: b8c3 823d 9179 e8bd 9d83 bfbd e819 18be
000001b0: 36a0 16be 199e 8abe 7d62 0dbe 3999 9abd
000001c0: 949d 47be 7e83 6fbe 4c48 53bd 42a9 72be
000001d0: 6bfb 69bd b1a3 793d c4c1 383e 2baf 303e
000001e0: 3248 c23d 7255 e1bd b63c 5b3e e27a f4bd
000001f0: fbc6 da3c bada 433e a753 0dbe d4f6 b03c
00000200: 8e3e e8bd 4825 f93d 273b e73d eaa7 86bc
00000210: a28b 803d 86d1 4dbe e905 b33d 868a dfbd
00000220: fc30 1dbe bbf6 f7bd 8aa7 b3bc 28b8 ecbd
00000230: d588 eb3c 1654 2e3e ffec 1dbd c11a 9fbd
00000240: 1ba7 67bd 1dd9 443e 53e6 10be 412a 173e
00000250: 89e1 44bb f9f1 09be 26c2 42be ab6b 433d
00000260: 8a4d 033e ee8d 10bd 9074 fbbd b896 443e
00000270: ef4c 58be d023 18be 18cf 483e ee29 34be
00000280: 9e33 adbd 99e9 86bd be1d 3abe 6442 fe3c
00000290: f31f 5abe 11f7 9fbd e880 44be d7ed 94bd
000002a0: 6ad6 46be 8940 e73c 9c06 cb3d fa59 6abc
000002b0: dd03 b73d f17a c8bd 6cbf 54be 2e8d 043e
000002c0: 2bd3 7dbe 943b efbb 0ef7 e0bd 5440 85be
000002d0: 75d0 62bc 7296 3d3e c0d4 903e e75c 653e
000002e0: de4e 443e 7327 1fbd b353 ab3d 4e28 27be
000002f0: c6a6 4fbe 347f fc3d 31b4 d23d 0608 62be
00000300: fbd0 2bbe fa86 ae3d c208 d1bd d2d2 f2bb
00000310: 50ec 9f3d cb2b 083e 14ca d4bc 9b01 c43c
00000320: 41dd 3a3e a60a 473d 4bd4 6a3e 4b30 f9bd
00000330: 967f 2fbe c823 05be d3ca abbe 7ced da3d
00000340: 6d4e 66bd 29ed 86be f812 e33b aa05 cebd
00000350: 3673 0dbe c661 c6bc e7dd b2bc 1a31 5a3d
00000360: 3dc9 e8bd 34ce 203d 0265 e33d b54f 00be
00000370: 23cc 213d 90ac dfba c9f8 a1bd 5347 773d
00000380: f3c6 1d3e 0755 953e 09cd 4e3e a0b9 ccbd
00000390: c37d 583e 1b1e de3c 5ddb 48be b7ed a53c
000003a0: b0f5 1e3e 905f 49bd 0815 b3bd 1c18 1fbe
000003b0: 7dbc 67be 7d8f 7dbe d7cc 3cbe 0221 4dbe
000003c0: f87d 8d3b 8df9 31be 99b3 c83d e2b2 58be
000003d0: 2bb2 263e ca1d ce3e c2f1 37bc 795d 38be
000003e0: ec86 693e c38f bf3d 6fa7 46be 0333 00be
000003f0: b53f a0bd 23d3 75be a711 1d3e ff8c 073d

X_1.0.bias f4 [128]
0.19678243 -0.10722018 -0.25698355 0.1416372 0.057908624 -0.1511598 0.011059582 -0.1337332
-0.10024928 -0.0079164095 0.13974908 0.16828778 0.0060340087 0.19723274 -0.05850596 0.048648663
-0.24939646 0.1298501 0.12424065 0.089319825 0.111856826 0.17589283 -0.016142016 0.114737414
-0.19484986 -0.049957737 -0.13953243 0.075329445 -0.15864626 -0.11544893 0.09309634 -0.14926888
0.11280528 -0.08148347 0.18173006 -0.19278798 0.15520467 -0.12217187 -0.24109317 -0.1973019
0.08464851 -0.27479774 0.12491147 -0.13652012 -0.17375362 0.15898205 -0.11752051 -0.21561441
0.1419904 0.18301627 -0.13677397 0.076938055 0.12988453 0.033078738 -0.16610423 0.18407632
-0.15514717 -0.14347333 0.09999068 0.25514084 -0.13581035 -0.016558457 0.118252166 -0.05459741
-0.02234035 -0.0049348855 0.033902396 -0.20265225 0.10280905 0.14474148 -0.24196978 -0.23944566
-0.13011351 -0.062271614 -0.18719134 -0.14717609 -0.17057696 -0.075070545 -0.22869624 0.19091627
-0.12523651 -0.104540385 -0.22728205 -0.17592078 -0.052651387 -0.25322044 -0.20701307 0.07127126
-0.053300127 0.10047499 0.06170627 -0.053765044 -0.012636964 -0.22694123 0.11442774 -0.016966775
-0.26279184 0.11819599 -0.17070247 0.013685791 0.05742995 -0.14352244 -0.020209504 -0.16568871
0.049097233 -0.06661258 -0.096419245 0.017778298 -0.0966635 0.14340642 0.15575719 -0.04416855
-0.2304652 -0.22765811 0.06948532 -0.053453423 -0.20971994 -0.0067540025 0.2094744 0.07230072
0.20315498 -0.16427083 0.11693608 -0.18527068 0.24387728 0.03209082 -0.129901 -0.18542668
00000000: 5581 493e 4196 dbbd 5993 83be 5809 113e
00000010: 9831 6d3d a2c9 1abe 4033 353c 5bf1 08be
00000020: 7f4f cdbd d4b3 01bc 621a 0f3e a253 2c3e
00000030: efb8 c53b 61f7 493e f2a3 6fbd d243 473d
00000040: c961 7fbe 6df7 043e e271 fe3d 50ed b63d
00000050: 3115 e53d 401d 343e 433c 84bc 73fb ea3d
00000060: b986 47be 7ca0 4cbd 97e1 0ebe 5346 9a3d
00000070: 2a74 22be 7d70 ecbd 4ba9 be3d f1d9 18be
00000080: 7406 e73d cee0 a6bd 7217 3a3e 366a 45be
00000090: f9ed 1e3e 3f35 fabd 21e1 76be 8209 4abe
000000a0: 335c ad3d 4ab2 8cbe 96d1 ff3d eecb 0bbe
000000b0: 78ec 31be 31cc 223e 98ae f0bd 06ca 5cbe
000000c0: ee65 113e 9e68 3b3e 7a0e 0cbe b391 9d3d
000000d0: 7300 053e 927d 073d 3a17 2abe 817e 3c3e
000000e0: e6de 1ebe acea 12be eac7 cc3d d2a1 823e
000000f0: de11 0bbe 9aa5 87bc 312e f23d 89a1 5fbd
00000100: 1c03 b7bc d2b4 a1bb 3ddd 0a3d 1284 4fbe
00000110: 8d8d d23d 1c37 143e edc6 77be 3e31 75be
00000120: 7a3c 05be 8510 7fbd 16af 3fbe 54b5 16be
00000130: baab 2ebe 96be 99bd 592f 6abe 8e7f 433e
00000140: 003e 00be 4519 d6bd a0bc 68be 9424 34be
00000150: fba8 57bd 1ca6 81be 3cfb 53be abf6 913d
00000160: 3c51 5abd d5c5 cd3d b7bf 7c3d bc38 5cbd
00000170: 450b 4fbc 4863 68be 1759 ea3d e8fd 8abc
00000180: a78c 86be bd10 f23d a1cc 2ebe 5e3a 603c
00000190: ab3b 6b3d 8cf7 12be 678e a5bc 4daa 29be
000001a0: 2e1a 493d 2d6c 88bd 7477 c5bd cba3 913c
000001b0: 83f7 c5bd 22d9 123e d07e 1f3e 15ea 34bd
000001c0: 12ff 6bbe 351f 69be 524e 8e3d faf1 5abd
000001d0: d3c0 56be ae50 ddbb 7580 563e 6612 943d
000001e0: dc07 503e 9d36 28be 2f7c ef3d 99b7 3dbe
000001f0: f7ba 793e aa71 033d c504 05be 7ee0 3dbe

X_10.0.weight f4 [128, 20]
0.08710712 0.24388753 0.0075494284 0.22478223 -0.17150787 0.032788206 -0.15253799 0.13285251
-0.08897 -0.056714326 -0.09294898 0.06663858 -0.19726314 0.06829036 0.1321112 0.19068524
0.18897898 -0.1467021 -0.027331809 -0.23728405 0.27877706 0.016585141 0.12179245 0.10856264
0.20128416 -0.23960863 -0.26277968 0.14550613 0.2508823 0.14230062 -0.07798561 0.16013494
0.024998264 0.05070789 0.15183614 0.22842379 -0.0345667 0.27077574 0.19289955 -0.13854854
0.018292133 -0.20030934 -0.2245217 0.11839484 -0.18715769 -0.23768565 0.34370595 0.21394576
0.28054458 0.14550333 0.12210532 0.11737459 -0.07244014 0.029516608 0.028225752 0.12868653
0.28197044 0.16524458 -0.15038684 -0.15985103 0.18907814 -0.1272111 0.20165543 -0.037147924
0.1482737 -0.061228964 0.1585994 -0.122613505 -0.03679771 -0.16494416 -0.23320937 0.10572152
-0.032429986 -0.13663425 -0.14612241 0.15886848 -0.017563485 -0.2577555 -0.015875548 0.07287345
-0.016338015 0.0040368256 -0.008281962 0.009325547 0.09835533 0.18244493 -0.06102252 -0.14451894
0.115417786 0.14411019 -0.17609838 -0.027880525 0.06086565 -0.0389182 0.0072489935 -0.24458602
-0.038583457 -0.09270288 0.10402444 -0.033431303 0.021065611 -0.0151855005 -0.059315644 -0.07574245
-0.018264601 0.16730823 -0.0369442 0.20461407 0.049968906 -0.016527364 -0.0302908 -0.094816126
-0.030146843 -0.22964212 -0.13109563 0.1288367 -0.12184599 -0.17583393 0.0023122109 -0.039389163
-0.14400947 0.17753279 0.006772315 0.009335786 -0.074632674 0.018541543 -0.09263829 -0.016007159
0.043939743 -0.0033965132 0.07079477 -0.16430457 -0.16430007 -0.17872103 0.08483166 -0.17001767
-0.22999486 -0.00866596 -0.09188318 0.018247727 0.23131174 0.0127007915 -0.0142671205 -0.1759689
0.102087915 -0.08309435 -0.17411953 -0.045287464 0.09379668 -0.071723185 -0.15211147 -0.17243208
0.13633284 -0.028698 0.08410222 -0.18328482 -0.06257949 0.078135625 0.049785353 0.010769461
0.18319891 0.107562274 0.13884886 0.1462234 0.0434892 -0.0013540308 -0.14929192 -0.147427
-0.19001728 -0.056797206 -0.17016236 -0.24664266 0.054064482 0.016877228 -0.05679382 -0.06311296
0.11661672 0.10898192 -0.11978576 -0.12363049 -0.071932904 -0.08951586 0.19266337 -0.035903133
-0.053249605 0.12698023 -0.1676996 -0.0065446915 0.005538047 0.049097013 -0.1887289 0.040756483
-0.14875577 0.031111285 -0.105834655 0.12981522 0.022394933 -0.077836215 0.022772927 0.06257606
0.03753784 -0.26091915 -0.021371642 0.086104505 0.21432434 0.29641175 -0.07372903 0.29004058
-0.10363648 -0.29788363 -0.051019184 0.24356732 0.06383281 -0.18636465 -0.19073004 -0.20490897
-0.06961253 -0.23954356 0.14713731 0.06338591 -0.10020475 -0.06123914 0.11639938 -0.09355349
0.17465495 0.14311661 -0.15802579 0.008495726 0.0064053936 -0.11465811 -0.20468514 -0.01683141
-0.18282945 -0.14595503 -0.11579816 0.020472385 -0.12855002 -0.16314292 -0.045312267 -0.14474584
-0.1493005 -0.0658281 0.19661771 0.100709595 0.0032563547 -0.042935554 0.26184514 0.00022228668
-0.12474562 0.18835612 0.029835103 0.028220193 0.1373171 0.11936988 0.17811902 -0.21675515
00000000: 3865 b23d a7bd 793e 3261 f73b 502d 663e
00000010: c29f 2fbe ed4c 063d eb32 1cbe 7d0a 083e
00000020: e735 b6bd 484d 68bd 095c bebd cf79 883d
00000030: 59ff 49be d1db 8b3d 2948 073e fe42 433e
00000040: b583 413e 1339 16be f5e6 dfbc 97fa 72be
00000050: debb 8e3e 90dd 873c 526e f93d 1756 de3d
00000060: 6f1d 4e3e f75b 75be 0f8b 86be 8fff 143e
00000070: a573 803e 41b7 113e ebb6 9fbd 6afa 233e
00000080: 29c9 cc3c 14b3 4f3d ef7a 1b3e ede7 693e
00000090: d095 0dbd 1ea3 8a3e 7687 453e abdf 0dbe
000000a0: 62d9 953c e41d 4dbe 04e9 65be fe78 f23d
000000b0: 44a6 3fbe de63 73be 3afa af3e 9914 5b3e
000000c0: 8aa3 8f3e d3fe 143e 5b12 fa3d 1762 f03d
000000d0: 7f5b 94bd d0cc f13c b139 e73c 67c6 033e
000000e0: 6e5e 903e e035 293e 02ff 19be fdaf 23be
000000f0: b39d 413e a043 02be c37e 4e3e 6c28 18bd
00000100: 10d5 173e 39cb 7abd e267 223e ca1c fbbd
00000110: 32b9 16bd 1fe7 28be 70ce 6ebe 8684 d83d
00000120: 4ed5 04bd d9e9 0bbe 1da1 15be 6bae 223e
00000130: 4ce1 8fbc 87f8 83be 700d 82bc ad3e 953d
00000140: 4dd7 85bc 5947 843b 11b1 07bc 2eca 183c
00000150: 856e c93d d8d2 3a3e c0f2 79bd c6fc 13be
00000160: 2960 ec3d 9f91 133e 2253 34be b365 e4bc
00000170: 434e 793d b168 1fbd f788 ed3b c274 7abe
00000180: b009 1ebd 02db bdbd c40a d53d 43ef 08bd
00000190: ca91 ac3c 9bcc 78bc f6f4 72bd dc1e 9bbd
000001a0: a59f 95bc d952 2b3e cd52 17bd 5a86 513e
000001b0: 32ac 4c3d 6564 87bc 6924 f8bc f52e c2bd
000001c0: 83f6 f6bc 4e27 6bbe ef3d 06be c5ed 033e
000001d0: 648a f9bd cf0d 34be 7688 173b 8856 21bd
000001e0: 3877 13be 28cb 353e 4cea dd3b 20f5 183c
000001f0: 04d9 98bd 6fe4 973c 25b9 bdbd 7221 83bc
00000200: 29fa 333d 0998 5ebb d9fc 903d 753f 28be
00000210: 473e 28be a502 37be 39bc ad3d 1d19 2ebe
00000220: c683 6bbe acfb 0dbc 402d bcbd 427c 953c
00000230: fcdc 6c3e fb16 503c a4c0 69bc 3131 34be
00000240: 7813 d13d 5f2d aabd 644c 32be 597f 39bd
00000250: 7918 c03d 9be3 92bd 1cc3 1bbe 0992 30be
00000260: d69a 0b3e 1118 ebbc c93d ac3d 04af 3bbe
00000270: ad29 80bd 9205 a03d baeb 4b3d 6572 303c
00000280: 7f98 3b3e 9c49 dc3d 652e 0e3e 96bb 153e
00000290: bb21 323d bc79 b1ba fbdf 18be 1af7 16be
000002a0: e493 42be 30a4 68bd 0b3f 2ebe e58f 7cbe
000002b0: b872 5d3d 1d42 8a3c a3a0 68bd 5e41 81bd
000002c0: bfd4 ee3d ea31 df3d 3d52 f5bd fb31 fdbd
000002d0: 8f51 93bd 1754 b7bd 8c49 453e 2a0f 13bd
000002e0: 421c 5abd 1b07 023e 72b9 2bbe da74 d6bb
000002f0: 8178 b53b f319 493d 2642 41be 45f0 263d
00000300: 6f53 18be 18dd fe3c d7bf d8bd 48ee 043e
00000310: 9475 b73c 9868 9fbd 4a8e ba3c e127 803d
00000320: 47c1 193d 3297 85be 9513 afbc 8f57 b03d
00000330: d777 5b3e 48c3 973e 3fff 96bd 3380 943e
00000340: 5d3f d4bd 3484 98be 7ef9 50bd b669 793e
00000350: c7ba 823d 60d6 3ebe bc4e 43be a8d3 51be
00000360: 0491 8ebd e84a 75be 2aab 163e 79d0 813d
00000370: 2638 cdbd e4d5 7abd cc62 ee3d f998 bfbd
00000380: bfd8 323e 298d 123e 83d1 21be a831 0b3c
00000390: 56e4 d13b dfd1 eabd fb98 51be 06e2 89bc
000003a0: a537 3bbe 3c75 15be 9627 edbd b4b5 a73c
000003b0: 9ea2 03be f00e 27be 5b99 39bd 4138 14be
000003c0: 3be2 18be e2d0 86bd 2756 493e d540 ce3d
000003d0: 9168 553b 31dd 2fbd 9110 863e a015 6939
000003e0: a27a ffbd 6de0 403e bf68 f43c 092e e73c
000003f0: db9c 0c3e 3278 f43d d564 363e 10f5 5dbe

X_10.0.bias f4 [128]
-0.0100821005 -0.14788766 -0.07468874 0.029004747 -0.02283433 -0.15332018 -0.22148308 0.12890287
0.13646738 -0.13175324 0.10927055 0.12757449 0.07372952 -0.107524745 0.18439369 0.11629427
-0.25412267 0.054611716 -0.06489749 0.1436103 -0.042525385 -0.031007746 0.082068935 -0.15884899
-0.22483732 -0.23265772 -0.008406319 -0.2397016 0.049348384 -0.054974608 0.039039414 -0.1156856
-0.059715766 0.12560903 -0.19947866 -0.07164088 0.087372705 -0.014108326 0.026406914 -0.13966963
0.17203592 0.1567882 0.16777426 -0.12625702 0.20980678 -0.0699281 -0.17198478 -0.08580413
0.12973212 -0.012382544 0.18267925 -0.03085023 -0.016307801 -0.062366754 0.036978636 0.048655666
-0.1351214 0.08752568 0.11345058 -0.027642978 0.16928568 0.13422485 -0.0065482524 -0.03233198
0.15751943 0.17636584 0.16922049 0.033014018 0.030203126 -0.19428407 0.08799074 -0.046456397
0.12161971 0.1470192 -0.18563351 -0.01353584 -0.07183348 -0.13692637 -0.031349327 0.025672816
0.10195348 -0.01177794 0.080669366 -0.19623111 0.21058834 0.1588201 -0.12217722 0.082933046
0.07864545 0.1105066 0.023352964 -0.064902686 -0.16534312 0.057351213 0.13322361 0.082508296
0.19900216 0.11690253 -0.09971632 -0.17676197 -0.07213935 -0.045860805 -0.05642422 -0.21123452
-0.08376271 0.0385474 0.15709169 -0.18190014 -0.20527479 -0.12712379 -0.14290114 0.053249117
0.037052527 -0.0505633 -0.03676433 -0.11892773 0.100018956 -0.18177 0.08602091 0.1555452
-0.01908218 -0.11777108 -0.3049301 0.098133594 0.1897554 -0.06261853 -0.05573199 -0.047880072
00000000: 652f 25bc dd6f 17be 69f6 98bd 5d9b ed3c
00000010: 100f bbbc f7ff 1cbe 76cc 62be 1dff 033e
00000020: 1bbe 0b3e 52ea 06be 3dc9 df3d e3a2 023e
00000030: 81ff 963d ef35 dcbd b3d1 3c3e b12b ee3d
00000040: 5e1c 82be 89b0 5f3d fae8 84bd 940e 133e
00000050: 192f 2ebd f503 febc c213 a83d 4fa9 22be
00000060: c13b 66be d33d 6ebe a8ba 09bc 5674 75be
00000070: 8821 4a3d 0e2d 61bd cbe7 1f3d 92ec ecbd
00000080: 8598 74bd a79f 003e 2244 4cbe 74b8 92bd
00000090: 76f0 b23d 9c26 67bc 5053 d83c 8e05 0fbe
000000a0: 2f2a 303e 168d 203e 04cd 2b3e 8549 01be
000000b0: 97d7 563e 7736 8fbd c71c 30be 13ba afbd
000000c0: 7fd8 043e 27e0 4abc 4510 3b3e 9fb9 fcbc
000000d0: f097 85bc 4874 7fbd e976 173d 2a4b 473d
000000e0: 445d 0abe aa40 b33d c758 e83d 8773 e2bc
000000f0: 3a59 2d3e 3d72 093e b992 d6bb 8a6e 04bd
00000100: c64c 213e 3f99 343e 2348 2d3e b539 073d
00000110: 8c6c f73c 67f2 46be 7d34 b43d 1049 3ebd
00000120: c113 f93d 338c 163e b616 3ebe 6ec5 5dbc
00000130: 6e1d 93bd 6d36 0cbe 2768 00bd cc4f d23c
00000140: fccc d03d 43f8 40bc fb35 a53d cff0 48be
00000150: 78a4 573e bca1 223e 0d38 fabd cdd8 a93d
00000160: de10 a13d 4951 e23d b74e bf3c b3eb 84bd
00000170: b54f 29be 1be9 6a3d c56b 083e 1cfa a83d
00000180: 39c7 4b3e 986a ef3d 1238 ccbd 1701 35be
00000190: ccbd 93bd 8ad8 3bbd 151d 67bd dd4d 58be
000001a0: c98b abbd e1e3 1d3d a5dc 203e 0844 3abe
000001b0: 8e33 52be bd2c 02be ad54 12be bf1b 5a3d
000001c0: 64c4 173d 761b 4fbd 3296 16bd 6290 f3bd
000001d0: bdd6 cc3d ea21 3abe bb2b b03d 3e47 1f3e
000001e0: 3b52 9cbc f731 f1bd cc1f 9cbe 44fa c83d
000001f0: 3d4f 423e 253e 80bd 3a47 64bd e51d 44bd

X_11.0.weight f4 [128, 20]
-0.20572905 0.08907624 0.22426288 -0.14432457 -0.14012833 -0.107822835 0.21817537 0.121870816
-0.20297836 -0.067284495 0.09974941 -0.10994099 0.19842252 -0.18992159 -0.15707718 0.061271533
0.10538313 0.120239906 -0.17892005 -0.043658987 -0.14739218 0.055324547 -0.09201502 0.16971447
-0.16918975 -0.10741081 0.1798885 -0.0033084776 -0.13401319 0.09506763 0.03231433 0.039524645
0.02055637 0.10099407 -0.038170695 0.053040043 -0.18197611 -0.09598093 -0.20954303 -0.2168793
0.14999908 0.05940587 -0.15100123 0.04188944 -0.21406883 0.06251132 0.20259686 0.17464633
-0.063652486 -0.12943813 0.015591547 -0.24160127 -0.11513422 0.046119113 -0.07729351 0.0010087225
-0.16130981 -0.20686452 -0.22708677 0.043109305 -0.13210742 -0.13761555 -0.17551078 -0.044989754
-0.10485114 -0.086582124 0.23506323 0.047560483 -0.09583096 -0.13473248 -0.20332584 -0.04145003
0.12472155 -0.10550484 0.13712862 0.04880854 0.061572563 -0.12227673 -0.008306671 -0.16770796
0.0005888515 0.00032998418 -0.023128444 -0.12204884 0.054583915 -0.09940209 0.19231352 -0.09203358
0.008248113 -0.003995451 0.12469154 -0.047610708 -0.10661217 0.1485678 0.011862166 -0.038454436
0.020758849 -0.19313852 -0.2458963 -0.2470828 -0.007370456 -0.11007329 -0.051392343 -0.022395201
-0.023778565 -0.09097721 0.20673934 0.0055049784 -0.17967503 -0.19579856 -0.08229668 -0.11777653
-0.20201783 -0.2129164 -0.02373147 0.17215064 -0.17651483 0.1618873 0.16628659 0.16602522
0.030470107 -0.25845844 0.0934366 0.12037179 0.15680166 0.060825493 0.0033473435 -0.08361401
-0.29328626 -0.2857815 0.23070985 0.11181367 0.079308234 -0.062224463 0.09945276 0.095077656
0.22152048 -0.069555975 -0.19561724 0.13283636 -0.16100393 0.062231675 0.117683664 -0.11702139
0.07985468 0.07174182 0.0820754 0.007230536 0.102359384 -0.053718586 -0.18849443 0.14560534
0.14538394 -0.18350552 -0.015775144 -0.060636364 -0.04735746 -0.010084162 -0.25018775 0.023259766
-0.10735431 0.088456474 0.045983993 0.04334893 -0.19634075 -0.018067177 0.0026191808 0.1652809
-0.1807992 0.042085152 -0.052912664 -0.12864396 0.1746524 -0.14025602 -0.16069925 -0.027194519
-0.11254194 0.07400433 -0.14107467 -0.097095676 0.031258877 -0.21205825 -0.3243954 -0.042749576
-0.2972426 0.0058322866 -0.24987233 -0.064146884 0.10650455 -0.31368685 -0.22546746 -0.08471941
-0.1554086 -0.110386856 0.061827578 -0.2760294 -0.0026302035 -0.04784247 0.03979874 0.0198375
-0.029663168 0.17901917 0.04225041 0.06993936 0.06200973 -0.19897409 0.19081818 -0.04569538
0.19150111 -0.13222753 0.010448666 -0.2285865 -0.06989836 -0.12776504 -0.07064577 -0.042546097
-0.016401248 0.0044933185 -0.11648145 -0.10041556 0.16038075 0.032016322 -0.119119585 -0.0011856476
-0.02226353 -0.13080867 0.20813301 -0.009886328 -0.17682548 0.08823914 -0.0077770487 -0.0052851764
-0.15590833 0.11806596 -0.12770452 0.09680815 -0.23943119 0.13637349 -0.25131044 0.0069422284
0.021531066 -0.00087373797 -0.07523993 -0.017699651 0.08841039 -0.08240953 -0.08103664 -0.22018948
0.11863859 0.09817101 -0.028743096 -0.13152914 0.16340475 0.0064416653 0.13349743 -0.23420368
00000000: a3aa 52be 9b6d b63d 2ba5 653e d2c9 13be
00000010: cd7d 0fbe 38d2 dcbd 5d69 5f3e 6897 f93d
00000020: 8fd9 4fbe 74cc 89bd 6b49 cc3d be28 e1bd
00000030: 462f 4b3e ce7a 42be d7d8 20be dcf7 7a3d
00000040: 1cd3 d73d 5740 f63d d136 37be c4d3 32bd
00000050: faed 16be fe9b 623d 5f72 bcbd a1c9 2d3e
00000060: 1440 2dbe 33fa dbbd b134 383e 0bd3 58bb
00000070: c13a 09be d1b2 c23d 085c 043d 98e4 213d
00000080: d565 a83c fbd5 ce3d e058 1cbd 8440 593d
00000090: f257 3abe a691 c4bd 7392 56be 9b15 5ebe
000000a0: 5c99 193e 9253 733d 11a0 1abe 4394 2b3d
000000b0: dc34 5bbe ef05 803d 8d75 4f3e 7dd6 323e
000000c0: 3c5c 82bd 6e8b 04be b073 7f3c 5366 77be
000000d0: 7dcb ebbd 65e7 3c3d 0f4c 9ebd 1c37 843a
000000e0: 662e 25be 4bd4 53be 6f89 68be 6293 303d
000000f0: 2b47 07be 17eb 0cbe 19b9 33be 2d47 38bd
00000100: 32bc d6bd f851 b1bd 6ab4 703e c8ce 423d
00000110: 0643 c4bd 50f7 09be a634 50be 82c7 29bd
00000120: 036e ff3d ec12 d8bd 726b 0c3e 77eb 473d
00000130: 8333 7c3d 396c fabd b418 08bc a3bb 2bbe
00000140: 285d 1a3a ba01 ad39 dd77 bdbc bef4 f9bd
00000150: 6293 5f3d 5393 cbbd d6ed 443e 1a7c bcbd
00000160: 1823 073c 46ec 82bb 475e ff3d 7203 43bd
00000170: 7b57 dabd 2822 183e 8859 423c 6682 1dbd
00000180: 760e aa3c 1bc6 45be 3dcc 7bbe 4603 7dbe
00000190: de83 f1bb 1b6e e1bd c780 52bd 2476 b7bc
000001a0: 44cb c2bc 4252 babd 7ab3 533e 1b63 b43b
000001b0: bbfc 37be 6b7f 48be 298b a8bd d234 f1bd
000001c0: c3dd 4ebe c206 5abe 8068 c2bc 4248 303e
000001d0: 4ec0 34be c9c5 253e 0847 2a3e 8402 2a3e
000001e0: 729c f93c aa54 84be b05b bf3d 7c85 f63d
000001f0: 9d90 203e 2724 793d 1b5f 5b3b d23d abbd
00000200: 9e29 96be f451 92be 343f 6c3e 91fe e43d
00000210: 5b6c a23d 14df 7ebd e3ad cb3d 13b8 c23d
00000220: 44d6 623e 5d73 8ebd e34f 48be 4106 083e
00000230: 37de 24be a4e6 7e3d 2204 f13d e9a8 efbd
00000240: da8a a33d 60ed 923d 2617 a83d 22ee ec3b
00000250: cca1 d13d 0508 5cbd af04 41be 9119 153e
00000260: 87df 143e dfe8 3bbe e03a 81bc d65d 78bd
00000270: e5f9 41bd 0a38 25bc 9c18 80be 448b be3c
00000280: 94dc dbbd ab28 b53d b659 3c3d a68e 313d
00000290: 8d0d 49be 9e01 94bc 90a6 2b3b 653f 293e
000002a0: 6d23 39be 7b61 2c3d f3ba 58bd 3ebb 03be
000002b0: 14d8 323e 469f 0fbe 588e 24be 0ac7 debc
000002c0: 637c e6bd 958f 973d e175 10be 19da c6bd
000002d0: 4f09 003d cc25 59be 2717 a6be 2e1a 2fbd
000002e0: 2f30 98be c41c bf3b 88de 7fbe 715f 83bd
000002f0: 0f1f da3d 909b a0be f1e0 66be 5f81 adbd
00000300: 6f23 1fbe 8112 e2bd ea3e 7d3d ba53 8dbe
00000310: 7e5f 2cbb 77f6 43bd 0104 233d 4182 a23c
00000320: 2c00 f3bc cd50 373e c40e 2d3d 5e3c 8f3d
00000330: eafd 7d3d ddbf 4bbe d765 433e 142b 3bbd
00000340: de18 443e a766 07be e230 2b3c 9412 6abe
00000350: df26 8fbd d7d4 02be bbae 90bd d144 2ebd
00000360: e95b 86bc b03c 933b d48d eebd aca6 cdbd
00000370: da3a 243e 8c23 033d f8f4 f3bd bb67 9bba
00000380: 0262 b6bc b5f2 05be d220 553e 44fa 21bc
00000390: bd11 35be b9b6 b43d 9dd6 febb 462f adbb
000003a0: 6fa6 1fbe 91cc f13d f9c4 02be 5a43 c63d
000003b0: 732d 75be 7ea5 0b3e c3ab 80be a27b e33b
000003c0: eb61 b03c 900b 65ba 6417 9abd dcfe 90bc
000003d0: 8210 b53d 54c6 a8bd 8af6 a5bd 5a79 61be
000003e0: caf8 f23d e20d c93d a476 ebbc 93af 06be
000003f0: 9353 273e 9b14 d33b 8db3 083e 17d3 6fbe

X_11.0.bias f4 [128]
0.04425964 -0.015103765 0.13774431 -0.13034539 0.08715628 0.03748373 -0.15126581 0.069207214
-0.016688107 -0.12332849 -0.091076896 -0.084512256 0.09541881 -0.17894298 0.08380925 -0.037341513
-0.19028473 -0.024676858 -0.095384315 0.040692024 -0.1097737 0.012882784 -0.20333315 0.08246236
-0.15767846 -0.092859015 0.065430455 -0.18662056 0.09582061 0.076399 -0.16892175 0.10049947
0.12316966 0.006852716 -0.17491029 0.023016945 -0.21635145 -0.050198805 -0.005488527 -0.21489836
-0.11983124 -0.018730862 -0.05717904 -0.20429085 0.06478192 -0.25636724 -0.07762555 0.036157914
-0.15367565 -0.13413349 0.10328863 -0.1681233 0.04531376 -0.03324891 -0.10523391 -0.007355595
-0.08297392 -0.02028969 -0.15229501 0.02729056 -0.00027191758 -0.05702009 0.15416144 -0.16957706
-0.013182137 -0.041683014 -0.1659502 0.1633218 -0.004295898 0.18226801 -0.061617367 -0.18646795
0.067849 0.15420428 -0.14133212 -0.05293196 0.038478836 -0.2511753 -0.1703425 -0.003568184
0.031117093 -0.046411473 0.07104893 0.031191185 -0.03613027 -0.19748867 -0.0008674695 -0.06569562
-0.037337594 -0.09777437 0.005434692 0.10205985 0.015098784 -0.053037632 -0.1451544 -0.19388305
-0.060105756 -0.23056586 -0.00079327985 -0.22963442 -0.21722475 0.09418608 -0.09544328 -0.21820015
0.13893986 -0.09520078 0.00010190192 -0.17433599 -0.17497267 -0.2482387 -0.23015933 0.061901752
-0.03736943 0.0059405547 -0.14047025 -0.07623996 -0.07705293 0.07549484 0.1620166 0.03245858
-0.050886817 0.270804 0.20623131 -0.18792471 0.06728792 0.0131353885 -0.08897895 -0.17791174
00000000: 9949 353d c875 77bc d80c 0d3e 4379 05be
00000010: fe7e b23d 8a88 193d 6de5 1abe 83bc 8d3d
00000020: 7fb5 88bc a693 fcbd 8686 babd c314 adbd
00000030: f06a c33d d43c 37be 2fa4 ab3d 6af3 18bd
00000040: 00da 42be 1f27 cabc da58 c3bd aeac 263d
00000050: 09d1 e0bd 5012 533c 9136 50be 07e2 a83d
00000060: 7676 21be de2c bebd 6700 863d 7619 3fbe
00000070: 993d c43d 1477 9c3d d3f9 2cbe abd2 cd3d
00000080: 6040 fc3d c08c e03b af1b 33be 088e bc3c
00000090: 3c8b 5dbe 439d 4dbd 1ad9 b3bb 510e 5cbe
000000a0: 156a f5bd 7771 99bc 9234 6abd 9f31 51be
000000b0: 62ac 843d 9142 83be 25fa 9ebd 521a 143d
000000c0: 265d 1dbe 4a5a 09be fd88 d33d 8428 2cbe
000000d0: ec9a 393d 0230 08bd e084 d7bd 3407 f1bb
000000e0: 3bee a9bd 9036 a6bc 39f3 1bbe 7490 df3c
000000f0: 2990 8eb9 e68d 69bd 7fdc 1d3e 9ca5 2dbe
00000100: e4f9 57bc cfbb 2abd d9ee 29be d43d 273e
00000110: 9bc4 8cbb 77a4 3a3e 7e62 7cbd 74f1 3ebe
00000120: 6bf4 8a3d bae7 1d3e 5eb9 10be 2fcf 58bd
00000130: fc9b 1d3d 0d9a 80be 446e 2ebe 32d8 69bb
00000140: 46e9 fe3c f519 3ebd 1a82 913d a884 ff3c
00000150: 56fd 13bd 783a 4abe e566 63ba 6d8b 86bd
00000160: 4eef 18bd ee3d c8bd 8015 b23b c104 d13d
00000170: e460 773c fd3d 59bd 5ba3 14be 4789 46be
00000180: 7431 76bd 7519 6cbe 1cf4 4fba 4925 6bbe
00000190: 2a70 5ebe a2e4 c03d c477 c3bd dc6f 5fbe
000001a0: 4046 0e3e a0f8 c2bd 2db4 d538 2285 32be
000001b0: 092c 33be 4932 7ebe e3ae 6bbe b18c 7d3d
000001c0: b010 19bd fca8 c23b 6fd7 0fbe b223 9cbd
000001d0: edcd 9dbd 0a9d 9a3d aee7 253e 4af3 043d
000001e0: b26e 50bd d2a6 8a3e 4d2e 533e 566f 40be
000001f0: 40ce 893d d035 573c 993a b6bd 7f2e 36be

X_12.0.weight f4 [128, 20]
0.10572845 -0.2904955 0.10871501 0.2288435 0.25051326 0.22957534 -0.16405585 -0.0024190925
-0.17050491 -0.12392725 -0.08991207 -0.016112506 -0.08672051 -0.18630303 0.03583829 -0.15289068
0.16424009 -0.055636894 0.1647658 -0.14699893 0.18876773 0.011257072 0.23527147 0.10223087
-0.06346093 0.10376748 -0.082906164 0.19269258 0.15927513 -0.107503876 0.142824 -0.12871854
-0.004124071 0.015546384 -0.15267089 -0.09079297 -0.20144375 0.04323887 -0.08890841 -0.25165048
0.0097831795 0.21059008 -0.16204458 0.034423538 0.0016908508 -0.061444946 0.059970904 -0.10505146
-0.052075777 0.06752158 -0.011129643 -0.20209406 -0.19451316 -0.034575384 -0.020550126 -0.2850928
-0.10906565 0.061666258 -0.021209696 0.13190244 -0.15749672 -0.04505577 -0.15574177 0.18926583
-0.13854168 0.009583887 -0.09051418 0.11070742 -0.011907945 0.055165548 0.0393994 -0.09304863
0.07959882 -0.10120562 -0.0050208634 -0.031829543 -0.074210964 0.15054472 -0.2005143 -0.11552752
0.054814868 0.31398302 -0.14047667 -0.07434738 0.013270424 -0.22839506 -0.16928746 -0.088961065
0.10191471 -0.03655551 -0.18394227 0.16449198 -0.1362392 -0.24121667 -0.0047622067 0.052725736
-0.08370936 0.12586643 -0.10681884 0.09668626 -0.068898395 -0.26559204 0.15120448 0.13115688
-0.11640565 -0.15119566 0.013889713 -0.07971023 -0.11687668 -0.1259181 0.14310673 -0.0671808
0.028542107 -0.11593714 -0.003348678 -0.051612347 -0.06851791 0.056138355 0.17217721 -0.20207295
0.075929336 -0.30609992 -0.17272311 0.19862649 0.13349837 0.0247795 0.17592831 0.04421289
0.053499833 -0.262239 0.077092245 -0.007798069 -0.13075292 -0.14561577 -0.23013003 0.16367668
0.14094576 -0.09643689 -0.101792395 -0.2509344 -0.064676404 0.029981447 0.19463103 0.23506539
0.033907305 -0.17007458 0.08280458 0.12787382 0.021924168 0.08213191 -0.01919547 -0.1584889
-0.20106448 0.003999311 -0.17133053 0.049371153 -0.25994608 -0.27853385 0.1235315 -0.198888
-0.01132879 -6.4566746e-05 -0.13337147 -0.19347967 0.0374066 -0.03270288 -0.16212563 0.013193057
0.07353523 0.18121758 -0.2705857 -0.102817304 0.124528594 -0.17211933 -0.19407417 0.081589326
0.13241217 0.01526535 -0.23661757 -0.05043106 -0.070522286 0.11541693 -0.055166148 -0.17990462
0.13437307 0.1042757 0.029365685 -0.12775604 -0.093530975 -0.12497081 -0.08055643 -0.15541655
-0.07426676 -0.13033171 0.14089096 -0.19256456 0.09651002 -0.1252851 0.12221456 -0.13987173
-0.07922814 -0.14587983 -0.30516836 -0.07204055 0.26324454 -0.11192482 -0.00933475 -0.14506972
0.17382282 0.007289707 0.25176427 -0.0649413 0.14682098 -0.18139593 -0.15010723 0.098395996
0.21985985 0.18640067 0.10215923 0.20886101 -0.07896204 0.021889735 0.16758072 -0.051247597
0.1707245 -0.094254166 -0.122540444 -0.21941015 -0.12737617 0.07501898 -0.18774083 0.026644403
-0.2435856 -0.22952722 -0.0691028 0.036784336 0.15888141 0.11099271 -0.012109383 -0.09300229
-0.17993592 0.029283615 -0.26104718 -0.2259722 -0.19827177 -0.055190224 -0.032527402 -0.070968494
0.16131407 0.34821475 0.20276654 -0.052598882 -0.106339194 0.053072095 0.015683664 0.08309762
00000000: 2888 d83d d4bb 94be faa5 de3d f355 6a3e
00000010: 4643 803e cc15 6b3e 42fe 27be a389 1ebb
00000020: d798 2ebe 92cd fdbd d223 b8bd 60fe 83bc
00000030: 869a b1bd 39c6 3ebe 2ccb 123d 608f 1cbe
00000040: 8e2e 283e 83e3 63bd 5eb8 283e e386 16be
00000050: 544c 413e 956f 383c 01eb 703e 6b5e d13d
00000060: cef7 81bd 0b84 d43d b5ca a9bd 3451 453e
00000070: 0519 233e fe2a dcbd 7440 123e cbce 03be
00000080: 3723 87bb 43b6 7e3c c255 1cbe aaf1 b9bd
00000090: 4547 4ebe 3e1b 313d 9d15 b6bd 55d8 80be
000000a0: a149 203c eda4 573e 04ef 25be b2ff 0c3d
000000b0: 8a9f dd3a b2ad 7bbd 0da4 753d 3825 d7bd
000000c0: 694d 55bd c148 8a3d 1b59 36bc bff1 4ebe
000000d0: 752e 47be eb9e 0dbd bd58 a8bc aff7 91be
000000e0: d05d dfbd c295 7c3d f5bf adbc 6f11 073e
000000f0: d246 21be 668c 38bd c57a 1fbe e7ce 413e
00000100: dfdd 0dbe bc05 1d3c 805f b9bd 92ba e23d
00000110: 8b19 43bc 45f5 613d 4461 213d 4890 bebd
00000120: b504 a33d e444 cfbd 0e86 a4bb b25f 02bd
00000130: ebfb 97bd 6528 1a3e 9f53 4dbe b199 ecbd
00000140: 8e85 603d 62c2 a03e 1ed9 0fbe 7043 98bd
00000150: 316c 593c 65e0 69be b159 2dbe 3831 b6bd
00000160: a9b8 d03d 3bbb 15bd 5d5b 3cbe 9670 283e
00000170: 4a82 0bbe 8101 77be 490c 9cbb f1f6 573d
00000180: d06f abbd 21e3 003e d6c3 dabd 7203 c63d
00000190: 9a1a 8dbd aefb 87be 59d5 1a3e fd4d 063e
000001a0: 1666 eebd 09d3 1abe ae91 633c 1e3f a3bd
000001b0: 0a5d efbd adf0 00be 928a 123e 1696 89bd
000001c0: 23d1 e93c 7470 edbd 7e75 5bbb 7867 53bd
000001d0: 1e53 8cbd 55f1 653d 394f 303e 36ec 4ebe
000001e0: d780 9b3d 21b9 9cbe 54de 30be be64 4b3e
000001f0: ccb3 083e 61fe ca3c 8d26 343e 9318 353d
00000200: a422 5b3d 3144 86be 8ae2 9d3d f286 ffbb
00000210: 18e4 05be 4d1c 15be 35a7 6bbe dc9a 273e
00000220: 1654 103e b480 c5bd 8878 d0bd 797a 80be
00000230: 1075 84bd a79b f53c 5b4d 473e fbb4 703e
00000240: 63e2 0a3d 0828 2ebe 7395 a93d 5bf1 023e
00000250: 509a b33c c634 a83d d13f 9dbc ea4a 22be
00000260: d9e3 4dbe a70c 833b 4571 2fbe 6839 4a3d
00000270: a717 85be fd9b 8ebe 15fe fc3d 4ca9 4bbe
00000280: 649c 39bc 0268 87b8 8892 08be 891f 46be
00000290: aa37 193d 75f3 05bd 4304 26be b127 583c
000002a0: a399 963d 1a91 393e 358a 8abe e191 d2bd
000002b0: d908 ff3d 0d40 30be 61bb 46be 4e18 a73d
000002c0: 0e97 073e 851b 7a3c e04b 72be cd90 4ebd
000002d0: fd6d 90bd b65f ec3d e6f5 61bd eb38 38be
000002e0: 1899 093e 808e d53d 4e90 f03c 7bd2 02be
000002f0: 2b8d bfbd b2f0 ffbd c5fa a4bd 8425 1fbe
00000300: 2c19 98bd ad75 05be b845 103e a52f 45be
00000310: 0ca7 c53d bd4a 00be a14b fa3d 893a 0fbe
00000320: 5d42 a2bd 8661 15be 073f 9cbe ff89 93bd
00000330: fdc7 863e d738 e5bd c7f0 18bc 288d 14be
00000340: 9cfe 313e 7fde ee3b 3fe7 803e f2ff 84bd
00000350: 3d58 163e dbbf 39be b6b5 19be d783 c93d
00000360: f122 613e d1df 3e3e dc38 d13d a9df 553e
00000370: dab6 a1bd 1a52 b33c 489a 2b3e 00e9 51bd
00000380: 67d2 2e3e 5408 c1bd 7cf6 fabd 0ead 60be
00000390: e66e 02be 8da3 993d 223f 40be 5d45 da3c
000003a0: 816e 79be 2f09 6bbe c585 8dbd 2cab 163d
000003b0: cfb1 223e 2550 e33d 6f66 46bc fc77 bebd
000003c0: 1f41 38be 31e4 ef3c faa7 85be 4265 67be
000003d0: c107 4bbe 250f 62bd 743b 05bd ee57 91bd
000003e0: 842f 253e 3449 b23e 08a2 4f3e ed71 57bd
000003f0: 5dc8 d9bd 2062 593d 077b 803c 162f aa3d

X_12.0.bias f4 [128]
-0.1702325 -0.16440627 -0.17839897 0.15746635 -0.09383034 0.08819523 -0.01937611 0.0020571263
-0.043894146 -0.016968368 -0.023257004 0.047808114 -0.11415686 0.15073135 0.048118558 0.019736225
-0.122686915 0.04024705 -0.15654038 -0.23495571 0.0045808773 -0.14593095 -0.122230895 0.16647667
0.15133412 -0.13198541 -0.10788649 0.15804201 0.074540086 -0.014968102 -0.18150662 0.16332886
0.040791545 -0.1074162 0.12004813 0.10546147 -0.09174168 -0.0018467325 0.103549145 0.21312028
0.14071983 -0.049238224 0.058529582 -0.063314974 -0.090061344 -0.0473141 0.024454664 0.058524344
0.19489413 -0.23508619 -0.2083025 -0.2195056 0.16065425 -0.20733187 -0.10700663 -0.17348811
0.18394522 -0.045982007 -0.0472481 0.17407408 0.12545666 0.043003347 -0.011906543 0.06591214
0.11085432 0.01206537 -0.04862112 -0.029900981 -0.13074383 -0.24026151 -0.2196139 0.1615736
0.14021824 0.095799774 -0.024047956 -0.048216242 -0.14601713 -0.21435507 -0.22234209 0.1558019
0.083046235 0.099666685 -0.112240165 -0.23729636 -0.24202165 -0.20528705 -0.016067436 0.07610405
-0.03565577 0.14616251 -0.042115342 0.05974728 -0.17319517 0.036891315 0.17501967 0.12756996
-0.24559359 0.014423818 -0.08020363 -0.24125855 -0.079531245 -0.16046593 -0.15190434 0.0027045638
-0.105811514 -0.022390084 -0.2258179 0.16718104 0.17640664 -0.13574526 0.061505374 -0.09022778
0.053240824 0.17835802 0.05597778 -0.0870556 -0.08421416 -0.06982047 -0.22439219 0.02129582
-0.22827537 0.025001708 0.16032577 0.19101538 0.13386203 0.13639766 -0.014550533 -0.040233783
00000000: 6e51 2ebe 1e5a 28be 38ae 36be dc3e 213e
00000010: 1f2a c0bd b39f b43d a6ba 9ebc dad0 063b
00000020: 59ca 33bd 3f01 8bbc 7985 bebc 71d2 433d
00000030: 12cb e9bd 5259 1a3e f717 453d ddad a13c
00000040: 4743 fbbd 17da 243d 1f4c 20be 3b98 70be
00000050: 2f1b 963b ec6e 15be 3154 fabd dc78 2a3e
00000060: 55f7 1a3e 2f27 07be 98f3 dcbd c4d5 213e
00000070: 79a8 983d c53c 75bc dfdc 39be ae3f 273e
00000080: 0915 273d 06fd dbbd cbdb f53d 2ffc d73d
00000090: 10e3 bbbd 0f0e f2ba 9311 d43d 343c 5a3e
000000a0: dc18 103e 05ae 49bd b7bc 6f3d 48ab 81bd
000000b0: 1572 b8bd 6ecc 41bd 2655 c83c 39b7 6f3d
000000c0: 5492 473e 6fba 70be 404d 55be 13c6 60be
000000d0: 8c82 243e ce4e 54be 4b26 dbbd dea6 31be
000000e0: 235c 3c3e a157 3cbd 3987 41bd 7a40 323e
000000f0: b677 003e 4724 303d a913 43bc f2fc 863d
00000100: 9707 e33d d4ad 453c f126 47bd e7f2 f4bc
00000110: b6e1 05be 1d07 76be 77e2 60be 8d73 253e
00000120: 5f95 0f3e ac32 c43d 3800 c5bc 657e 45bd
00000130: 8485 15be e57f 5bbe a5ad 63be 898a 1f3e
00000140: 2514 aa3d 0c1e cc3d 2cde e5bd d1fd 72be
00000150: 86d4 77be c536 52be db9f 83bc 71dc 9b3d
00000160: c90b 12bd a0ab 153e 2381 2cbd 90b9 743d
00000170: 135a 31be 591b 173d 5b38 333e b3a1 023e
00000180: e37c 7bbe e151 6c3c cd41 a4bd 7b0c 77be
00000190: 47e1 a2bd 2e51 24be d08c 1bbe 0d3f 313b
000001a0: b5b3 d8bd 696b b7bc cf3c 67be 8231 2b3e
000001b0: f1a3 343e ce00 0bbe 0fed 7b3d 58c9 b8bd
000001c0: 0d13 5a3d 7ca3 363e f548 653d 354a b2bd
000001d0: 7978 acbd 09fe 8ebd 11c7 65be 9274 ae3c
000001e0: 05c1 69be 62d0 cc3c 702c 243e 8999 433e
000001f0: 2113 093e d4ab 0b3e 5c65 6ebc 2ecc 24bd

X_5.0.weight f4 [128, 20]
-0.26155967 -0.14170696 -0.022734202 -0.18290132 0.03638056 0.16256426 0.010229236 -0.28193003
0.09498192 0.13700536 0.19671997 -0.016219405 -0.13148831 0.0670299 0.08245621 -0.068533435
-0.09326884 -0.16377696 0.18467174 0.22356969 -0.1099661 -0.008280484 0.03388954 -0.00923517
0.013292174 -0.13368423 0.030866144 -0.175304 0.13185683 -0.07705096 -0.24362858 -0.2039451
0.1512159 0.1179814 -0.109215945 0.02393953 0.07288193 -0.035374034 0.13255964 0.04277694
0.1251445 0.06585894 0.1591903 0.1991189 0.0690849 -0.19681711 -0.04590041 -0.16891305
0.16115202 -0.08073519 0.17847128 -0.093979545 0.0029406887 -0.06799339 0.16775663 0.07216187
0.14744556 0.059791844 0.08040325 -0.1934605 -0.035895023 0.12857771 -0.17158134 0.019574713
0.014641082 -0.038667206 -0.10878526 0.12405763 -0.18507853 0.039341588 -0.07179382 0.14201923
0.15043396 -0.032112263 0.043290082 0.16468996 0.07975578 -0.087890714 -0.025129851 -0.076776765
0.10080338 0.12078627 -0.083423585 0.18654986 0.078344524 0.077605955 -0.20505567 0.14456679
0.027414376 -0.010688858 0.0053960667 -0.23322996 -0.20023559 0.03098511 0.111643456 -0.16132772
-0.014975204 -0.20358825 0.07603507 0.12695467 -0.09974276 -0.04421765 -0.07989983 0.12542878
-0.12754717 -0.14773856 -0.19237936 0.14345624 -0.21302482 -0.42617553 0.21533266 0.11445552
-0.08257614 -0.07451193 -0.19059253 -0.0150520485 -0.08598529 0.12939915 -0.079346284 -0.040146947
-0.06545615 0.27108416 -0.15577212 -0.19521718 -0.2997436 -0.12141121 -0.2547436 -0.14095508
0.10105101 0.21579018 -0.16741641 -0.11940982 -0.06594115 -0.07921995 0.04769659 -0.016573088
0.15937957 0.04659322 -0.15193024 -0.15250555 -0.17023353 -0.103838496 0.035881415 -0.24132706
0.15013881 -0.027523357 0.15819451 0.17407885 -0.044582076 -0.012096586 -0.07987211 0.14673956
-0.24295093 -0.011546104 -0.016170809 0.006643907 -0.039054282 0.07537797 -0.101803854 0.12031425
-0.12515064 -0.023268767 0.041783392 0.07996549 -0.12417298 -0.11519391 0.20249957 0.13042688
-0.037606467 0.045061205 -0.18377298 -0.23668458 0.096644886 0.11674544 -0.18064694 -0.054888215
0.018315984 0.02357078 -0.12586007 0.063401766 0.10461942 -0.12183914 0.1898213 0.15890697
-0.047687992 0.018390581 -0.17830831 0.07981382 -0.07186373 0.2303294 0.069788255 0.025085226
-0.18205301 -0.14886495 0.124995135 -0.16926886 -0.04429402 -0.04187397 -0.09602869 0.19295228
-0.018982088 -0.10132258 0.08235033 -0.18118228 0.11810656 0.07845185 -0.11865926 0.13546127
-0.16838844 0.14948244 -0.13753432 -0.048791934 0.14662611 0.08591381 0.07586696 -0.22522542
0.14511319 -0.01887265 0.18289278 -0.14167929 -0.03519931 0.14137387 0.2318807 0.28925186
-0.08112877 -0.14526355 -0.17627174 -0.0851107 -0.13194863 0.15541776 -0.17028388 -0.07230138
0.13647886 -0.21349853 -0.18088353 -0.06605545 -0.20165037 -0.12397859 0.17768556 0.14246954
0.025279384 0.13695759 -0.19358826 -0.154769 0.18015727 -0.084959745 0.21870665 -0.06489084
0.16996244 0.05734969 0.05183678 -0.0052847685 -0.012175812 -0.059453398 -0.2276951 -0.016417237
00000000: 26eb 85be a11b 11be 143d babc 7c4a 3bbe
00000010: c803 153d 3f77 263e 8798 273c 2259 90be
00000020: e285 c23d 224b 0c3e f670 493e 8fde 84bc
00000030: dfa4 06be f946 893d cdde a83d 425b 8cbd
00000040: bc03 bfbd 26b5 27be 971a 3d3e 74ef 643e
00000050: e835 e1bd deaa 07bc c2cf 0a3d 1c4f 17bc
00000060: 6bc7 593c 85e4 08be ffda fc3c e482 33be
00000070: 7a05 073e e5cc 9dbd c579 79be fcd6 50be
00000080: 57d8 1a3e 3ba0 f13d 9cac dfbd d51c c43c
00000090: 1f43 953d 5de4 10bd b7bd 073e df36 2f3d
000000a0: e125 003e 0de1 863d c802 233e d3e5 4b3e
000000b0: 627c 8d3d 6d8a 49be 1102 3cbd 8bf7 2cbe
000000c0: 0905 253e 7e58 a5bd 2dc1 363e 5978 c0bd
000000d0: 92b8 403b 1e40 8bbd 65c8 2b3e 9ac9 933d
000000e0: f8fb 163e 4be8 743d 76aa a43d 821a 46be
000000f0: a906 13bd e0a9 033e 05b3 2fbe 265b a03c
00000100: 26e1 6f3c 8161 1ebd ceca debd ed11 fe3d
00000110: 3a85 3dbe a524 213d a308 93bd 7d6d 113e
00000120: 5c0b 1a3e 2688 03bd f150 313d 7ca4 283e
00000130: 0057 a33d 0c00 b4bd 1edd cdbc 233d 9dbd
00000140: 0172 ce3d cb5e f73d fcd9 aabd ed06 3f3e
00000150: 1873 a03d dfef 9e3d 1dfa 51be 5109 143e
00000160: 1d94 e03c 5220 2fbc 7dd1 b03b d6d3 6ebe
00000170: 8f0a 4dbe 7cd4 fd3c 53a5 e43d 1833 25be
00000180: 8f5a 75bc 7079 50be 46b8 9b3d 6800 023e
00000190: ef45 ccbd 911d 35bd 86a2 a3bd 6770 003e
000001a0: ba9b 02be c748 17be 18ff 44be 31e6 123e
000001b0: 2e23 5abe ae33 dabe 2a80 5c3e a867 ea3d
000001c0: ae1d a9bd b699 98bd b02a 43be de9c 76bc
000001d0: 0e19 b0bd 3681 043e 4e80 a2bd 2071 24bd
000001e0: e00d 86bd 8bcb 8a3e ba82 1fbe 03e7 47be
000001f0: fe77 99be 71a6 f8bd c16d 82be 8756 10be
00000200: d5f3 ce3d 1af8 5c3e 356f 2bbe 238d f4bd
00000210: 270c 87bd 123e a2bd 805d 433d 49c4 87bc
00000220: 6634 233e 88d8 3e3d 9a93 1bbe 6a2a 1cbe
00000230: b351 2ebe 47a9 d4bd 64f8 123d 711e 77be
00000240: fdbd 193e aa78 e1bc befd 213e ba41 323e
00000250: b29b 36bd c230 46bc fd93 a3bd e542 163e
00000260: 21c8 78be df2b 3dbc a578 84bc 22b5 d93b
00000270: 62f7 1fbd c45f 9a3d 8a7e d0bd 5167 f63d
00000280: 7d27 00be 249e bebc 1025 2b3d f2c4 a33d
00000290: 674e febd c9ea ebbd 0c5c 4f3e a08e 053e
000002a0: 3d09 1abd 1992 383d fc2e 3cbe 715d 72be
000002b0: c1ed c53d 3c18 ef3d 83fb 38be 77d2 60bd
000002c0: 670b 963c 8217 c13c 76e1 00be c9d8 813d
000002d0: b542 d63d cd86 f9bd 8460 423e 82b8 223e
000002e0: 7c54 43bd d8a7 963c 7496 36be 6e75 a33d
000002f0: 4b2d 93bd 78db 6b3e 25ed 8e3d 887f cd3c
00000300: 1b6c 3abe 0e70 18be 73fd ff3d d154 2dbe
00000310: a56d 35bd 0a84 2bbd b1aa c4bd 4895 453e
00000320: 5380 9bbc 3682 cfbd 4aa7 a83d d987 39be
00000330: dae1 f13d 5dab a03d a003 f3bd 5cb6 0a3e
00000340: 056e 2cbe ed11 193e ccd5 0cbe 0dda 47bd
00000350: 2825 163e 94f3 af3d 2360 9b3d 7ea1 66be
00000360: 8d98 143e d19a 9abc 3f48 3b3e 6014 11be
00000370: 272d 10bd 50c4 103e 2272 6d3e d218 943e
00000380: d726 a6bd f8bf 14be 9480 34be 854e aebd
00000390: 8b1d 07be d525 1f3e e65e 2ebe bf12 94bd
000003a0: 1dc1 0b3e 5c9f 5abe 8839 39be 1448 87bd
000003b0: 6f7d 4ebe 7de8 fdbd 34f3 353e 89e3 113e
000003c0: b616 cf3c 9c3e 0c3e 003c 46be c47b 1ebe
000003d0: 267b 383e 60ff adbd a3f4 5f3e 7de5 84bd
000003e0: a20a 2e3e 82e7 6a3d ce52 543d da2b adbb
000003f0: 0f7d 47bc 6885 73bd e728 69be 717d 86bc

X_5.0.bias f4 [128]
-0.12038117 0.03463042 0.042925276 -0.00985721 -0.2382715 -0.055543616 0.105240405 -2.2881428e-05
-0.065633886 0.12709303 0.04466217 -0.0071096886 0.07500611 -0.11833782 -0.11730211 -0.067365244
0.038896386 0.08965596 -0.27769744 -0.20075291 -0.21589366 -0.2597022 -0.030944642 -0.16475435
0.025852688 0.050582163 0.0158484 -0.10844311 0.0015751097 -0.11657727 -0.13671315 0.14159329
-0.0856157 0.11511274 -0.19897948 -0.11019388 0.18164517 0.019878298 0.12547678 -0.20773059
0.12176297 -0.06574109 -0.15143974 -0.12380922 -0.21353364 -0.027852457 0.023983309 0.06183603
0.27325985 0.05447811 -0.06202575 0.005661538 0.16160662 -0.13885461 0.07896287 0.13802144
-0.045824196 -0.08465785 -0.17964874 -0.08249591 -0.1485464 -0.117015764 -0.07869144 0.031151587
0.0009952615 0.1646878 0.01098586 -0.0949578 0.038702294 0.00530167 -0.017310536 0.05015203
-0.0860569 -0.12207821 0.07679987 -0.173624 0.16262262 0.13497217 -0.015894698 -0.14391263
-0.22114228 -0.06323602 -0.225371 -0.24648973 -0.017158022 -0.14579329 -0.09349684 -0.073548965
-0.2619845 0.075033605 -0.18161665 -0.09201978 0.004255042 -0.07075426 -0.2062234 -0.17291105
-0.06986622 -0.0056154965 0.10420749 0.028759712 0.087088265 0.013569809 -0.06415031 -0.067625694
-0.23647279 -0.094188415 -0.029795576 -0.18159771 -0.19880238 0.1730782 -0.070884585 -0.031523358
0.17998967 0.13328455 -0.1239126 -0.09186596 0.1800062 0.14373802 0.13332318 -0.13838167
0.01280811 -0.18744946 -0.17812297 -0.058103457 -0.19100805 -0.18498 0.045549322 -0.02395378
00000000: 678a f6bd a1d8 0d3d 6ad2 2f3d 2380 21bc
00000010: 72fd 73be b481 63bd 4888 d73d 7ef1 bfb7
00000020: 0f6b 86bd ad24 023e aeef 363d 64f8 e8bb
00000030: ce9c 993d 195b f2bd 173c f0bd caf6 89bd
00000040: d151 1f3d 8b9d b73d 5c2e 8ebe 2c92 4dbe
00000050: 3a13 5dbe b0f7 84be 9e7f fdbc 5db5 28be
00000060: 04c9 d33c 3e2f 4f3d 81d4 813c 6c17 debd
00000070: e973 ce3a 10c0 eebd 88fe 0bbe d5fd 103e
00000080: 4957 afbd 3ac0 eb3d 47c1 4bbe 54ad e1bd
00000090: 3101 3a3e d0d7 a23c fc7c 003e 54b7 54be
000000a0: dd5e f93d 44a3 86bd 0513 1bbe b08f fdbd
000000b0: 90a8 5abe d62a e4bc a578 c43c c747 7d3d
000000c0: b7e8 8b3e 7024 5f3d b60e 7ebd 6c84 b93b
000000d0: 357c 253e e72f 0ebe 49b7 a13d 7e55 0d3e
000000e0: 27b2 3bbd 1861 adbd d7f5 37be 9ef3 a8bd
000000f0: 8c1c 18be f6a5 efbd fa28 a1bd 9d31 ff3c
00000100: 6f73 823a eba3 283e 09fe 333c 3c79 c2bd
00000110: 4c86 1e3d a2b9 ad3b d3ce 8dbc 376c 4d3d
00000120: 9a3e b0bd 2404 fabd 4049 9d3d 7dca 31be
00000130: 8b86 263e 2536 0a3e 9935 82bc d55d 13be
00000140: 1f73 62be e381 81bd a8c7 66be ce67 7cbe
00000150: fb8e 8cbc d64a 15be 457b bfbd d7a0 96bd
00000160: d522 86be 38ab 993d b7f9 39be de74 bcbd
00000170: e16d 8b3b 9ce7 90bd 3a2c 53be 980f 31be
00000180: 0516 8fbd 3302 b8bb bd6a d53d 7d99 eb3c
00000190: 555b b23d e753 5e3c 3d61 83bd 577f 8abd
000001a0: ec25 72be dbe5 c0bd da15 f4bc c0f4 39be
000001b0: da92 4bbe 693b 313e f02b 91bd a31e 01bd
000001c0: 364f 383e bf7b 083e e4c5 fdbd 3824 bcbd
000001d0: 8c53 383e 0f30 133e df85 083e edb3 0dbe
000001e0: 1bd9 513c c0f2 3fbe de65 36be e4fd 6dbd
000001f0: 9d97 43be 666b 3dbe ed91 3a3d b83a c4bc
