results/MLP_joint/s_MLP_joint_t_simglucose_data_insilico_seed_56_2024-03-09_PH_45/model_epoch_98_loss_0.04.pth (torch, 897486 bytes, 19 tensors)

X_1.0.weight f4 [128, 20]
000000 77 37 6e 3e 39 67 20 be 63 cf 58 be 38 1f 7c 3e
       0.23263346 -0.15664376 -0.21172862 0.24621284
000010 50 af bc 3d f2 75 18 3e a7 b5 a6 be 9a 7d 94 3c
       0.09213126 0.14888743 -0.32560465 0.018126298
000020 78 62 8b bc b8 66 c7 bd cb 33 bf bd fa 3e 1c 3e
       -0.017014727 -0.09736389 -0.093360506 0.15258399
000030 74 53 17 3b 97 9c ac bd 77 66 0c bd b3 6c 60 3d
       0.0023090513 -0.08428305 -0.034277406 0.054791164
000040 38 a3 e7 3c 1b 24 7a bc 01 0d 0c be 6f fe f2 bd
       0.028276071 -0.015267397 -0.13676836 -0.118649356
000050 ed a9 25 bd c5 6c 4b be d9 c2 48 be ab b5 14 3b
       -0.040445257 -0.19865711 -0.19605578 0.002269129
000060 a9 12 a3 3c 8b 08 72 bc 07 3c 3d 3e 36 b3 b0 3d
       0.019906359 -0.014772545 0.1847993 0.08627932
000070 b3 96 49 3e a9 fc 8d be f7 0f 76 3d 31 81 ed bc
       0.19686393 -0.27731827 0.06007382 -0.028992267
000080 10 f8 65 bb 6d ef 64 be 56 c1 2b 3e d5 8e 7f 3d
       -0.0035090484 -0.22356959 0.1677297 0.062392075
000090 8c 5f 0f 3e 38 67 f4 bd d5 01 a0 bc 6f 17 9b 3d
       0.14001292 -0.1193375 -0.019532124 0.07572829
0000a0 4c 74 d1 3d a5 c9 7c be 42 1d 18 bd 70 d7 44 3e
       0.1022726 -0.24686296 -0.037137277 0.19222808
0000b0 6f 00 4a 3d f4 0a 28 3e 93 1c 7e be 40 00 77 bd
       0.04931682 0.16410428 -0.24815588 -0.060302973
0000c0 ba b8 ac 3e b9 61 10 3e 35 cc 33 be 35 95 fa bd
       0.33734685 0.14099778 -0.17558368 -0.1223549
0000d0 18 de 2b 3e cc 0f e9 3d ad 94 d6 3d 9a 3e 21 be
       0.16783941 0.11379966 0.104775764 -0.15746537
0000e0 36 a8 be bc 17 52 b5 3c 04 7d 43 3d fc 47 10 3e
       -0.023273569 0.02213387 0.047726646 0.1408996
0000f0 9b b9 8d 3e 06 25 fc be bb 51 22 3e 41 f1 0f be
       0.27680668 -0.49246997 0.1585149 -0.14056875
000100 41 7c 7c bd b5 d8 db 3b c3 56 48 be e4 f7 e1 3d
       -0.061641935 0.006709183 -0.19564347 0.110336095
000110 c9 76 5e 3d 5f d9 89 be 11 bf b1 bd f1 9d 95 bd
       0.0543125 -0.26923653 -0.08679021 -0.073055156
000120 c9 f1 d2 3d 43 02 54 3d 32 5a 3a 3e 83 05 b0 bd
       0.10300023 0.05175997 0.1819847 -0.08594801
000130 ab cb b4 bd 53 8e b1 bd 39 de 98 3d 13 f1 75 3d
       -0.08827909 -0.08669724 0.074642606 0.06004436
000140 96 7e 39 3e 16 95 b2 3b da ae 94 be 8a d5 01 3d
       0.18114695 0.0054499013 -0.2903965 0.031697787
000150 26 30 6c bd 9a 75 79 3e aa 80 81 be c1 9d e2 3d
       -0.057663105 0.24361268 -0.25293475 0.110652454
000160 4c f8 20 be 7d 8d 27 be 56 0d 94 bc 5f 25 fd bd
       -0.15719718 -0.16362567 -0.018072765 -0.123606436
000170 b7 71 8e 3d 33 17 0a be b1 51 49 be c5 c9 de 3d
       0.06955283 -0.13485412 -0.19660069 0.10878328
000180 64 7b 62 3c 68 2d f6 3c be 75 0c be 4f f8 63 be
       0.013823364 0.030050948 -0.1371679 -0.22262691
000190 f1 c7 7f 3d 79 5e 76 3e 15 6e 48 be 27 69 e6 3c
       0.06244654 0.24059476 -0.19573243 0.028126312
0001a0 cc 77 94 3d 42 15 6a bd 9b fa 16 be f7 65 e5 bd
       0.07249412 -0.05714918 -0.14744036 -0.11201089
0001b0 ff bd 1d be 77 07 b5 bd d8 c1 1d be 6f 56 bb bd
       -0.15404509 -0.088393144 -0.15405977 -0.09147345
0001c0 da fd 57 be 65 f5 7f be 73 da 8a bd 3c c4 81 be
       -0.2109293 -0.24995954 -0.06779947 -0.25345027
0001d0 16 84 97 bd c7 88 32 3d cb 56 26 3e c8 7e 1d 3e
       -0.0739824 0.043587472 0.16244046 0.15380394
0001e0 64 93 a8 3d 45 ab 78 bd bf d7 7c 3e f3 0b ac be
       0.082312375 -0.06071021 0.24691676 -0.33602867
0001f0 a3 0b 6d be 24 38 f1 bd a2 44 59 be f9 a0 12 3c
       -0.2314897 -0.11778286 -0.21217588 0.008949512
000200 57 28 ef bd 29 08 5e 3e 92 8a 7a 3e 66 c3 ec 3d
       -0.11677616 0.216828 0.24466923 0.11560707
000210 f1 7b 48 3e 0b 84 88 bd e3 7d 64 3e 37 8d e4 3c
       0.1957853 -0.0666581 0.22313647 0.027899368
000220 7e 00 7a bc f4 3a 95 3c de 2f f2 3d 94 bd cf 3c
       -0.015258906 0.018216588 0.11825536 0.025358953
000230 35 47 31 bb a4 80 0e 3e 46 fa 83 bd a2 01 d0 bd
       -0.00270505 0.1391626 -0.0644422 -0.101565614
000240 87 fb 63 bd 8f fe 37 3e e0 f6 37 be c3 f1 ed 3d
       -0.055659797 0.179682 -0.17965269 0.11618378
000250 0f ee 00 3d e7 96 f2 bd 0d 3c 4b be 03 0e 21 3d
       0.03147703 -0.118451886 -0.19847126 0.039320003
000260 27 96 f4 3d 9f 02 37 bd 71 08 08 be 9d 8e 39 3e
       0.11942702 -0.044680234 -0.1328447 0.18120809
000270 96 0d 64 be 10 9a 24 be cc a7 3b 3e 97 fa 41 be
       -0.22270808 -0.16074395 0.18325728 -0.18943249
000280 e2 4c 30 be c3 7c a9 3d ba bb 94 bc fc 10 4f 3e
       -0.17216828 0.082757495 -0.018155921 0.20221323
000290 b4 f8 1d be 60 a2 08 bd e3 46 66 bd b9 31 24 be
       -0.15426904 -0.033357978 -0.056219947 -0.16034593
0002a0 e4 0c b4 bd 89 2a f7 3b b9 75 c8 3d 87 9b 7a bc
       -0.08791521 0.0075429124 0.09788079 -0.01529587
0002b0 e0 50 b7 3d 32 11 c4 bd fb c5 4f be 77 d0 0c 3e
       0.089509726 -0.09573592 -0.20290367 0.13751398
0002c0 8f e9 71 be 80 87 04 3c 8f 95 b9 bd 7a e5 72 be
       -0.23624252 0.008088946 -0.09061729 -0.23720351
0002d0 6b 76 38 3d e2 e7 b6 3d ac 49 11 3e 35 0c 9a 3d
       0.045034807 0.08930947 0.1418826 0.075218596
0002e0 fd 76 72 3e fa 07 be bd 43 db 60 3c 62 a0 d5 bd
       0.23678203 -0.09278865 0.013724151 -0.10430981
0002f0 d8 4c c2 bd 50 6d b0 3d 31 e3 3a 3d d4 57 8e be
       -0.09487313 0.086146 0.045626823 -0.27801383
000300 82 9f 66 be 46 66 e1 3c 3e f6 23 be 3c d5 86 bd
       -0.22521785 0.027514588 -0.16011903 -0.0658364
000310 47 2c 9e 3c e4 5c 97 3d 83 95 ae bd 1a 1e 11 bd
       0.019308222 0.07390764 -0.08524611 -0.035429098
000320 4a e0 0a 3e 28 86 af 3b 29 9f ec 3d 1f c1 c1 bd
       0.13562122 0.005356569 0.11553795 -0.09460663
000330 61 9d e4 bd 87 63 cc bb 88 eb 5c be 81 20 76 3d
       -0.1116283 -0.0062374505 -0.21574223 0.060089592
000340 be 02 57 3c e0 8b 23 be 5c 98 0b bd 37 ed 10 be
       0.013123212 -0.15971327 -0.034080848 -0.1415299
000350 d5 03 37 be 51 84 83 bd f7 12 7a bd 05 5a 75 3c
       -0.17872556 -0.06421722 -0.061053243 0.014975076
000360 2d 8b 1a be 4a b3 4c 3b a8 d3 9b 3d 59 d1 22 be
       -0.15092154 0.0031234794 0.076087296 -0.15900172
000370 3c d2 cc bc d6 3b c0 bd 9c e0 13 be ea 99 a2 bd
       -0.025002591 -0.09386413 -0.1444115 -0.07939513
000380 cb 18 a5 3d 89 a1 0d 3e e4 1a 75 3d 9e 8e 27 be
       0.080613695 0.13831152 0.059840098 -0.16362998
000390 f4 bc 0d 3e e4 9f 72 3c bc de 30 be 5e 80 32 3d
       0.13841611 0.014808629 -0.17272466 0.04357945
0003a0 d3 a4 36 3e b0 bf d5 bc 56 a5 83 bd 35 31 07 be
       0.17836313 -0.02609238 -0.0642802 -0.13202365
0003b0 c8 a1 4f be 34 4a 65 be c1 6f 24 be 8d c4 34 be
       -0.20276558 -0.22391587 -0.16058256 -0.17653103
0003c0 e1 01 94 3d 16 92 e1 bd b2 88 82 bc 3f 04 0c be
       0.07226921 -0.11014192 -0.015934322 -0.13673495
0003d0 36 c1 25 3e 51 0e 66 3e e3 bd de bd 0f ee e5 bd
       0.16186985 0.22466399 -0.10876062 -0.11227047
0003e0 99 19 d3 3c 6c 73 3d 3d 6b 11 40 be 12 48 f3 bd
       0.025769042 0.046252653 -0.18756644 -0.11878981
0003f0 0f d2 93 bd 2e 83 70 be 9c eb 20 3e 1a 53 0f 3d
       -0.072178 -0.23487541 0.15714878 0.03499136

X_1.0.bias f4 [128]
000000 ea 60 55 3e d6 19 bd bd c1 3c 6c be a3 60 40 3e
       0.20837751 -0.092334434 -0.23070051 0.18786864
000010 06 eb d5 3d 25 7d 29 be b5 af 0d 3e 54 ee 11 be
       0.10445218 -0.16551645 0.13836558 -0.14251071
000020 c4 b9 c8 bd 9a 84 8b bd aa ae ca 3d ef f5 48 3e
       -0.09801057 -0.06812401 0.09896596 0.19625066
000030 76 e0 51 3c 74 00 03 3e 93 dc 76 bd 35 62 bd 3c
       0.012809863 0.12793142 -0.06026895 0.023118118
000040 e3 a7 b1 be a0 5e 34 3e 42 6c 19 3e 53 e4 df 3d
       -0.346984 0.17614222 0.14982703 0.10932221
000050 7d 2c 06 3e 09 06 26 3e 0a 6e 2b 3c 27 a9 05 3e
       0.13102908 0.1621324 0.010463247 0.13052808
000060 96 6f 85 be 88 3b 05 3d 4b cd c6 bd 7b 90 84 3d
       -0.26061696 0.032527477 -0.09707125 0.0647287
000070 22 e8 10 be 93 5d 03 be b6 88 2d 3d 75 a1 63 be
       -0.14151052 -0.12828664 0.042366706 -0.2222956
000080 57 91 8c 3d c9 01 04 be 54 02 03 3e a9 7f 03 be
       0.06863659 -0.12891306 0.12793857 -0.12841667
000090 8e e4 8a 3e 7a f5 f9 bd 8f c8 95 be a5 27 80 be
       0.27127498 -0.12205024 -0.29254577 -0.25030246
0000a0 d1 0d 7d 3d 9b 70 7b be 0b bf 60 3e 47 08 b6 bd
       0.061780754 -0.24554674 0.21947877 -0.088882975
0000b0 63 7c e1 bd 23 18 39 3e 20 a3 e3 bd a2 b8 92 be
       -0.11010053 0.18075614 -0.11115098 -0.2865649
0000c0 3f 94 df 3d 98 e0 20 3e 4a cd 25 be e8 33 8b 3d
       0.109169476 0.15710676 -0.16191593 0.0679701
0000d0 1e d4 09 3e 08 1d 3f bc 3e 53 3b be 63 11 54 3e
       0.13459823 -0.011664636 -0.18293473 0.20709758
0000e0 93 92 4c be 89 39 2f be e6 fc f2 3d 2c f4 2f 3e
       -0.19977789 -0.17111792 0.11864643 0.17182988
0000f0 71 a0 21 be 2c 22 9c bd fa ad 26 3e eb ad 8e bd
       -0.1578386 -0.07623705 0.16277304 -0.06966766
000100 3c 89 d9 bd 90 c8 f9 bc 6b 6f e6 3c 3f 44 7d be
       -0.106218785 -0.030491143 0.0281293 -0.24733065
000110 86 e9 36 3d dd ed 11 3e 18 90 91 be 58 a7 91 be
       0.0446563 0.14250894 -0.28430247 -0.28447986
000120 71 9c 23 be e7 58 3d be 39 b3 0f be 22 6a 86 bb
       -0.15977646 -0.18490945 -0.14033212 -0.0041020075
000130 be 94 22 be d4 86 9d bc e9 43 65 be 2e ea 48 3e
       -0.15877053 -0.01922933 -0.22389187 0.19620582
000140 44 70 b4 bd dd 03 24 be 5c ae 84 be 1d 6c 30 be
       -0.088104755 -0.16017099 -0.25914276 -0.17228742
000150 1d d0 14 bd 04 dd 6d be 4b 5c 3d be a9 fb a8 3d
       -0.036331285 -0.23228842 -0.18492238 0.08251125
000160 b2 02 6a bd ff 0f 64 3d f4 28 86 3d b1 cd 07 3c
       -0.057131477 0.055679318 0.0655078 0.008288787
000170 ab 3c 9b bb e2 7f 53 be 27 f2 01 3e f3 02 df bb
       -0.004737457 -0.20654252 0.1269003 -0.0068057715
000180 d2 74 a8 be 49 ad 7e 3e d4 c2 2e be c3 e8 03 bd
       -0.32901627 0.2487079 -0.17066509 -0.0322044
000190 4a 52 b5 39 c3 33 2f be 10 76 48 3d 88 77 b9 bc
       0.0003458432 -0.1710959 0.04894072 -0.022640005
0001a0 28 4d dc ba 9f 49 4b bd 37 6d 2e be 1d df a5 bd
       -0.0016807662 -0.049630757 -0.1703385 -0.08099196
0001b0 ba 3e 08 be 58 ea f4 3d 8a a8 00 3e 44 73 11 bd
       -0.13305178 0.1195876 0.12564293 -0.035510316
0001c0 3a cf 8c be 3d 05 1c be ad 85 69 3d 48 4a a1 bd
       -0.2750185 -0.15236373 0.05701225 -0.07875496
0001d0 06 27 1e be 81 be a6 3b 48 57 4d 3e 75 d1 81 3d
       -0.15444574 0.005088628 0.20052826 0.06338779
0001e0 19 d9 30 3e ba f1 12 be f2 15 e5 3d dd d1 74 be
       0.17270316 -0.14350024 0.11185826 -0.23908181
0001f0 8c 55 54 3e ab df bb 3d 92 d9 c1 bd aa 74 1f be
       0.20735759 0.09173521 -0.09465326 -0.15571848

X_11.0.weight f4 [128, 20]
000000 c7 82 d3 3b d6 67 54 3e 70 3c af 3c 49 e2 27 3e
       0.006454799 0.20742735 0.021391124 0.16394915
000010 b2 85 42 be b5 19 28 3d 2e 9e 07 be dc 34 55 3d
       -0.18996313 0.04104014 -0.13243935 0.052052364
000020 cd a8 b0 bc 2d 03 15 bd d0 34 07 be 72 ac df 3c
       -0.021564865 -0.03637998 -0.1320374 0.027303908
000030 af 50 73 be 11 79 d7 3c 65 74 b4 3d 54 f6 13 3e
       -0.23761247 0.026302846 0.08811263 0.14449435
000040 9c ef 0f 3e 7d 00 4a be 64 a2 a3 bd 15 51 95 be
       0.14056247 -0.19726749 -0.07989958 -0.29163423
000050 4e d4 8f 3d dc e8 90 bd e0 d5 c7 3d 0c 39 be 3d
       0.07022916 -0.070756644 0.0975759 0.092882246
000060 9a 4b 17 3e ca 49 32 be 61 02 27 be 9d 3f 81 bd
       0.14774933 -0.17410961 -0.16309501 -0.063109614
000070 48 b9 4e 3e c4 1b 30 bb ec d2 10 be cf 62 c5 3d
       0.20187867 -0.0026872018 -0.1414296 0.09637987
000080 25 a5 24 bd 5e 26 8c bc b7 b0 a4 3d 4f 45 1c 3e
       -0.040196557 -0.017108139 0.08041518 0.15260814
000090 ad 58 ec bd c2 d4 3c 3e d8 08 ce 3d 05 c1 72 be
       -0.11540351 0.18440536 0.100602806 -0.23706444
0000a0 46 e1 a6 3b 8e 40 d3 bd 48 21 e8 3d 6d 52 2c 3d
       0.0050927727 -0.10315047 0.11334473 0.042070795
0000b0 12 13 4a be 66 d3 9d be 60 ed 0d 3d 71 c9 4d 3e
       -0.19733837 -0.30825347 0.034650207 0.20096375
0000c0 b5 30 82 3d b9 9b 64 3e 1c 35 d6 3c 1b 0a b1 3c
       0.063569464 0.22325028 0.026148371 0.021611264
0000d0 6c fe 2a be 64 81 7f bd 74 3e 74 bd 96 b7 3c 3d
       -0.16698617 -0.062379256 -0.059629872 0.04607352
0000e0 a5 86 52 3e bd 63 c4 3d 14 31 59 be e9 9c 5a be
       0.20559175 0.09589336 -0.21210128 -0.21348919
0000f0 5e 58 29 3e 5a 16 e9 bd a6 98 4c 3e 7e d7 3f bd
       0.16537616 -0.11381216 0.19980106 -0.04683637
000100 17 c3 0d 3e f7 df 53 bd 58 e1 25 3e ee ce 15 be
       0.13843952 -0.05172726 0.16199243 -0.14629719
000110 ae 39 16 3b 24 4b 1c be d4 80 66 be aa 0d e9 3d
       0.0022922563 -0.15263039 -0.22510082 0.11379559
000120 31 35 c8 bc d1 cd 03 be 31 8d 0d be c5 c5 2a 3e
       -0.024439426 -0.12871481 -0.13823391 0.16677006
000130 d6 3a 1d bc b2 ac 7f be a6 62 fb bb 76 5e a6 3d
       -0.009596547 -0.24968222 -0.007671672 0.08123486
000140 a3 b3 17 bd d5 e2 1c bd 87 00 e4 3d c3 14 a1 3e
       -0.03703655 -0.03830226 0.11132913 0.31461152
000150 b5 77 c0 3e da a0 89 3e 6e 6f 24 be a4 1b 29 be
       0.3759133 0.26880533 -0.16058132 -0.1651445
000160 0d 2e 54 3e 0d 0e 2a 3e da 74 e2 bd 65 ed 19 3d
       0.20720692 0.16606922 -0.11057444 0.037579913
000170 f3 17 01 3e 6f fa d3 3c 29 8b 92 3d 05 23 39 be
       0.12606792 0.025876252 0.07155449 -0.18079765
000180 11 23 ca 3c 53 79 f5 bc ce 3d 2a 3e 02 e3 e7 3c
       0.024674924 -0.029965078 0.16625139 0.028306488
000190 5c a1 12 3d 0d 6a 66 be 4f eb a0 be 9d 82 dc bd
       0.035798416 -0.22501393 -0.31429526 -0.107671
0001a0 f7 b3 e6 3d 5c 4b 5e 3e 71 e5 b3 be 2e b7 60 3e
       0.11264794 0.21708435 -0.35135987 0.21944878
0001b0 17 3c fe bd 65 04 b7 3c a8 b4 15 3d 69 a0 f3 bc
       -0.12413805 0.022340963 0.03654924 -0.029739575
0001c0 52 bd e5 3c c8 9e 3a be c5 e5 c6 bd ab 3b 17 3e
       0.028044377 -0.18224633 -0.09711794 0.14768855
0001d0 60 f6 f3 bd 7f 3c 42 be d1 18 e6 bc ae f7 af bd
       -0.11912227 -0.1896839 -0.028088005 -0.08592163
0001e0 c0 11 98 bd 1b 47 40 3e 93 09 21 3c 6e a5 02 3c
       -0.074252605 0.18777125 0.009828943 0.007974012
0001f0 8b c5 62 bd 7a 38 2d 3d 7a a1 ac bd f0 9a 5c 3d
       -0.055364173 0.04229019 -0.08429237 0.053858697
000200 aa c9 83 3d b1 d2 e2 3d ca e5 d3 3d eb a7 06 be
       0.06434949 0.110753424 0.10346563 -0.13149993
000210 da 30 06 be df 5d 14 be 93 27 f4 3d 5c 6a 0a be
       -0.13104573 -0.14488934 0.11921611 -0.13517135
000220 2d 81 47 be 1f 61 da 3c 50 b0 67 bd ad ae 5a 3d
       -0.1948287 0.02665764 -0.05656463 0.05338924
000230 07 1a 84 3e 38 c6 c0 bc 77 9a bb 3d 38 17 eb bd
       0.25801107 -0.023532018 0.09160321 -0.11479038
000240 9b 03 03 3e e0 18 56 bd 05 6d 7d be 56 dc 97 bc
       0.12794344 -0.052269816 -0.24748619 -0.018537682
000250 2c f1 c7 3d 36 1a 5e be a7 56 54 be 95 28 69 be
       0.09762797 -0.21689686 -0.2073618 -0.22769387
000260 84 1a a6 3d 34 7d ab bd 98 f6 f0 3c e8 2f 73 be
       0.08110526 -0.0837349 0.02941446 -0.23748744
000270 71 ff ed bd 4b d8 cd 3c 29 02 29 bb eb be 27 bd
       -0.11620987 0.02512755 -0.002578864 -0.040953558
000280 8c 35 84 3e 38 47 96 3d 38 ec 29 bc 23 2f 34 3e
       0.25822103 0.07337803 -0.01037126 0.17596106
000290 50 79 95 3d d9 9a 08 bd d9 81 cb bd da 44 94 bd
       0.07298529 -0.0333508 -0.09936876 -0.07239695
0002a0 12 74 af bd 88 35 11 3e 5a 72 43 be 96 a8 88 be
       -0.085670605 0.14180577 -0.1908659 -0.2669112
0002b0 a3 9d 11 3d 4c 82 99 3a 7a 6c 8d bd ab ac 92 bd
       0.035550725 0.0011711805 -0.06905456 -0.0716184
0002c0 44 3a e5 3d b0 28 dd 3d 21 54 f0 bd 30 f1 f1 bd
       0.11192754 0.10798776 -0.11734796 -0.11813581
0002d0 0d fb 2f be f9 c1 57 be 53 96 ba 3e 78 9e bd 3b
       -0.17185612 -0.21070088 0.36442813 0.005786713
0002e0 77 3c 27 3e 6c f7 c7 3d ce b9 9a be c5 0e da bd
       0.1633166 0.09763989 -0.30219883 -0.10647348
0002f0 e3 81 76 3d ec 69 bb 3d b3 5c 10 be 6e 97 b5 3d
       0.060182463 0.09151062 -0.14097862 0.088667735
000300 c6 3c cd bd 58 11 a5 3d 34 33 62 bd 32 fa 39 3e
       -0.10021357 0.08059949 -0.055224612 0.18161848
000310 3a 6f 9a 3d 9e ab c1 bc 5c f1 9f 3d 44 a4 f3 3d
       0.07540746 -0.023641404 0.078097075 0.118965656
000320 78 4c 4f bd 63 71 07 be f7 31 34 3d 43 4a bb bd
       -0.050610036 -0.13226847 0.043992963 -0.09145024
000330 89 a7 7a 39 a8 74 00 3e c6 df 5f be f6 ce 4e 3e
       0.0002390427 0.12544501 -0.21862707 0.20196137
000340 38 fe 19 be 16 85 c7 bd 83 ec 20 be 11 fc 0c 3e
       -0.15038383 -0.09742181 -0.15715222 0.1376803
000350 83 b3 26 bd 91 89 93 be d7 b2 93 be a4 43 98 be
       -0.04069854 -0.28815892 -0.2884738 -0.29739106
000360 68 79 1f be 21 fd a2 be 0d 98 9c 3d 94 1a ba 3a
       -0.15573657 -0.31833747 0.07646189 0.0014198595
000370 71 1f 46 be 5d 19 9e 3b 74 b3 46 3d dd 7b e1 bd
       -0.19347931 0.004824801 0.048510984 -0.11009953
000380 e9 20 a2 3c 93 ed 0b 3e 1c 16 19 be 59 16 ad bd
       0.019791083 0.13664846 -0.1494984 -0.08451528
000390 ca bb 19 bd 05 9c 0c be e5 fa 35 be 66 c3 24 3c
       -0.037532605 -0.13731392 -0.1777149 0.010056352
0003a0 51 c1 1f be 25 6e f3 bd 77 34 b4 bd ce 4d 4a 3d
       -0.15601088 -0.11886243 -0.087990694 0.049390607
0003b0 f5 24 c9 bd 49 58 06 be 77 1f 3f bc 13 0a e0 bd
       -0.09821502 -0.13119616 -0.011665217 -0.109394215
0003c0 69 f9 13 bd 3a 98 5f be 4f 57 71 3e 39 c3 14 3e
       -0.036126528 -0.21835414 0.23568462 0.14527597
0003d0 bf 25 5f 3d 55 48 53 bd 23 be 03 3e 25 4a e7 3d
       0.054479357 -0.051582653 0.128655 0.11293439
0003e0 68 9f 75 3e 0c 9f 01 3f 68 47 70 3d 14 24 69 3d
       0.2398659 0.5063331 0.05866185 0.056919172
0003f0 d4 bc 29 3e 44 67 17 3e ee 19 54 3e 3a 2e 3f be
       0.16575938 0.14785486 0.20713016 -0.18669978

X_11.0.bias f4 [128]
000000 3a 81 50 bd c1 b2 53 be ce 8a 37 be 6e 9e 1a 3d
       -0.05090449 -0.20673658 -0.17924044 0.037748747
000010 7f 71 2b 3d 76 f3 a2 bd d5 e7 44 be ce 8c 91 3d
       0.041856285 -0.07956593 -0.19229062 0.071069345
000020 33 be f2 3d 5d af b4 bd e4 de d0 3b 10 46 22 3e
       0.11852684 -0.088225104 0.006374227 0.15847039
000030 41 7a ce 3d 8f 66 c1 bd e7 3d 2d 3e 32 f4 57 3d
       0.10081912 -0.094433896 0.16918145 0.052723117
000040 5f 31 3d be 3a 33 a5 3d f3 8e 25 be 38 06 df 3d
       -0.18475865 0.08066411 -0.16167812 0.10889858
000050 0f dc 61 bd ed f9 0f 3c b2 0f c8 3d 77 fa 2f be
       -0.055141505 0.008787614 0.09768619 -0.17185389
000060 63 38 00 be 34 68 70 be aa fb 37 3d 1a e3 98 be
       -0.1252151 -0.2347725 0.04491774 -0.29860765
000070 84 cf 2b 3e 6d 94 94 bd be e1 3e 3d 03 30 51 be
       0.1677838 -0.072548725 0.046602003 -0.20428471
000080 28 b0 be bc 0a 7c 31 3e 6e bd 20 be d8 72 e4 bd
       -0.023277357 0.17332473 -0.15697262 -0.11154717
000090 ca 28 9b 3d b4 e8 bd bc da 24 d9 3c 7f 11 50 be
       0.07576139 -0.02318225 0.02650683 -0.20319174
0000a0 36 5d 24 3e 98 e1 0e 3e 81 e6 2a 3e d0 bd 1f be
       0.16051182 0.13953245 0.16689493 -0.15599751
0000b0 6e 15 56 3e 46 75 e3 bd 06 ec 0e be 77 78 3d be
       0.20906612 -0.111063525 -0.13957223 -0.18502985
0000c0 bd bc 25 3e 68 4e cd bd 74 82 09 3e 60 0f 5b bc
       0.16185279 -0.100247204 0.1342867 -0.013370365
0000d0 b5 f3 78 bd c2 83 e8 bd 57 dc 2d 3d ea 5b f4 3c
       -0.060779292 -0.11353256 0.04244646 0.029828984
0000e0 80 57 48 bd 95 b3 0f 3e a1 66 20 3d 64 53 32 bd
       -0.04891157 0.14033349 0.039160375 -0.04353656
0000f0 90 a0 36 3e 5c 81 2a 3e d3 c5 85 3d fd b8 0d bd
       0.17834687 0.16650909 0.065318726 -0.034600247
000100 b0 54 f4 3d 3d 26 12 3e c7 f6 14 3e a2 5e 17 3d
       0.11930215 0.14272399 0.14547263 0.036955483
000110 f9 fd e0 3c 03 ee ca bd 8c 9f d0 3d 2e 61 82 bd
       0.027464854 -0.099086784 0.10186681 -0.06366192
000120 32 71 13 3e 67 53 11 3e ac 87 43 be 27 a0 ee bd
       0.1439865 0.14191972 -0.19094723 -0.116516404
000130 bf 04 33 bd c3 d8 29 be 0f 33 24 3c ae 5d cd bc
       -0.043705698 -0.16586594 0.010021939 -0.025069084
000140 97 8c e2 3d 67 30 27 bc cf f5 17 3e 24 d7 57 be
       0.11061972 -0.010204411 0.14839862 -0.21078163
000150 f4 ed 0b 3e 8a cb 41 3e d5 94 d2 bd a2 b8 2c 3c
       0.1366499 0.189253 -0.10282294 0.010542067
000160 6b 0c d0 bb 34 b8 dc 3d 5e aa eb 3c 15 0a 98 bd
       -0.0063491366 0.107773215 0.02876776 -0.07423798
000170 1c 93 63 be b0 a2 4e 3d 57 85 d9 3d b2 22 01 3d
       -0.22224087 0.05044812 0.10621136 0.03152723
000180 23 90 23 3e e4 25 17 3d 11 0b 38 3d ee 20 00 be
       0.15972953 0.03690137 0.04493243 -0.12512562
000190 87 72 a7 bd 6c 85 e6 bc f1 60 23 be dd c1 30 be
       -0.08176141 -0.028139792 -0.15954949 -0.17261453
0001a0 62 13 a6 bd e2 4b 89 3d d4 32 d1 3d 3c ae 28 be
       -0.08109166 0.067039266 0.10214773 -0.16472715
0001b0 18 b6 7a be 43 d1 fd bd d5 93 31 be 62 d5 5b 3d
       -0.24483526 -0.12393429 -0.1734155 0.053670295
0001c0 c0 21 c0 3d bb cd a7 bd 0d 58 35 bc 37 90 4f bd
       0.09381437 -0.08193537 -0.011068356 -0.050674643
0001d0 4a e2 af 3d 4c 4e 2b be 89 ca e8 3d 17 63 24 3e
       0.08588083 -0.16729087 0.113667555 0.16053425
0001e0 71 a3 e7 bc 7a ae 08 be 7c 73 8c be 64 71 85 3d
       -0.028276177 -0.13347808 -0.27431858 0.06515768
0001f0 63 ca 68 3e b1 4d 73 bd a7 34 61 3d 98 17 d1 bd
       0.22733454 -0.059400264 0.054981854 -0.10209578

X_12.0.weight f4 [128, 20]
000000 b6 1c 51 be d5 76 18 3e a4 08 78 3e a2 1f 4e be
       -0.20421109 0.14889081 0.24222046 -0.20129254
000010 fc ab 18 be 23 e7 0e be ce 74 56 3e 16 ce fc 3d
       -0.14909357 -0.13955359 0.20942995 0.12343995
000020 69 1a 98 bd 5a 97 9d bc 36 9f f4 3c f1 64 38 be
       -0.07426912 -0.01923721 0.029861074 -0.18007256
000030 da ae 02 3e e7 c3 85 be 8c 0b 6a be 18 17 22 bc
       0.12762013 -0.26126024 -0.22855967 -0.009893201
000040 17 3f 0f 3d c7 b2 50 3d e8 b5 7c be 46 10 e1 bd
       0.034972277 0.050951745 -0.24678767 -0.10989432
000050 05 3e 88 be d9 b1 e1 3d 4a 99 df bd b1 60 1f 3e
       -0.26609817 0.1102025 -0.109179094 0.15564229
000060 fd ee cd bd 05 13 27 be 8d 76 fc 3d cc 06 fa bd
       -0.10055349 -0.16315849 0.12327299 -0.12208328
000070 59 02 da bd ad 32 80 3e a6 0b 5e 3c cc 1b a8 3c
       -0.10644979 0.25038663 0.013552582 0.020521067
000080 2d 27 47 3a 8a 4e a4 3d 85 21 75 bd 2d a2 fa 3c
       0.0007597085 0.08022793 -0.05984642 0.03059491
000090 29 f4 51 be 9c c7 f4 bd e4 11 6f be c2 e8 76 be
       -0.20503296 -0.11952135 -0.23346668 -0.24112228
0000a0 51 00 fd 3b 94 88 07 3b 98 11 1e be 5f b5 11 3d
       0.007720985 0.0020680772 -0.15436399 0.03557336
0000b0 32 69 3a be 0c 77 7e 3d df 1f 9d 3d c3 00 04 3d
       -0.18204191 0.06212525 0.076720946 0.03222729
0000c0 4e 6d 21 bd 86 23 90 bd 29 64 19 3d 27 57 61 be
       -0.03941088 -0.070380256 0.037449036 -0.22005902
0000d0 44 fa c1 bd 09 24 85 3d 3d d8 75 bd b6 05 89 3c
       -0.094715625 0.06501014 -0.060020674 0.016726356
0000e0 63 87 16 be 7c 71 46 be 6e 3b 5c be 72 2a 5e 3d
       -0.14700083 -0.19379228 -0.21507046 0.054239698
0000f0 ca 91 f4 3d d8 d6 9a 3d b2 0b a0 be 40 ed ac bd
       0.119418696 0.075605094 -0.31258923 -0.08443689
000100 87 ce bb 3d a0 de 7c bd f0 06 ca 3e d8 29 99 3e
       0.09170251 -0.06173575 0.39458418 0.29914737
000110 85 a9 bf be 93 1c 54 3e 90 4a 2e be ba d8 e9 bb
       -0.3743402 0.20714025 -0.17020631 -0.0071364315
000120 1b 14 27 3e c8 44 7c bd 89 33 3f 3e 6b 77 d4 3d
       0.16316263 -0.061589032 0.18672003 0.1037434
000130 4b 62 f8 3d a4 54 6f bd b8 d9 71 3d 9f 88 c7 bd
       0.12128123 -0.05843033 0.059045523 -0.09742855
000140 dc f2 07 be b2 3b 13 bd 46 73 67 be 42 c2 7b be
       -0.13276237 -0.0359456 -0.22602567 -0.24585822
000150 0e a7 2e be f9 37 ef bd 98 71 e1 3e d0 13 67 be
       -0.17055914 -0.11680598 0.44031978 -0.22566152
000160 4a 57 2f 3e e3 94 14 bd 7a e8 28 3e ba 82 fb bb
       0.17123142 -0.036274802 0.16494933 -0.007675496
000170 28 b7 8a bd 86 a1 3e 3e 36 a1 45 3d 77 16 4b bb
       -0.067732155 0.18616304 0.048249446 -0.0030988732
000180 ec 62 62 3d 2e 21 23 be 0d b9 59 be 03 6c 5b be
       0.05527012 -0.15930626 -0.21261998 -0.21427922
000190 30 c6 04 bd 96 d8 40 be ba 53 dc bd b4 13 03 3e
       -0.03241557 -0.18832621 -0.10758157 0.12800485
0001a0 03 b7 da 3c cd a8 59 bd ad cc 6b 3e 61 8e a1 bc
       0.026698595 -0.053139497 0.23027296 -0.019721212
0001b0 f3 69 4b be 20 e6 0d be 2d 7a d3 bd 55 38 0e be
       -0.19864635 -0.13857317 -0.103260376 -0.13888676
0001c0 2e e8 64 be 11 76 70 be ca d9 3b bd 4f 99 19 3e
       -0.22354195 -0.23482539 -0.045861997 0.14999889
0001d0 13 3f 4b be a0 a3 0f 3e 86 ab 14 3e ee 10 15 3e
       -0.1984828 0.14027262 0.14518556 0.1455724
0001e0 69 e8 71 3d 4a 33 cc be f3 16 33 3e 62 a4 64 3e
       0.059059534 -0.3988288 0.17489223 0.22328332
0001f0 a7 0f a9 3e 73 e7 f2 3d f6 17 eb bd 46 e3 61 bd
       0.33019754 0.11860552 -0.114791796 -0.055148385
000200 68 50 e7 3c 9a 02 5a be 79 c0 de 3d 86 de 24 bc
       0.028236583 -0.21290055 0.10876555 -0.010062819
000210 3c cc 2b bd cb 50 3a be bb a9 92 bc 7e 8d 9d bc
       -0.04194282 -0.18194883 -0.0179032 -0.019232508
000220 45 d2 e2 3d 44 ab 34 be ba c7 98 be 23 44 0c 3d
       0.11075262 -0.17643458 -0.2983988 0.034244668
000230 e4 f8 43 be ba ad 49 3e 6d 44 7a 3e be 41 be bd
       -0.19137913 0.19695178 0.24440165 -0.09289883
000240 b7 88 f1 3d 79 74 ec 3d 7c e2 2b 3e 50 8a be bc
       0.117936544 0.11545653 0.16785616 -0.023259312
000250 5d 7a fb 3d 3a 59 72 3d 1a 67 58 be ce 1d fb 3d
       0.12279198 0.059167124 -0.2113308 0.12261544
000260 51 95 f9 3d 1f b9 54 be 68 0f 27 bd c8 fd b0 bd
       0.12186683 -0.20773743 -0.040786177 -0.08642155
000270 3b 57 97 bd 14 06 19 bd 47 6e 8e be 34 32 b3 bb
       -0.07389685 -0.037359312 -0.2781851 -0.005468631
000280 0f 86 60 be b8 d1 79 bc f4 6d 87 3b 77 1b ea 3d
       -0.2192614 -0.015247755 0.0041329805 0.1143102
000290 28 f4 ee bd f6 03 d6 3d 80 89 09 3d 13 e0 5b 3d
       -0.11667663 0.10449974 0.033578396 0.05368049
0002a0 5c ba 34 be 24 1b b5 3a 06 e8 c5 bd 75 96 30 be
       -0.17649215 0.0013817293 -0.096633956 -0.17244895
0002b0 c7 92 05 3e b6 9a 3d be cc 6e 53 be 11 57 97 bd
       0.13044272 -0.18516049 -0.20647734 -0.073896535
0002c0 e6 f3 23 be f1 87 d2 3c 0b 7c 42 be fa ca 15 be
       -0.16011009 0.025699588 -0.18992631 -0.1462821
0002d0 f6 01 98 3c f1 48 18 be d9 3c 15 be 06 23 f1 bd
       0.018555623 -0.14871575 -0.14573993 -0.11774258
0002e0 85 dd 6f be 36 2f f2 3d b2 b6 c8 3c 57 c1 9c bd
       -0.23424347 0.11825411 0.024501178 -0.07654064
0002f0 b1 3b 1e 3e f4 74 5a be c0 c3 72 be 76 e3 c4 bd
       0.15452458 -0.21333677 -0.23707485 -0.09613697
000300 87 5c 29 be 96 a7 ef bd 00 a4 77 3d 53 79 8a be
       -0.16539203 -0.11701886 0.060459137 -0.27045688
000310 45 5c 38 3c 90 2b c9 bc e7 1e 96 3d e1 50 83 3d
       0.0112524675 -0.024556905 0.07330113 0.06411911
000320 90 ef 89 3c 5b 61 48 3d 35 84 bb 3d 83 e6 8d 3d
       0.016837865 0.04892097 0.09156076 0.06928732
000330 83 f8 16 3e 02 e3 83 be 65 a9 18 3e f4 21 6a 3a
       0.14743237 -0.2575913 0.14908369 0.0008931451
000340 c6 1c 7c 3e 5d ce d6 bd 3f 0b d1 3c 6a 7e 5a be
       0.24620351 -0.104885794 0.025518058 -0.21337286
000350 2b 29 5e bd 48 7c e4 bd 35 d8 5c bd 39 73 cf bc
       -0.05423848 -0.11156517 -0.05391713 -0.025323497
000360 63 f7 a7 3a 25 3a b9 3c 10 97 c8 bd d2 da a6 bd
       0.0012814816 0.022610733 -0.09794438 -0.081472054
000370 9c a5 f1 3d 46 b3 f8 3c d3 d5 8e bd 36 fb 65 3a
       0.117991656 0.030358922 -0.069743775 0.000877309
000380 e7 7a 80 bd cf e4 0d be a0 73 44 3e 88 1c 56 bd
       -0.06273442 -0.13856815 0.19184732 -0.052273303
000390 c6 91 10 be a4 41 d6 3d 5b b3 eb bc 74 6a d8 bc
       -0.14118108 0.10461739 -0.028772047 -0.026417948
0003a0 04 b2 35 be f4 f3 c4 3d cf 5c 19 be b7 42 99 3d
       -0.17743689 0.09616843 -0.1497681 0.07483428
0003b0 be a5 85 be 76 5c ec 3d a1 f3 8a be 66 0e 46 bc
       -0.26103014 0.11541073 -0.27139 -0.012088394
0003c0 6f 10 00 3e c2 63 95 3d 86 a6 4f bd b6 a5 82 3d
       0.12506269 0.07294418 -0.05069592 0.06379263
0003d0 d5 86 17 3e 77 1a 51 bd b4 30 68 bd 86 10 ef bd
       0.14797528 -0.05105063 -0.056687072 -0.116730735
0003e0 b3 fb a9 3c 80 a6 93 3d 91 01 4d bd f0 7c 1c be
       0.020749902 0.07209492 -0.050050322 -0.15282035
0003f0 70 85 11 3e ce b8 74 bc 97 39 e5 3d 07 1a 83 be
       0.14211059 -0.014936639 0.11192625 -0.25605795

X_12.0.bias f4 [128]
000000 9f 76 be bc 21 15 fd bc 83 14 24 3e b0 1b dc bd
       -0.023249922 -0.030893864 0.1602345 -0.107474685
000010 b0 00 0e 3e 1c f7 9e 3c a2 d8 8c be f3 cc 38 3d
       0.1386745 0.01940494 -0.27509028 0.04511733
000020 f9 7f 67 bd 45 2c 0d be e4 4a b0 bd 6b 19 d4 bd
       -0.05651853 -0.13786419 -0.08608034 -0.103564106
000030 af 23 97 3d ad bb 5c be 00 ec 85 3d 86 27 ad bd
       0.07379853 -0.21555968 0.06539154 -0.08454804
000040 10 8f 85 be 71 f9 51 bd 47 c9 1b be de 0f 1d 3d
       -0.2608571 -0.051263276 -0.152135 0.03834521
000050 4e 20 2c be 50 d1 31 bc dd dd 49 be d0 1c b9 3d
       -0.16809198 -0.010853127 -0.1971354 0.09038699
000060 ab e8 45 be ef 65 81 bd c9 a6 65 bc 65 b7 3e be
       -0.19327037 -0.063182704 -0.014016815 -0.18624647
000070 0c b9 da 3d 7f 72 7e 3d 47 ef e4 bd f3 0f dc 3d
       0.10679826 0.06212091 -0.11178451 0.107452296
000080 75 4f cf 3d cc b7 a1 bd 8f 7c 55 be 9e 72 bd 3d
       0.10122577 -0.078963846 -0.20848297 0.09250377
000090 0f 72 5e be 66 02 db 3c 18 b3 b1 bc 1c 79 63 be
       -0.21723197 0.026734542 -0.021691844 -0.22214168
0000a0 cf f7 58 be 64 c3 48 bd 31 30 f8 bd 5f 6c 93 be
       -0.21188281 -0.049014464 -0.12118567 -0.28793618
0000b0 2e e7 b3 3d d7 8b 7e be 45 0b 28 be 2c 3c 93 3b
       0.087843284 -0.24858032 -0.16410549 0.004493257
0000c0 34 da 06 be 4d 66 cb bd f6 09 42 3e e2 f6 45 be
       -0.13169175 -0.09931622 0.18949112 -0.1933246
0000d0 7d 08 66 3d 3b 4c d0 bd 4b 71 0e be e1 23 b9 bb
       0.05616044 -0.1017079 -0.13910405 -0.005650029
0000e0 2e a4 41 be 36 02 50 bb 81 5f 1d be 10 39 c2 3d
       -0.18910286 -0.00317396 -0.15368463 0.0948354
0000f0 4c 57 42 bd 6f d6 38 bd 74 08 80 3e 37 22 84 be
       -0.047446534 -0.045126375 0.2500645 -0.25807354
000100 6d 3f a7 bd dd f7 08 bd 7c fc 10 be 58 4a 0b 3e
       -0.081663944 -0.033439506 -0.14158815 0.13602579
000110 24 d9 7b 3d 2f 1f 11 3e 1a 7f be bd b7 ee 28 be
       0.06148638 0.14172052 -0.093015864 -0.16497312
000120 84 b5 69 3d 43 42 31 3e bc d2 86 be 17 6c 11 bd
       0.057057872 0.17310433 -0.26332653 -0.035503473
000130 bd fb 65 bd 27 af 38 be e6 6b 41 bd de 86 b7 bd
       -0.05614828 -0.18035565 -0.04722204 -0.08961271
000140 be 29 53 3d 1e 04 24 bd 4d da 24 3d e7 bd e5 3d
       0.05155348 -0.04004299 0.04024725 0.112178616
000150 5e f9 81 bd e6 1c 72 be 27 fe 25 3d 62 1a 78 bd
       -0.06346391 -0.23643836 0.04052558 -0.060572036
000160 59 92 3e bd 41 1d e2 bd c1 5f 65 bc 48 69 e7 3d
       -0.046526287 -0.11040736 -0.01399988 0.11299378
000170 23 d8 49 bb 26 7f 90 bd bb 37 1d be a2 1b 38 be
       -0.0030798994 -0.07055502 -0.1535329 -0.17979291
000180 38 da dd bc 25 4b 78 be 5c 10 c0 ba 47 cd 64 be
       -0.027081594 -0.24247415 -0.0014653313 -0.22343932
000190 e1 a1 25 be 30 4a 6e 3d a5 39 cb bd 5c d2 03 be
       -0.16175033 0.05817622 -0.09923104 -0.12873214
0001a0 ef 4b 21 3e bf c0 52 be 2a 58 c3 bb c8 3b 2f be
       0.15751623 -0.2058134 -0.0059614377 -0.17112648
0001b0 4d 36 19 be a4 30 90 be a0 7e 83 be eb 9c b8 bd
       -0.1496212 -0.2816211 -0.25682545 -0.09014305
0001c0 d8 4b c5 bc 28 e1 8d 3d 75 05 11 bd 38 01 81 bd
       -0.024084017 0.06927711 -0.035405595 -0.062990606
0001d0 f8 ed 9f bc e8 9e 85 3d 1f 2b 16 3e 5d 5b 1c 3d
       -0.019522652 0.065244496 0.14664887 0.03817307
0001e0 f0 de 09 bd 99 76 17 3e 31 04 89 3e 02 d6 1b be
       -0.033659875 0.14791335 0.2676101 -0.15218356
0001f0 b0 6b 87 bd 98 2e 23 3c 2a 65 0a be 0b bc 77 be
       -0.06612337 0.009959839 -0.13515154 -0.24192826

X_2.0.weight f4 [128, 128]
000000 75 61 07 3e a6 21 8b 3c 7a f6 35 3d cc f8 a1 3d
       0.1322077 0.016983818 0.04442451 0.07908782
000010 14 d8 14 3e 8d 6b c6 bd f2 22 30 bb 9b e7 e8 bd
       0.14535552 -0.096884824 -0.0026876298 -0.113723
000020 d1 4f bd bd f9 14 99 bd 63 e9 f1 bd a2 e5 dc bd
       -0.092437394 -0.07474703 -0.11812093 -0.107859865
000030 24 fa a0 bd 7d 88 11 be b9 b7 05 be 78 c3 c2 bd
       -0.078602105 -0.14212222 -0.13058366 -0.09509939
000040 f1 2d 36 3c cb 0a 7d 3c ca 94 7c 3d 05 71 62 3d
       0.011119352 0.015444468 0.061665334 0.055283565
000050 78 24 a7 3c 88 e7 a4 3d ac f1 72 bc 3d ac 7c 3d
       0.020403132 0.080519736 -0.014828127 0.061687697
000060 8a 00 60 be a6 b5 da 3d 6f a9 e3 3d 12 43 a7 bb
       -0.21875206 0.10679178 0.11116301 -0.005104431
000070 7f c2 38 3e 30 e0 86 3c 3f b8 bb 3d a9 63 68 3d
       0.18042944 0.016464323 0.091660015 0.05673567
000080 3a ae 6a 3d 4f c8 c4 bc 8c ea 22 be a1 69 a8 3d
       0.05729506 -0.024021296 -0.15909785 0.08223272
000090 49 52 e7 3d 25 0c ea bc a9 9c cb bd 43 a6 45 bd
       0.112949915 -0.028570244 -0.0994199 -0.048254263
0000a0 33 01 f6 bc 93 5d 51 bd 87 08 8a 3c c9 00 83 bc
       -0.030029869 -0.05111463 0.01684977 -0.015991585
0000b0 92 34 eb 3d 43 40 b4 bc dd 88 d8 bc 92 67 0a be
       0.11484636 -0.022003299 -0.026432449 -0.13516071
0000c0 c3 d3 84 bd e2 e0 6a bd 76 8b fa 3d 53 12 de 3b
       -0.06485703 -0.05734337 0.12233631 0.0067770868
0000d0 88 93 de bd 95 00 f1 3c 4c 15 12 be f6 85 eb 3d
       -0.10867983 0.029419223 -0.14265937 0.115001604
0000e0 f4 6a 9f bd a2 aa 67 3e 94 f6 fe 3d 3b 4e 11 bd
       -0.077840716 0.22623685 0.12449375 -0.035474997
0000f0 14 b0 b2 3c eb b8 f5 bc 83 15 6d bd 8c 0b aa bb
       0.021812476 -0.029995402 -0.057881843 -0.005189365
000100 42 c6 01 be 7d 19 ac 3d 37 61 02 be 13 ef 47 bd
       -0.12673286 0.08403299 -0.12732397 -0.048811983
000110 8b 68 5a bd 6b 82 a1 3d 0a 8c a7 bc 3d b0 19 3c
       -0.053322356 0.078862034 -0.020452518 0.009380397
000120 ce 3c 8f bd ff 80 ba 3d ec be 25 3d d0 1e b6 3e
       -0.069940194 0.09106635 0.04046528 0.35570383
000130 5a 05 27 be 28 c2 5f 3d 41 c0 48 be cb 9a cc 3c
       -0.16310635 0.05462852 -0.19604589 0.024976155
000140 b1 17 ca bd d7 c0 68 3d 06 bc bd bd 0f 2c e3 bc
       -0.098678 0.05682453 -0.09264378 -0.02773097
000150 57 02 c6 3c a9 6d c6 bd d6 24 1e be 40 50 6e bd
       0.024171038 -0.09688885 -0.1544374 -0.058182
000160 cb 4c 5a bd 93 61 d5 bd 95 ff 0a 3e c8 6b 48 bd
       -0.05329589 -0.104190014 0.1357406 -0.048930913
000170 10 b9 1b be cf b7 97 bd 69 dd d4 bd ec 7d df 3c
       -0.15207314 -0.074081056 -0.10393793 0.027281724
000180 5e b8 10 be e8 83 92 3e aa 80 a7 bd 13 15 9f 3d
       -0.1413283 0.2861626 -0.081788376 0.077676915
000190 f1 0d 05 be b1 aa 27 be 7f a0 04 3e 76 30 a7 3e
       -0.129936 -0.16373707 0.1295185 0.3265416
0001a0 79 88 f5 bd 29 2d 40 be c9 15 f4 bd 99 5c 64 bd
       -0.11988921 -0.18767227 -0.11918218 -0.05575237
0001b0 c9 f1 cf bc a8 8f 0c be 87 e0 3b 3d b1 62 0f bd
       -0.025383847 -0.13726676 0.045868423 -0.03500623
0001c0 db a8 18 bd 4c 9a 3a 3e 8a e9 7b bd f9 42 28 bd
       -0.037270408 0.18222922 -0.061502017 -0.041079495
0001d0 64 31 3a be 31 b8 f1 3d ec ff 06 be 4d de 0f be
       -0.18182904 0.1180271 -0.13183564 -0.14049645
0001e0 4e 2c 11 be ce 8f 47 be 44 8c a0 bd bd da 52 bd
       -0.14177057 -0.19488451 -0.078392535 -0.051478136
0001f0 f8 e0 11 bd 81 76 11 3d 8f 62 e6 3d e9 9f c3 bd
       -0.035614938 0.035513405 0.11249267 -0.09551985
000200 8f c5 9a bc 96 b1 f8 bd 0b c5 82 3d df ae 43 3d
       -0.018893031 -0.12143247 0.06385239 0.047774192
000210 63 b5 4e bd 58 37 95 3d 63 9d 74 bd d0 16 f7 3d
       -0.050465953 0.072859466 -0.05972041 0.12064898
000220 c0 69 7a bc ec 85 f3 bc b4 1c c7 3c 92 55 93 bc
       -0.015284002 -0.029726945 0.024305679 -0.017985139
000230 8f 9c e7 bd 92 4e 69 3d 47 b9 2e 3e 98 e8 3f 3d
       -0.11309158 0.056959696 0.17062865 0.046852678
000240 30 92 2f bd ed dc 16 be a4 6c 5a bd af 58 d8 3c
       -0.042864025 -0.14732714 -0.053326264 0.026409475
000250 30 6a 76 bd fd f7 c4 3c dc 42 db 3d f9 47 17 be
       -0.060159862 0.024044031 0.10706112 -0.14773549
000260 1a 4d af 3d 09 d7 0f bd bf de 85 3b 16 21 6f 3d
       0.08559628 -0.035117183 0.0040853913 0.058381163
000270 62 f6 e2 bd 9a 80 2f be c1 09 09 3b f6 ff 97 3d
       -0.1108215 -0.17138901 0.0020910355 0.074218675
000280 2a 54 a3 bd a1 86 d2 3d 84 76 0f be 95 7a fc bd
       -0.079750374 0.10279585 -0.14010054 -0.12328068
000290 30 ad c6 bd 2a a1 53 bb f8 31 d2 bd ad 21 20 bd
       -0.09701002 -0.0032292106 -0.10263437 -0.039094616
0002a0 ce cc 70 bd 09 fc bc 3d 84 2e 8d 3d 73 f4 4b 3b
       -0.058789067 0.092277594 0.06893638 0.0031121045
0002b0 49 b8 41 bc 76 7f cc bd 0e 93 af bd ad d1 98 3c
       -0.011823722 -0.09985249 -0.0857297 0.018654669
0002c0 c1 c7 cf 3b cd 8e a8 3d 7f 03 92 bd bc 91 00 bd
       0.006340951 0.08230362 -0.07129573 -0.031388983
0002d0 38 b6 58 bd 50 74 e5 bc 37 e9 ae 3d 98 98 8a bd
       -0.052908152 -0.028009564 0.08540576 -0.06767386
0002e0 bd 6b b9 3c 59 71 81 3d c2 ae 46 bd 51 68 82 bd
       0.022634381 0.063204475 -0.048506506 -0.06367553
0002f0 60 fc fe bd 5a cb 14 be 2e f8 c8 3d cb 8a cf 3b
       -0.124504805 -0.14530697 0.098129615 0.006333684
000300 f3 e3 da 3c 6a ac a4 b9 db 35 85 3d 40 a9 af bd
       0.026720023 -0.00031408976 0.06504413 -0.08577204
000310 2c 8e cd bc cf 83 6a bd eb 33 8b 3d d8 4f 3c bd
       -0.025092207 -0.05725461 0.06797012 -0.045974582
000320 49 06 ee bb 55 91 3d bd 8e 59 1a bc 29 9c 0e 3e
       -0.007263933 -0.046281178 -0.009420766 0.13926758
000330 a2 fa b9 3d 7d 37 ef bd d7 a3 32 3d cf 81 c7 bd
       0.090810075 -0.116805054 0.04361328 -0.09741556
000340 6c 8a ce 3d 27 81 b4 bd 3b 38 32 3d 84 b1 27 bd
       0.100849956 -0.08813696 0.043510657 -0.040940776
000350 13 d5 65 bd ec db 88 3c c4 4d e2 bc cf 41 24 3c
       -0.056111407 0.01670643 -0.027624972 0.010025456
000360 80 f4 dc 3c da 78 a1 3d 94 bb 68 3b 1e 5f 09 3e
       0.026972055 0.07884379 0.0035512196 0.1341519
000370 95 08 b0 3d 34 15 0c 3c e4 21 5d 3e b8 4b ff bc
       0.08595387 0.008549977 0.2159496 -0.031164035
000380 b2 74 3a bd 66 fc 00 be e6 07 88 bd 8d 44 01 be
       -0.045521446 -0.12596282 -0.066421315 -0.12623806
000390 c6 1b bc bd 58 9c 3a bb 62 2c 1a be 6c 8b 33 3e
       -0.09184985 -0.0028474536 -0.15055993 0.17533654
0003a0 97 a1 a9 bc f8 44 f9 bb d7 0d 8d 3d 3e 80 d2 3c
       -0.020706935 -0.0076070987 0.06887405 0.025695916
0003b0 82 15 6a 3d e7 d4 5d 3d be 1c 9f bb 12 44 6f bd
       0.057149418 0.054158118 -0.0048557213 -0.058414526
0003c0 c5 30 ce bd ca 05 54 bd 31 98 55 bd 24 89 5f bd
       -0.10067896 -0.051763333 -0.052147094 -0.054574147
0003d0 44 3a 89 bd e6 4a 6a bd 69 d0 2e 3d 0c 29 63 bd
       -0.067005664 -0.057200335 0.042679224 -0.055459067
0003e0 a1 80 91 bc a5 06 f1 3d fd 6a 27 3d 24 fc 4e bd
       -0.01776153 0.117688455 0.040873516 -0.05053343
0003f0 7e c1 7e bd 75 38 d6 bd aa 09 e1 3c c2 f9 f3 3d
       -0.062196247 -0.10459987 0.027470428 0.11912872

X_2.0.bias f4 [128]
000000 da 59 13 3e 1c b4 43 be 3f 79 a1 bb 3d 47 13 bc
       0.14389744 -0.19111675 -0.0049277837 -0.0089891525
000010 35 ff b2 3d bf 00 de bd b2 84 55 bd 0e 5e 4d 3c
       0.08740083 -0.10839986 -0.0521285 0.012534631
000020 c0 ce 42 3c 31 dc 38 bd 74 c1 3e 3b cd 46 c4 bd
       0.011890113 -0.045131866 0.0029107006 -0.09583817
000030 6d 70 16 bc 6c b5 27 bd 2b fb dc bd 52 0e 08 bd
       -0.009182078 -0.0409445 -0.10790094 -0.033216782
000040 12 ee fc 39 9c c0 39 3c ef 3f 6b bd df 83 aa bc
       0.00048242562 0.011337426 -0.05743402 -0.020814834
000050 3a 18 2a be 9c 59 d0 bd 7e 82 1b 3d 79 9b c7 bd
       -0.16610804 -0.10173342 0.037966244 -0.09746451
000060 23 56 86 bc c8 87 3e bd 2f e5 e9 bc 1c 33 91 3d
       -0.016398495 -0.04651621 -0.028551666 0.070898265
000070 f5 8d 82 bd 4a 9b b2 bb 20 92 c5 bb d7 d3 95 bd
       -0.063747324 -0.005450641 -0.0060293823 -0.07315796
000080 00 d1 d9 bd 70 aa 24 be dd fe ea bd ae 0f 67 3e
       -0.10635567 -0.16080642 -0.114743926 0.22564575
000090 0c cb 0a be c5 63 be bb 20 97 44 bd 2e 37 55 bb
       -0.13554019 -0.0058102333 -0.047995687 -0.003253411
0000a0 a7 6b 18 bd ed 6d ee 3b c7 1b a2 bd 2c 0c af 3d
       -0.03721204 0.007276288 -0.07915454 0.085472435
0000b0 0c a1 27 3d 5c 0b 72 bd 37 71 21 3d a9 d8 1c be
       0.04092507 -0.059092864 0.03941461 -0.15317024
0000c0 35 36 47 3d d3 e4 43 bc ae 60 a1 bd 34 52 16 bd
       0.04863568 -0.011956411 -0.07879768 -0.03669949
0000d0 96 28 96 bd 29 6b a4 bd 6e 66 99 3c b7 7d 81 bd
       -0.0733196 -0.08028252 0.0187256 -0.06322806
0000e0 3c 21 c5 bc da b9 9f bd d7 8d e2 3c d7 79 9a 3d
       -0.024063699 -0.0779912 0.027655525 0.0754277
0000f0 8f a6 72 3d b2 2e 21 3d 5a 69 13 be 4f dc 9f 3d
       0.059240874 0.039351173 -0.14395657 0.078056924
000100 e7 87 01 be c4 e5 98 3d bc 1f c5 3d 4c be f1 3c
       -0.12649499 0.07465699 0.096251935 0.029509686
000110 83 b0 d0 bd cc 3f ab bd 17 8e 18 3c d5 f8 98 3d
       -0.10189917 -0.08361778 0.009311221 0.07469336
000120 fe 2e 76 bd 8b af b0 bd d1 6e 7c bd a1 7a 91 bd
       -0.06010341 -0.08627232 -0.06162912 -0.07103468
000130 46 1f 84 3b 19 f1 22 be 79 63 89 bd af 3d 02 be
       0.0040320484 -0.15912284 -0.06708426 -0.12718843
000140 a1 c7 bf 3d a3 5c 2e bd 74 86 a5 3c 80 71 4c be
       0.09364248 -0.042568814 0.020205714 -0.19965172
000150 94 56 f9 bd 74 7b 73 3d db 76 7f bd b7 ce 1c be
       -0.121747166 0.059443906 -0.06236921 -0.1531323
000160 61 93 c2 bd 29 18 02 be 29 ea 55 3d 1d 10 8b 3b
       -0.095007665 -0.12704529 0.052225266 0.004243864
000170 3f 72 91 3d b4 57 03 bc 11 82 01 be ac 88 fd 3a
       0.07101869 -0.0080165155 -0.12647273 0.00193431
000180 2f e1 a4 bd 37 94 81 3c 35 e8 06 be 0b 5a b4 bd
       -0.08050763 0.015817745 -0.13174517 -0.08806237
000190 f9 8d b9 bc 56 1f 61 be ec 41 e2 bc eb 7b 41 3d
       -0.022650706 -0.2198461 -0.027619325 0.047237318
0001a0 03 50 a1 3c b1 e9 1d bd b3 ed d5 bd 41 69 aa bd
       0.019691473 -0.038552944 -0.10445728 -0.08320857
0001b0 fb 76 9b 3d b5 e6 41 bd a9 4d 00 3c 5d 90 e3 bd
       0.07591053 -0.04733916 0.007831016 -0.111115195
0001c0 03 85 92 3d cb 5e a3 3d a5 1c 56 3c 8d fc f4 3d
       0.07154276 0.07977065 0.013068353 0.11962233
0001d0 0b 02 5c 3d 60 32 02 bc 58 8c 16 3e 0d 44 01 be
       0.053712886 -0.007946581 0.14701974 -0.12623616
0001e0 09 7e 0c be 68 8c 95 bc 91 8c 19 bc bf c8 f3 3c
       -0.13719954 -0.018255427 -0.009371893 0.02975881
0001f0 7d 81 02 be 29 b7 10 be b8 b0 db 3d 5d 22 1c be
       -0.12744708 -0.1413237 0.10727066 -0.15247484

X_3.0.weight f4 [128, 128]
000000 40 7e 33 be be 8d 26 3d 0d 38 32 be fe af 26 bd
       -0.1752863 0.04066252 -0.17404194 -0.040695183
000010 4f 99 7a bd 75 e3 a5 bd 64 58 54 3d 7e 36 4a bc
       -0.061181363 -0.081000246 0.05184211 -0.0123420935
000020 b7 d4 aa bd a2 91 ea 3d 95 7c 3a bc 16 c1 1c bc
       -0.083413534 0.114535585 -0.011382242 -0.00956752
000030 f0 78 02 3d e6 73 0b 3e cc 92 1f bd d9 d9 cb 3c
       0.031853616 0.1361843 -0.038958356 0.024884151
000040 91 7e 58 bb 36 c4 fa 3a 34 87 cc 3d b4 e2 36 bd
       -0.0033034424 0.0019131962 0.099867254 -0.044649795
000050 d8 2d 50 bd 26 36 45 3d c7 d4 2a be c1 c9 fc 3c
       -0.05082497 0.048147343 -0.1668273 0.030857923
000060 92 f0 86 bc 3f ea 48 bb c0 77 1e 3b 52 9a 63 3d
       -0.016472135 -0.00306572 0.0024180263 0.055567093
000070 a1 ab 28 3d d3 45 91 3d aa b7 15 be 6c f8 3d be
       0.041179303 0.07093396 -0.14620844 -0.18551797
000080 67 5b 0d 3d 27 b4 d6 3d a7 cf fe bd 3f 7c b1 3d
       0.034510996 0.1048358 -0.1244195 0.08666276
000090 e7 2b 1b bd 90 b2 f6 3c a1 cc df bc 1c 0e ce 3d
       -0.037883665 0.030114442 -0.027319254 0.10061285
0000a0 d3 58 bb 3c f1 b7 16 3d 90 b6 1a be 60 d5 9b bd
       0.022869503 0.036796514 -0.15108705 -0.076090574
0000b0 95 fc 1e 3e 33 bb a7 bd 4b c2 fa 3c 74 f8 ad bd
       0.1552604 -0.08190002 0.030610224 -0.08494654
0000c0 39 f3 e1 bc a3 c8 89 bc 0e 9d 9b 3c 34 dc 13 3d
       -0.027581798 -0.016819304 0.018995788 0.036098674
0000d0 1a fa 46 bc ce b7 c0 bc e6 5b f3 3c 09 fd 5e 3d
       -0.01214459 -0.023525145 0.029706907 0.054440532
0000e0 45 d0 26 bb 79 b2 d9 3d bd 06 54 bb bb ea ed bd
       -0.0025453728 0.10629744 -0.003235265 -0.11617037
0000f0 cc 3a 69 3d ec a6 8b bc ba 80 91 bd 03 9d c0 3c
       0.05694084 -0.017047368 -0.07104631 0.023512369
000100 0a b6 f9 3d 78 7a 07 be 40 55 a4 bd 25 58 32 bd
       0.12192924 -0.13230312 -0.08024073 -0.043541092
000110 3d aa 63 3d 64 74 35 bc b2 b8 70 3d 55 dd fb bd
       0.055582274 -0.011075113 0.05876989 -0.12298075
000120 73 a2 1d be 4d 02 a0 bb 57 58 b5 bd af 85 34 be
       -0.15394 -0.004883087 -0.0885474 -0.17629121
000130 0a e5 97 bc ca 8b 50 3e 95 ff 8c 3c 6d c7 58 3a
       -0.018541832 0.20365825 0.017211715 0.0008269463
000140 25 6c e9 bd 52 f5 cf 3c 5a 0a 2d bd 3e 86 26 3e
       -0.1139758 0.025385533 -0.0422462 0.16262147
000150 fd a2 7d bd 09 33 20 be 8d 04 3c bd ec 80 9e 3d
       -0.061923016 -0.15644468 -0.045902777 0.07739434
000160 d4 58 be bd 81 e1 8a 3c f2 dc 92 3d 0d 34 81 3d
       -0.09294286 0.016953232 0.07171048 0.06308756
000170 fe e4 43 be 8b 16 31 bd 56 1d 5f 3d 34 a9 0d 3e
       -0.19130322 -0.04323439 0.054471336 0.13834077
000180 73 6e ce 3d e2 dd 75 bd 65 28 20 3e ff 77 88 bd
       0.1007966 -0.060026057 0.1564041 -0.066635124
000190 86 03 79 3d e8 96 cb 3d 3f 81 ce bb 25 81 67 bb
       0.060794376 0.099408925 -0.0063020284 -0.003532478
0001a0 ea a5 c8 3d 26 a2 36 be 88 b3 ab bd 00 59 93 3d
       0.097972706 -0.17835292 -0.08383852 0.0719471
0001b0 c7 8b 3a bd 45 9d e9 3d 41 3d 0d 3c b6 49 8f 3d
       -0.04554346 0.1140695 0.008620561 0.06996481
0001c0 e3 73 8e bd 57 61 a7 bc 7a f0 a5 bd 3e 2f 34 be
       -0.069556974 -0.020432157 -0.08102508 -0.17596146
0001d0 34 b3 27 3d f9 6a 36 3d 59 7b 45 bd 8b c8 29 3e
       0.040942386 0.04453561 -0.048213337 0.16580407
0001e0 43 c0 86 ba 66 c5 bd bd f0 50 d6 bd fe 48 b9 3c
       -0.0010280687 -0.092661664 -0.10464656 0.022617813
0001f0 82 9e 1c bc 10 cd 64 3c 16 39 34 bd 5d 1d ee 3d
       -0.009559276 0.013964906 -0.043999754 0.11626694
000200 86 d4 66 bd bc c2 e6 3c 3c 76 c7 3d dc 02 ad 3c
       -0.056355022 0.028169028 0.09739348 0.021119528
000210 d9 77 35 be 58 2c 81 3c 7f 36 69 bd ee 8e 4c bd
       -0.177215 0.015768215 -0.056936737 -0.049940996
000220 da 16 0f 3d ee 0f 20 3c 31 ab 82 3d 17 4b 7b bd
       0.034933902 0.009769423 0.063803084 -0.061350908
000230 32 fa 86 bd c8 f1 ef 3d 5b a3 2e 3d d5 fb 8c bd
       -0.0659069 0.11716038 0.042636257 -0.06883971
000240 31 e2 6a 3c 1b 6b c5 bd fc 6e d6 3b 5e ff a6 bd
       0.014336155 -0.09639569 0.006543992 -0.08154176
000250 c8 86 ec bd b9 44 1e be 88 41 24 bd 75 5a 29 bc
       -0.11549145 -0.15455903 -0.040101558 -0.010336508
000260 8c e6 68 3d 92 64 4e 3d f8 0c d7 bc 33 51 f6 bd
       0.05686049 0.05038888 -0.026251301 -0.12027206
000270 54 92 9e 3c 93 72 b1 bc b8 ef 05 be 5b 4b 02 be
       0.019356884 -0.021661079 -0.13079727 -0.12724058
000280 ee 9d 78 bd f2 ac d2 3d 06 5b 0e be 6c f1 02 be
       -0.06069749 0.10286893 -0.1390191 -0.12787408
000290 fd b0 a5 3c b1 a6 94 3c 35 0c 39 3d 12 ea 45 3d
       0.020225996 0.01814589 0.045177657 0.04831893
0002a0 b0 60 70 bc 0e 61 59 3e b7 8d fa bc 78 89 03 be
       -0.01467149 0.2122843 -0.030585153 -0.12845409
0002b0 22 7d a0 bc b8 96 88 bb 49 79 e3 bd 8e 71 a0 3c
       -0.019590918 -0.0041683577 -0.11107118 0.019585397
0002c0 32 b2 97 3e 36 8e 39 bd 92 c7 6d 3d 66 97 4c be
       0.2962814 -0.04530164 0.058051653 -0.19979629
0002d0 81 c0 02 be f3 73 3e be 59 26 22 bd 94 cc 02 3e
       -0.12768747 -0.18598919 -0.039587352 0.12773353
0002e0 db 5d 54 bd fa cf bb 3d 4c aa df bd fc db 3d bd
       -0.05184732 0.09170528 -0.109211534 -0.04635237
0002f0 86 87 72 3c 66 0b 00 3e be 20 4e bd 05 45 0c be
       0.014802819 0.12504348 -0.050324194 -0.13698204
000300 fe 56 25 3e 4a c6 2b 3d 6c 5c c9 bb 4c e3 f3 bc
       0.16146466 0.04193715 -0.0061450507 -0.02977147
000310 77 c4 9f bd c2 9d f9 ba f7 25 ae bd f5 16 c9 bd
       -0.078011446 -0.0019044208 -0.08503335 -0.09818832
000320 79 fc ad bd 4f 41 7d bd d4 d7 26 be 0a 8e fa bd
       -0.08495421 -0.06182986 -0.1629327 -0.12234123
000330 30 ea ce 3d 89 23 7b 3d 67 66 0f 3d 1e 8f 25 3d
       0.101032615 0.061313186 0.035009768 0.04041969
000340 0c 21 27 be 0a 24 92 3c 7d 7a 22 3d ed 71 9c 3d
       -0.163212 0.01783945 0.039667595 0.07638917
000350 52 ac 7a bd ad c2 57 be 94 35 37 bd 8e 95 d6 3c
       -0.061199494 -0.21070357 -0.04472883 0.02619436
000360 9e 4b ed 3d 26 b7 cc bd 04 fe 06 3d 65 2b 23 bd
       0.115866885 -0.0999587 0.032957092 -0.039836306
000370 04 1a 9a bd 94 7f ed bd 72 ac 29 3d 50 8c 88 bd
       -0.07524493 -0.11596599 0.041424222 -0.066673875
000380 83 a4 3b bd a9 66 25 be cc 96 01 3e dc 84 fd bd
       -0.045811187 -0.16152443 0.1265518 -0.123788565
000390 a6 a7 4c 3d 90 9b 1e bd 02 f9 32 3e b4 8d be 3d
       0.04996457 -0.038722575 0.17477801 0.093043715
0003a0 8b 70 87 3b cc a1 de 3d a5 8f 30 bd 62 7f f8 3d
       0.004133289 0.10870704 -0.04310574 0.12133671
0003b0 5f e8 d9 bd 2e ef 72 bd ba 7b 4a 3c 51 b9 cb bd
       -0.106400244 -0.05931013 0.0123586 -0.09947456
0003c0 97 4a d1 3c 5e 65 f8 3c 73 75 6b bd 2b b5 3c be
       0.025548263 0.030321773 -0.057485055 -0.18428485
0003d0 a9 c2 52 bd bc 65 b2 bd e3 e2 8d bd 56 c7 1c 3d
       -0.051455174 -0.087108105 -0.06928041 0.03827604
0003e0 15 73 0c 3d 65 9e b8 bd 33 51 d1 bd be cb 7c ba
       0.03428944 -0.09014586 -0.10220566 -0.0009643397
0003f0 73 30 1e 3e 1e d0 3c 3e eb e4 ea bd 6c 21 40 3e
       0.1544817 0.18438765 -0.11469444 0.1876275
