results/MLP_tree/hidden_size_128/s_MLP_tree_t_simglucose_data_insilico_seed_56_2024-04-03_PH_30/model_epoch_79_loss_0.01.pth (torch, 722246 bytes, 23 tensors)

X_1.0.weight f4 [128, 20]
000000 54 65 27 3e 7a 26 05 3d 0f 2f 9b bd e1 03 53 3e
       0.16347247 0.032507397 -0.07577335 0.20606948
000010 22 52 a2 bc 34 dc b1 3d f5 e5 de bd 4a f2 50 bd
       -0.019814555 0.086845785 -0.108837046 -0.051012315
000020 b7 50 87 3d 59 9e 74 bd b3 ff 1d be 74 40 be 3d
       0.06607192 -0.059721325 -0.15429573 0.09289637
000030 5a b9 57 bd d9 4f 07 be 2f bc 96 bd 87 bb ca 3c
       -0.052667 -0.13214053 -0.07360112 0.024747623
000040 11 84 fe 3b ca f7 d7 bc d5 30 0e be 6c 15 e6 bd
       0.0077672084 -0.026363272 -0.13885815 -0.11234555
000050 9b 05 49 3a a9 a1 71 bd 99 74 68 be 8e 41 2a be
       0.0007668377 -0.05899206 -0.22700728 -0.1662657
000060 f1 c0 66 3d c8 5e f7 bc 75 66 30 3e 1e aa 02 3e
       0.056336347 -0.030196562 0.17226584 0.12760207
000070 d5 7d a4 bd 0a 72 ae bd e7 b2 a1 3c 33 5e 8c bd
       -0.08031813 -0.08517845 0.019738628 -0.068539046
000080 91 0e 25 bd 08 64 83 be 3a 0c 0e 3e cd 6c 19 3d
       -0.040297095 -0.25662255 0.13871852 0.037457276
000090 62 f8 f3 3d 56 72 0b be 6d 20 04 bd 8b c0 89 3d
       0.1191261 -0.13617834 -0.032257486 0.06726178
0000a0 3a 08 3b bb bb 33 e4 bc ad 6e 88 bd c4 ed 8f 3d
       -0.002853884 -0.027856698 -0.06661735 0.07027772
0000b0 95 2b 00 be 3e 0c 15 3e 73 cf 49 be 0e 7a 29 be
       -0.12516625 0.14555451 -0.19708042 -0.16550466
0000c0 73 a8 52 3e cd c6 7d 3d 28 ee 58 be e3 1b 22 be
       0.20572071 0.06195717 -0.211846 -0.1583095
0000d0 d5 1d 08 3e e0 3d a4 3d a3 4b 94 3d 40 5e 41 be
       0.1329263 0.08019614 0.07240989 -0.1888361
0000e0 84 03 5d bd 66 3e 06 bc e2 e2 8e 3c ea 0b e2 3d
       -0.05395843 -0.008193588 0.01744217 0.11037429
0000f0 f2 b4 ee 3d ca 1d ef bd 5c 7c 8f 3e 5c d0 16 be
       0.11655606 -0.11675604 0.28024566 -0.1472792
000100 88 6e bb bd c8 e6 1b 3d 5c 6e 5c 3d 2d 0f 4c bd
       -0.091519415 0.038061887 0.053816184 -0.04981916
000110 5b 22 0b be ee d5 87 bd e3 5a 14 be 24 e9 05 be
       -0.13587324 -0.06632601 -0.14487796 -0.13077217
000120 8a 6b 3e 3d 98 11 59 bb 21 47 03 3e 20 16 0e be
       0.046489276 -0.003312206 0.12820102 -0.13875628
000130 be d7 0f be 0c f4 0d be 24 9e b9 3c e9 46 fd 3b
       -0.14047143 -0.13862628 0.022658415 0.0077294004
000140 a1 6e aa 3d 43 53 9f bd 77 25 5b be 4d f9 96 3b
       0.08321882 -0.07779553 -0.2140101 0.0046073557
000150 a8 0a 4f be f9 81 33 3e d8 61 a4 be 48 13 50 3c
       -0.20218909 0.1753005 -0.321059 0.0126999095
000160 ed 88 00 3e 35 a5 03 bf 2c 3b 6f bd 52 92 27 be
       0.12552233 -0.5142396 -0.05840604 -0.1636441
000170 49 75 fb 3c 45 e2 2f be 9b 7b 6c be c1 a9 9e 3d
       0.030695574 -0.17176159 -0.23094027 0.07747222
000180 43 45 68 bc 3a f7 b2 3b cf 3b 22 be 14 99 76 be
       -0.0141766695 0.0054616006 -0.15843128 -0.24081832
000190 44 3e 26 3e 39 e3 98 3d 4a cc 1d bb 46 ba 1b 3d
       0.1623469 0.07465214 -0.0024078065 0.03801944
0001a0 eb a7 90 bd 09 3c f1 3d 6f 12 8e 3d 46 07 46 bc
       -0.07063278 0.11779029 0.0693711 -0.012086695
0001b0 a1 3a 50 be 5c 08 52 be 1d 32 0e be 01 4f 9c bd
       -0.20334865 -0.20511001 -0.13886304 -0.07632256
0001c0 55 3c 49 be 60 4c 73 be a5 fb 70 bd f3 0c 7f be
       -0.19651921 -0.23759604 -0.058833737 -0.24907283
0001d0 a0 f7 99 bd fe 85 13 3d 4c 6c 17 3e 8b f4 06 3e
       -0.07517934 0.036016457 0.14787406 0.13179223
0001e0 b1 c1 8e 3d e7 9a b1 3d 40 a7 d4 3e 6f bb 75 be
       0.069705375 0.086721234 0.41533852 -0.23997281
0001f0 c2 63 09 be 1f f2 9d 3c 0b 6e 59 be a8 20 67 bb
       -0.13416961 0.019280491 -0.21233384 -0.0035267267
000200 f0 20 86 be b5 50 c7 3e 52 6f 1a 3e 31 3b ae 3c
       -0.26197004 0.38928762 0.15081528 0.021268459
000210 9c a6 cb 3d 94 56 2a be 1a ec f3 3d 3f 62 a6 bd
       0.099438876 -0.1663459 0.11910267 -0.08124208
000220 5e 36 05 be fa 71 d2 bd ce ef 16 bc 6c f9 de bd
       -0.1300902 -0.102756456 -0.009212447 -0.10887417
000230 d6 0a a7 3c de a6 fe 3d fa a4 55 bd d6 73 99 bd
       0.02039091 0.12434171 -0.052159287 -0.07492797
000240 ea f4 1c bd 62 0c 59 3e 5b e8 01 be fa 9b 0e 3e
       -0.038319506 0.2119613 -0.12686293 0.13926688
000250 fe fa 17 3d 44 f0 f1 bd b2 af 51 be 1b 90 07 3d
       0.0371046 -0.11813405 -0.20477179 0.033096414
000260 5b 69 e8 3d dc b8 4d bd 9b 3e 0d be 54 d5 34 3e
       0.1134822 -0.050225124 -0.13793413 0.17659503
000270 e1 49 68 be 8e 5a 28 be 4f 61 38 3e f7 c9 44 be
       -0.22684433 -0.16440794 0.1800587 -0.19217668
000280 ee 72 b0 bd 6f 2e 8b be a9 aa 35 be 58 8e 85 bd
       -0.08615671 -0.27183864 -0.17740883 -0.065212905
000290 9c be 0b be e8 cd 7a 3c 31 36 3e be af 57 98 bd
       -0.1364693 0.015307881 -0.1857536 -0.07438599
0002a0 e8 29 13 be 2d 7c 05 3d 62 87 da 3d 03 a8 dd bb
       -0.14371455 0.032589126 0.106703535 -0.0067644133
0002b0 fd 7a c5 3d 0b ba bc bd b7 28 51 be 2c 00 05 3e
       0.09642599 -0.092151724 -0.20425688 0.12988347
0002c0 e9 9d 80 be 2d 67 75 bc fa 81 fa bd c6 41 8e be
       -0.25120476 -0.014978212 -0.12231822 -0.27784556
0002d0 01 cd e6 bd dd 1a aa 3d 3f b6 86 3e 73 3d 39 3e
       -0.1126957 0.08305905 0.26310918 0.18089847
0002e0 4c d7 7e 3e a7 48 63 bd 1f 05 1e 3d 1f 40 86 be
       0.24886817 -0.05548921 0.038579103 -0.26220796
0002f0 60 78 d5 bd 87 46 3c 3e 35 52 c5 3d 16 d5 68 be
       -0.1042335 0.18386279 0.0963482 -0.22737536
000300 0f 06 33 be 47 f8 9e 3d 8e c9 e1 bd 2a 06 84 bc
       -0.1748278 0.07762199 -0.11024772 -0.01611622
000310 a1 46 8d 3d 41 3d fd 3d a4 a3 10 bd fa ae 72 3c
       0.06898237 0.12365199 -0.03531231 0.0148122255
000320 d0 9e 01 3e fb 86 49 3e 6f 60 a3 3e cd 97 41 be
       0.12658238 0.19680397 0.3190951 -0.18905564
000330 07 50 93 be c1 fc 10 be 24 d2 8f be fc 23 51 3d
       -0.28771994 -0.14158918 -0.28090012 0.051059708
000340 b4 7f 16 be 5e 02 12 bd 7b 2f 60 bc 6c 29 f8 bd
       -0.14697152 -0.03564679 -0.013683195 -0.121172756
000350 44 8e 22 be 98 36 39 bd 8b fd 32 bd a3 2b f6 3c
       -0.15874583 -0.04521808 -0.04369883 0.030050104
000360 09 08 0e be be 52 44 3c 04 35 a6 3d de de 21 be
       -0.13870253 0.011982618 0.08115581 -0.15807673
000370 e8 cb d8 3c 08 11 04 3d e1 80 93 bd 7e 0b 02 bc
       0.026464418 0.032242805 -0.07202316 -0.00793731
000380 c1 16 1f 3e 5d ea 4f 3e ef 0b 3e 3e 5f 2c e7 bd
       0.15536024 0.20304246 0.1855924 -0.1128776
000390 e2 c7 58 3e 86 1c 9c 3d bb d8 1e be 0a 80 7b 3d
       0.21169999 0.07622628 -0.15512364 0.061401404
0003a0 cd 8c 49 3e b6 38 e5 bb 78 6c 37 bd 65 3f e6 bd
       0.19682617 -0.006995286 -0.04478118 -0.1124256
0003b0 f8 c5 3b be d3 ec 51 be 3e d1 11 be 3b 1c 23 be
       -0.18337238 -0.20500498 -0.14239976 -0.15928738
0003c0 fe 9b 6c 3d 16 1c 66 be 11 60 48 be b7 97 2f be
       0.057765953 -0.22471651 -0.19567896 -0.17147718
0003d0 59 59 35 3e 95 c9 52 3e 51 9a 53 be af b3 01 be
       0.17709865 0.2058471 -0.20664336 -0.126662
0003e0 d6 f7 09 3e d4 ba 0e 3d 1d a4 ff bd ea 39 66 bd
       0.13473448 0.034846142 -0.12482474 -0.056207575
0003f0 31 f8 24 bc 6e 74 31 be 40 7c 5f 3e 66 e7 c3 3d
       -0.010068939 -0.1732957 0.21824741 0.0956562

X_1.0.bias f4 [128]
000000 d7 36 16 3e 2a 90 15 be 91 2b 86 be ac 89 07 3e
       0.14669357 -0.14605775 -0.26205114 0.13236111
000010 c9 1c 89 3d 00 08 17 be 39 67 54 3d 6e 0f 18 be
       0.066949435 -0.14749146 0.051856253 -0.14849636
000020 b2 bc af bd e2 d0 7a bc ad 14 fd 3d 71 ca 5c 3e
       -0.08580913 -0.015308591 0.12357459 0.215616
000030 e8 64 99 3d 28 ec 14 3e 60 80 3e bd 7e f0 28 3c
       0.074899495 0.14543211 -0.046509147 0.010311244
000040 83 96 a5 be 4a 3d 19 3e da b5 d4 3d 1e 14 96 3d
       -0.32341394 0.14964786 0.10386248 0.07328056
000050 0d d0 12 3e 05 b6 52 3e 8e 6a d1 bb 7c a7 a4 3d
       0.14337178 0.20577247 -0.006390876 0.080397576
000060 22 41 7d be 0a 2f 42 bd 1d 0c 18 be 74 25 44 bc
       -0.24731877 -0.04740814 -0.14848371 -0.01197182
000070 e4 3a 27 be 88 74 fb bd ce 2e 88 3d 1f 9e 41 be
       -0.16331059 -0.12278086 0.06649552 -0.18907975
000080 48 a8 08 3e 40 b6 c3 bd 5a 40 06 3e 7b de 43 be
       0.13345444 -0.09556246 0.13110486 -0.19127838
000090 3a 16 0f 3e 80 41 d8 bd 00 05 8f be c3 6d 7a be
       0.13973323 -0.10559368 -0.27933502 -0.24455933
0000a0 ee 2f e9 3c 9a aa 40 be e6 75 0b 3e 1f 27 30 be
       0.028465237 -0.1881508 0.13619193 -0.17202424
0000b0 fd 08 cc bd 9f 3e 20 3e 91 c6 e0 bd 7d 3d 7d be
       -0.09962652 0.15648888 -0.109753735 -0.24730487
0000c0 4d ea 19 3e 4d 5b 16 3e 42 ba ca bd 4e 23 ea bb
       0.15030785 0.14683266 -0.09898807 -0.007145322
0000d0 84 91 0c 3e bb eb 87 3d a3 cc 19 be 1a d6 30 3e
       0.13727385 0.06636759 -0.15019469 0.17269173
0000e0 ea 9e 3e be ed 9c 72 be d5 63 59 3e 76 65 3f 3e
       -0.18615308 -0.23692675 0.21229489 0.18691048
0000f0 2b 66 4d be d4 f3 b7 bd 09 55 f8 3d c0 52 58 bd
       -0.20058505 -0.089820534 0.12125594 -0.05281329
000100 e3 bb 8c bd 6a 4b b7 bc 87 5b 69 3c df 2c 50 be
       -0.06871774 -0.022374827 0.014243013 -0.20329617
000110 ca b1 84 3d 9b 77 0f 3e 42 06 90 be f6 91 95 be
       0.06479223 0.1401047 -0.28129774 -0.29212922
000120 a7 e3 28 be 4f 22 22 be 52 fa dc bd 1d 40 22 be
       -0.16493092 -0.158334 -0.10789932 -0.1584477
000130 28 55 d9 bd ae 2c a1 bc f3 96 56 be 7a d0 26 3e
       -0.106119454 -0.019674625 -0.2095602 0.16290465
000140 8a a5 f5 bd c6 af 3d be 3a 36 72 be 07 ed 35 be
       -0.11994465 -0.18524083 -0.23653498 -0.177662
000150 ed bb 43 bd 00 23 27 be af 92 74 be 8b 98 61 3d
       -0.047786642 -0.16321945 -0.2388408 0.055077117
000160 fc 93 89 3c ff 8a a5 3d 0b 5c 41 3d 55 a4 d4 bc
       0.016794197 0.08083152 0.04720692 -0.025957266
000170 fc 33 23 3c 0d c7 29 be 91 29 ea 3d 6b d9 00 bd
       0.0099611245 -0.16579838 0.114337094 -0.031457346
000180 03 68 97 be 88 e0 f4 3d 40 fe 44 be 1c 87 47 bd
       -0.29571542 0.119568884 -0.19237614 -0.048712835
000190 e9 ab 88 3d 03 3f 17 bd 07 f0 3d 3c 86 81 2a be
       0.06673414 -0.036925327 0.0115928715 -0.16650972
0001a0 a3 4e 53 3d fe 67 62 bc d6 1e 0c be 2f c5 50 bd
       0.051588666 -0.013818739 -0.13683638 -0.0509693
0001b0 15 ac 10 be cf e3 11 3e 09 08 23 3e c9 f9 82 bd
       -0.14128144 0.14247058 0.15921034 -0.06395299
0001c0 fd 64 80 be a9 d6 60 be ff ca a0 3d 74 41 13 3b
       -0.25077048 -0.21956886 0.078512184 0.0022469433
0001d0 3d e5 0e be 8d e7 f3 ba ed 7a 3c 3e 03 38 94 3d
       -0.13954635 -0.0018608436 0.18406267 0.07237246
0001e0 9a d2 ea 3d 86 17 2b be 9d c6 3b 3e d8 7f 43 be
       0.1146595 -0.16708192 0.18337484 -0.19091737
0001f0 e1 4f 28 3e cf fd ed bc dd 38 01 be 4b 7d 44 be
       0.16436721 -0.02905169 -0.12619348 -0.1918842

X_10.0.weight f4 [128, 20]
000000 83 de 8d 3d 3c c3 b8 3d c8 02 c7 3d a3 3d 05 3e
       0.06927206 0.09021613 0.09717327 0.13011794
000010 21 e6 45 be 18 4f a2 3d 87 5e d9 bd 17 6e eb 3d
       -0.19326068 0.07925242 -0.10613733 0.11495607
000020 a6 18 b4 bd dd 78 44 be a3 eb cc bd 44 f8 71 3d
       -0.08793764 -0.1918673 -0.10005882 0.059074655
000030 15 e8 53 be 2a 62 60 3d 8d 2d e8 3d 02 9a 29 3e
       -0.20694001 0.054781117 0.11336813 0.16562656
000040 a1 8f 20 3e 5f 0f 3f be 07 37 9a bd 53 4c 96 be
       0.1567979 -0.18658207 -0.07530027 -0.29355106
000050 f0 64 35 3e 3d 44 2c bd b6 1f c4 3d fe 5c 68 3d
       0.17714286 -0.042057265 0.09576361 0.05672931
000060 e4 07 12 3e 25 96 09 be 63 c0 9a bd 98 9c 33 3d
       0.14260823 -0.13436182 -0.07556226 0.04385051
000070 4a d6 9f 3e 43 b6 2b 3d 95 c1 1c be a8 9b ad 3d
       0.31218177 0.041921865 -0.1530822 0.08476955
000080 dd 90 53 bd 5d 09 e8 bc a9 59 8e 3d fe 7c 11 3e
       -0.051651824 -0.028324777 0.06950695 0.14207837
000090 ab 7e 00 be c1 0d 33 3e 8a ba bb 3d 10 34 7b be
       -0.1254832 0.17485715 0.09166439 -0.24531579
0000a0 3d af 9c bd e5 5c d6 bd 04 fd ee 3d a7 62 66 3e
       -0.076506115 -0.10466937 0.11669353 0.2249857
0000b0 50 87 f0 bd 24 cd 04 be 83 4a a5 3d 75 5e f4 3d
       -0.11744559 -0.1296888 0.080708526 0.11932079
0000c0 36 06 66 3d cf 69 f9 3d c8 aa f5 3c 15 cc cf 3c
       0.056158267 0.121783845 0.029988661 0.025365869
0000d0 09 87 27 be 70 18 74 bd d5 d4 6b bd 65 e3 41 3d
       -0.16360106 -0.059593618 -0.05757602 0.047336
0000e0 bb fe 52 3e 12 b6 c3 3d ac 4d 5a be 6b 72 5c be
       0.20604984 0.095562115 -0.21318692 -0.21528022
0000f0 16 1f 47 3e 56 60 f5 bd fd 5a 4f 3e d5 1a c6 bc
       0.19445452 -0.11981265 0.20249553 -0.024182716
000100 32 3e 2b 3e 41 5e 0a bd 76 b9 34 3e b4 10 f0 bd
       0.16722944 -0.033781294 0.17648873 -0.11721936
000110 b8 08 00 bd 79 12 2d be 59 fb 68 be 73 2d e4 3d
       -0.031258315 -0.16901578 -0.22752132 0.11141481
000120 f5 ab da bc f1 f1 05 be 7f 85 0f be 53 f7 28 3e
       -0.026693324 -0.13080575 -0.14015768 0.16500597
000130 03 c8 37 bc df 99 80 be ac 2f 14 bc 68 c6 a3 3d
       -0.01121712 -0.25117394 -0.009044569 0.07996827
000140 7c c9 6c bc 46 06 f7 bc 64 62 35 bd 46 30 21 39
       -0.0144523345 -0.030154359 -0.044283286 0.0001537214
000150 a0 cf af 3d aa 36 2e 3e 91 54 30 bd 28 04 12 be
       0.08584523 0.1701304 -0.0430494 -0.14259398
000160 b0 1b 03 3e 64 be 18 3e 73 1c 31 be cd d8 ca bc
       0.1280353 0.14916378 -0.17296009 -0.024761582
000170 38 ce 82 3d 61 15 14 bd c5 58 1e 3c 9f 6c 78 be
       0.06386989 -0.0361532 0.009664719 -0.24260186
000180 43 f1 17 bd 95 e9 bb bd 39 d1 d5 3d 3d c7 09 bd
       -0.03709532 -0.091754116 0.10440297 -0.033637274
000190 0e 80 dc bd 9c 5a 0b 3e 02 a5 61 3d c7 b9 24 3e
       -0.10766612 0.13608783 0.055089004 0.16086493
0001a0 45 21 4d 3e 5a b6 c7 3e 1c d8 09 3e fa 61 9b 3d
       0.20032223 0.3900631 0.13461345 0.07587047
0001b0 b3 23 b4 bd 84 ee b9 bd 0c 88 fd 3c 19 07 09 bd
       -0.087958716 -0.09078696 0.030948661 -0.033454034
0001c0 06 fa 00 3d 22 02 2c be 17 1d 8f bd d9 91 41 3e
       0.03148844 -0.16797689 -0.0698797 0.18903293
0001d0 9d 88 81 bd 3f 84 f4 bd a4 be 65 3d 18 f4 38 3c
       -0.06324885 -0.119392864 0.056090012 0.011288665
0001e0 ac 01 ee bd 30 56 2b 3e c5 50 cf 3d 64 8e 18 bd
       -0.11621413 0.16732097 0.101228274 -0.03724517
0001f0 c6 07 21 be 09 70 b6 bc 3e 5c 88 bd 58 cd 40 3c
       -0.15725622 -0.02227022 -0.06658219 0.011767708
000200 ac a9 c1 3c e8 1a 98 3d d8 02 eb 3d c3 a5 f6 bd
       0.023640476 0.07427007 0.11475152 -0.12043335
000210 92 65 f7 bd fb 1a 0b be a2 ed 01 3e 05 08 04 be
       -0.1207992 -0.13584511 0.12688306 -0.12893684
000220 f1 90 42 be e3 d5 f6 3c 29 a4 5e bd db f5 5e 3d
       -0.19000603 0.030131286 -0.054355774 0.054433685
000230 63 d4 1a 3e 49 82 7f 3d 46 36 65 3d 7a 01 0b be
       0.15120082 0.06238011 0.055959962 -0.13574782
000240 bf eb b8 3d da f1 8f bd 3a 0c 41 be 5f 74 00 be
       0.0902934 -0.070285514 -0.1885232 -0.12544392
000250 ac 03 10 3b fc d3 62 bd 07 26 1d be 93 f1 31 be
       0.0021974845 -0.055377945 -0.15346538 -0.1737731
000260 22 25 0a 3e 2c 9d f9 bc dc 43 a7 3d 83 24 3f be
       0.13490728 -0.030470453 0.0816724 -0.18666272
000270 40 8f 89 bd c4 af 93 3d c5 9e 2c 3d 00 58 b2 3a
       -0.06716776 0.07211259 0.042143602 0.0013606548
000280 7b 8b 5c 3e eb ad 8e 3d f8 7a 30 bd 70 5a 13 3e
       0.21537583 0.06966766 -0.043086022 0.14389968
000290 c9 88 8f 3c d2 cf f1 bd c9 b2 82 be b4 b2 eb bd
       0.017521279 -0.11807217 -0.25527027 -0.11508694
0002a0 79 9e 2d be 15 b1 a0 3c 6b 95 44 be 82 5c 89 be
       -0.16954984 0.01961569 -0.19197623 -0.2682839
0002b0 ee 36 08 3d 2f 57 1b bb c6 46 97 bd 46 c8 9e bd
       0.03325551 -0.0023703089 -0.07386546 -0.07753043
0002c0 a0 74 d7 3d 8a 74 ce 3d a9 27 ff bd 48 06 00 be
       0.10520291 0.10080822 -0.124587364 -0.12502396
0002d0 b2 2e ef bd f0 8b 29 be cd dd 2d 3e 30 74 22 bd
       -0.11678828 -0.16557288 0.16979142 -0.039661586
0002e0 98 3a 47 ba b8 73 1d 3e ce 74 3e be fe 7f 52 bd
       -0.00075999787 0.15376174 -0.18599245 -0.051391594
0002f0 a5 1a ca 3d 62 ac 6a 3d e1 00 25 be e4 d6 8b 3d
       0.09868363 0.057293303 -0.16113617 0.068280965
000300 e9 ae f8 bd 0e 8a 6e 3d f6 77 a1 bd 56 86 20 3e
       -0.121427365 0.058237128 -0.07884209 0.15676245
000310 e3 4f 4a 3d 53 ac 4f bd 2f 4b 4d 3d e8 bb b8 3d
       0.049392592 -0.05070145 0.05012053 0.09020215
000320 1f 5d c4 bd 3d 28 8f be b4 b6 41 3d 9b fb 87 3d
       -0.09588074 -0.27960387 0.04729338 0.06639787
000330 47 7a 42 3e 4e 8c 6b 3d e1 02 04 be 43 90 20 3e
       0.18991958 0.05750685 -0.12891723 0.15680031
000340 15 33 97 3d 56 99 6c be 0b af f2 bd 0b 2d 35 3e
       0.0738279 -0.23105368 -0.11849793 0.17692964
000350 5c cf 97 3a 72 a8 77 be 46 21 72 be 74 ae 74 be
       0.0011582184 -0.2418535 -0.23645505 -0.23894674
000360 13 87 b9 bd 74 73 7c be 1c 64 1e 3e ce 78 af 3d
       -0.090589665 -0.24653417 0.15467876 0.085679635
000370 7e af 58 bd cb 2d 9b bd f1 d1 af 3d 8c 3f 05 be
       -0.052901737 -0.07577094 0.08584965 -0.13012522
000380 55 12 45 3e 1e ff 06 3e 9d a7 27 be 95 d4 64 3d
       0.19245274 0.13183257 -0.16372533 0.055866797
000390 aa b6 d1 3c 0a ae d2 bd 65 20 38 be f4 b9 06 3c
       0.025599796 -0.102871016 -0.17981108 0.008223046
0003a0 50 c2 20 be 33 53 f3 bd 77 30 b2 bd 19 45 51 3d
       -0.15699124 -0.11881103 -0.0870065 0.051091287
0003b0 c4 b6 c4 bd 57 e8 03 be 36 20 18 bc 2f 8a db bd
       -0.09605172 -0.128816 -0.009285023 -0.10719716
0003c0 00 62 14 be e8 34 5a be ef 12 dd 3d cd 13 c4 3d
       -0.14490509 -0.21309245 0.10794627 0.09574089
0003d0 7a 06 93 3d 49 6c e3 bd 08 3b d6 3d 9a ca 98 3b
       0.0717897 -0.11104638 0.10460478 0.004662824
0003e0 48 9d 17 bd 42 83 6f 3e e8 7c 8c 3b bf 4b 2d 3b
       -0.03701523 0.23389915 0.004287351 0.0026442853
0003f0 00 d5 e4 3d 81 77 c0 3d 8b e1 1c 3e fc a6 76 be
       0.11173439 0.093977936 0.15320413 -0.24087137

X_10.0.bias f4 [128]
000000 ea a6 86 bc 89 1e 60 be 0b fb 32 be 35 27 0d 3d
       -0.016437013 -0.21886648 -0.17478578 0.03446122
000010 95 b5 a0 bc 4f ee b9 bd 61 9a 37 be cd be 04 3e
       -0.019617835 -0.09078657 -0.17929985 0.1296341
000020 c5 41 f2 3d 80 d6 d4 bd e5 70 34 3d 66 02 14 3e
       0.11828951 -0.10392475 0.044052977 0.1445404
000030 e5 02 3b 3d c4 91 a2 bd 8d d3 38 3e b1 43 d3 3d
       0.045657057 -0.07937959 0.1804945 0.103156455
000040 cc 85 6e be b0 6a 01 3e 0b a1 00 be 85 59 43 3e
       -0.23293227 0.12638354 -0.12561433 0.19077118
000050 ab 7a 33 bd c4 40 75 bc 30 b5 a7 3d f3 ab 45 be
       -0.043818157 -0.014969055 0.08188856 -0.19303875
000060 2b 2f 60 be cf 8a 7a be 7a 00 9a 3d b8 e2 92 be
       -0.21892993 -0.24467014 0.07519622 -0.28688598
000070 b1 15 ce 3d 77 14 15 bd bf 36 53 3d b5 1c 4b be
       0.10062731 -0.03639647 0.05156588 -0.1983517
000080 73 17 46 bd 9b ae 25 3e 20 4b 32 be c0 67 b0 bd
       -0.048362207 0.16179888 -0.1741147 -0.08613539
000090 ce ac fd 3d 1a 3c cd bc 93 95 20 3d 7f f9 1c be
       0.123864755 -0.025053073 0.039205145 -0.1532955
0000a0 43 89 fe 3d ee 81 41 3e d4 59 3b 3e 48 fe cb bd
       0.12428524 0.1889722 0.18295985 -0.0996061
0000b0 6e 11 71 3e c9 0a 06 bd 00 69 88 be 56 78 35 be
       0.23541805 -0.03272513 -0.2664261 -0.17721686
0000c0 ab 34 06 3e 4e 38 da bc 07 f7 da 3d c9 cd 15 bc
       0.13106029 -0.026638176 0.10691648 -0.009143301
0000d0 56 e2 04 bd c5 2f 20 be 4d c5 56 3d 65 61 88 3c
       -0.032442413 -0.15643223 0.052434254 0.016648004
0000e0 65 0a 1e be 59 54 0e 3e 37 39 6f 3d 49 ac d1 bc
       -0.15433653 0.13899364 0.058404174 -0.025594847
0000f0 94 ef 38 3e 91 59 0f 3e 7d 13 12 3c 6f 7e a3 3c
       0.18060142 0.1399901 0.008915779 0.01995775
000100 28 a0 2e 3e 55 7a 1b 3e 07 51 be 3d ff 9b d4 3c
       0.17053282 0.15183385 0.092927985 0.025953291
000110 9b ba 30 3c b7 d6 58 be cd 8a b8 3d 61 93 1b bc
       0.010786678 -0.21175657 0.09010849 -0.009495587
000120 d4 2f 1e 3e a4 a6 24 3e 81 9f 3a be 69 31 f2 bd
       0.15447932 0.16079193 -0.18224908 -0.118258305
000130 ed ab 9a bd ae 5e 09 be be 1c b1 bc 2e 59 4e bb
       -0.075523235 -0.13415024 -0.02162015 -0.003148626
000140 d8 33 d6 3d 78 26 9c bc aa 77 63 3d b6 af 47 be
       0.10459107 -0.019061312 0.055534042 -0.19500622
000150 29 da 17 3e 09 d4 35 3e bb c1 00 be 1a de a5 3d
       0.14829315 0.17756666 -0.12573902 0.08099003
000160 a0 a8 b7 3d 63 fb e5 3d 1b 9d 87 3c a8 46 9c bd
       0.089677095 0.11229589 0.016554406 -0.07630664
000170 e6 12 47 be 82 ef 4f 3d e1 ca 13 3e 47 3a d5 3d
       -0.19440803 0.05076552 0.14432861 0.10411506
000180 cc 5f 0e 3e ae 6e 89 3d c8 57 b0 bd 10 cc 0e be
       0.13903731 0.067105636 -0.08610493 -0.13945031
000190 25 a8 8a bc 31 69 49 bd 92 b3 f8 bd b4 f7 5b be
       -0.01692588 -0.049172584 -0.12143625 -0.2148121
0001a0 ec 66 ab bb fb d5 6c 3b 82 0d 22 3e 56 2a 33 be
       -0.005230775 0.0036138284 0.15825465 -0.17496619
0001b0 3f 94 5c be 69 8f e3 bd aa 1e 38 be 0a b4 9d 3d
       -0.21540926 -0.11111338 -0.17980447 0.07700355
0001c0 59 59 5c 3d 4d 38 12 bd 82 7a d7 bc 37 65 0f bd
       0.053796146 -0.035698224 -0.026303533 -0.035008635
0001d0 df c0 97 3d 01 bf 2f be c4 47 a2 3d c5 aa 30 3e
       0.07409834 -0.17162706 0.079238445 0.17252643
0001e0 b9 c0 21 3d 7d 93 db bd f5 09 43 be c0 42 f2 3d
       0.039490435 -0.107214905 -0.19046767 0.11829138
0001f0 4a 18 0a 3e ba 28 5b bd 29 6b c1 bd a9 42 ed bd
       0.13485828 -0.053505637 -0.09444267 -0.1158498

X_11.0.weight f4 [128, 20]
000000 b6 f7 09 be 89 56 10 3e f1 4c 8a 3e f0 80 13 be
       -0.134734 0.1409551 0.27011827 -0.14404655
000010 fb 11 1a be 3b 63 8d bd 2d 49 95 3e 02 5f 45 3e
       -0.15045922 -0.06903692 0.2915739 0.19274524
000020 cb ed 7f be 9a c2 13 3d ec 96 21 3e c4 6b 54 bd
       -0.24993055 0.03607426 0.15780228 -0.051860586
000030 31 5e 83 3e 34 e0 06 be 71 99 ca bd d9 24 f4 3d
       0.256578 -0.13171464 -0.09892548 0.11921091
000040 d9 d4 26 3e 03 6b 35 3e 08 8c fb bd f2 58 3a 3c
       0.16292132 0.17716603 -0.12282568 0.011373745
000050 e9 60 f5 bd b1 ab a5 3d 0d c2 c0 bd 3a 67 2d 3e
       -0.11981375 0.08089388 -0.09412012 0.16933909
000060 d6 e2 31 be 14 bb f1 bd e2 f2 3b 3e 04 d3 c6 3c
       -0.17371687 -0.118032604 0.18354371 0.024270542
000070 7c 2f 15 be 08 5d d9 3d 4f bd 26 3d 5b 66 44 3d
       -0.14568895 0.106134474 0.040707882 0.047949176
000080 5a 83 ee 3c de d1 e0 3d 76 78 ee bc 42 9d 7f 3d
       0.029115368 0.10977529 -0.029110175 0.062405832
000090 83 6e 30 be 56 21 b0 bd 3b 11 4c be 4b 54 53 be
       -0.17229657 -0.08600108 -0.19928448 -0.20637624
0000a0 4f 71 1c 3e 18 ae 46 3d 46 d3 28 be 08 10 1e 3d
       0.15277599 0.048505872 -0.16486844 0.038589507
0000b0 6a a9 4b be af cf 8d 3d ca 35 50 3e 72 af 35 3e
       -0.19888845 0.06924378 0.20333019 0.17742708
0000c0 11 b8 30 bd 6b f1 0a be 58 d6 9d 3c 1e a0 73 be
       -0.04314429 -0.13568656 0.019267246 -0.23791549
0000d0 d3 26 e4 bd 78 93 4c 3d 59 2b 96 bd dc 0f a9 3b
       -0.11140218 0.049945325 -0.07332487 0.0051593613
0000e0 af b4 20 be 52 19 4f be ba 86 63 be 00 cf 45 3d
       -0.15693925 -0.20224503 -0.22219363 0.048293114
0000f0 df 4b 9e bd 06 0b ac bd 59 14 3e be 6f c6 30 be
       -0.07729315 -0.0840054 -0.1856245 -0.17263196
000100 01 b4 1b be a3 9a 13 be 5f b5 5a 3e 51 fe d1 3d
       -0.15205385 -0.14414458 0.2135825 0.10253585
000110 94 7b 2d be e0 4b 9f bd 59 80 2e be 65 67 0a bc
       -0.16941673 -0.07778144 -0.17041148 -0.008447503
000120 24 ce 21 3e 96 2b 93 bd 83 36 2f 3e 71 25 aa 3d
       0.15801293 -0.07186048 0.17110638 0.08307923
000130 ed cb c4 3d 32 4a b3 bd 47 03 da 3c 2e cb 07 be
       0.09609208 -0.08754386 0.02661289 -0.132611
000140 c3 50 2c bb 56 24 1e 3c 00 ea e5 bc bd 71 00 be
       -0.0026293255 0.009652218 -0.028065681 -0.12543388
000150 5d 39 66 3d 72 9a de bd 4e c2 41 3e d7 18 c3 bd
       0.05620705 -0.10869302 0.18921778 -0.09526222
000160 86 6a 87 3b d6 19 ac 3a 61 af 00 3e 9f f7 3e bd
       0.0041325716 0.0013130258 0.12566902 -0.04662287
000170 78 38 d8 bd 14 4a 19 3e af 1c 57 3c 38 9d 17 bd
       -0.105576456 0.14969665 0.013129397 -0.03701517
000180 1c 7a b7 3c 2f de 43 be 70 a5 79 be d8 99 7a be
       0.022397093 -0.19127725 -0.24379516 -0.24472749
000190 45 73 be bd f9 c6 0d be 9d 93 9e bd 81 82 5d 3c
       -0.0929933 -0.13845433 -0.07742999 0.013519884
0001a0 de ad 49 3c 89 04 10 be 20 60 c2 3d 4d 58 a4 bd
       0.01230952 -0.1406423 0.09490991 -0.080246545
0001b0 2d b2 21 be 2f 07 24 be 1f ff c2 bd 1b c6 05 be
       -0.15790625 -0.16018365 -0.09521317 -0.13063852
0001c0 a0 cb 5b be 3f 87 66 be 91 cb 10 bd 76 2c 25 3e
       -0.21464396 -0.2251253 -0.035350386 0.16130242
0001d0 06 dd 3e be b9 df 1c 3e 7a d5 22 3e bd 44 24 3e
       -0.18639001 0.15319718 0.15901747 0.16041847
0001e0 11 b2 59 3c 6d b7 3f be 28 3e 24 3e d1 8a 00 3e
       0.013287083 -0.18722315 0.16039336 0.12552954
0001f0 89 d0 a6 3d aa 51 8f 3d a5 e2 06 be 94 82 ce bd
       0.08145244 0.06997998 -0.13172396 -0.100834996
000200 57 02 53 be a9 6e 11 be 84 6f 2e 3e d9 12 53 3d
       -0.20606361 -0.1420237 0.17034727 0.051531646
000210 fe 1a a1 3c 67 92 f6 bd 3b 20 32 3d 43 93 2b 3d
       0.019666191 -0.12039643 0.04348777 0.041888487
000220 de a0 2f 3e b8 ca ed bd dc 47 74 be dc a6 bf 3d
       0.1715121 -0.11610931 -0.23855537 0.09357998
000230 dc cb 20 be 20 d1 93 3c 50 5d c1 3d 6f ac 16 be
       -0.15702766 0.018044055 0.09441626 -0.14714216
000240 c1 e7 84 3d f4 b2 fc 3c e6 d8 4a 3d 46 52 37 3c
       0.06489516 0.03084705 0.049523257 0.011189049
000250 8d 6b 08 3e 9a 35 05 bd 9e 03 46 be 15 14 10 3e
       0.13322277 -0.03252182 -0.19337317 0.1407016
000260 b6 c1 0f 3e 5c 2c 41 be 1c c3 ac bc 40 6d 87 bd
       0.14038739 -0.18864578 -0.02108913 -0.06612635
000270 5b 20 59 bd 25 02 82 bc 4f 1b 83 be ed f3 8d 3c
       -0.053009372 -0.015870163 -0.25606772 0.017328227
000280 62 63 d6 bd 48 a8 35 3d 3f 09 0f 3d fd 3a 7c 3d
       -0.104681745 0.04434994 0.034920927 0.061579693
000290 c9 60 38 be 57 c1 9b 3b 7f 14 6a 3c d4 02 2c 3e
       -0.1800567 0.0047532725 0.014287113 0.16797954
0002a0 fc ba 27 be 40 90 f6 3c d6 28 ac bd 38 9d 23 be
       -0.16379923 0.03009808 -0.08406226 -0.15977943
0002b0 f4 08 13 3e ba 3c 2f be d2 cd 43 be ff 04 6a bd
       0.14358884 -0.17113009 -0.19121483 -0.05713367
0002c0 88 0b 11 be f7 73 3c 3d ec b5 2b be c0 00 fa bd
       -0.14164555 0.04600903 -0.16768616 -0.12207174
0002d0 3c 5d 50 bb 0c 99 3a be cb 0b b9 bd 48 12 1c bd
       -0.0031793853 -0.18222445 -0.090354525 -0.03810337
0002e0 0f a3 21 be 8a 5c 0f 3d 20 c0 21 be a9 74 c9 bd
       -0.15784858 0.03500036 -0.15795946 -0.09836704
0002f0 e3 a7 8e 3d 7c ff 5d be 82 33 65 be e9 c2 a9 bd
       0.069656156 -0.21679491 -0.2238293 -0.08289129
000300 06 dd 1b be 04 0e d5 bd fb bd 95 3d a2 39 84 be
       -0.15221033 -0.10403064 0.073116265 -0.2582522
000310 e9 b6 bb 3c f5 4e 5d bc 90 67 ab 3d fb 33 97 3d
       0.022914367 -0.013507594 0.08369362 0.07382961
000320 0b 77 0b bd 42 79 30 3e f2 ac 0e 3d b4 a1 8e 3d
       -0.034049075 0.17233756 0.034832902 0.06964436
000330 b9 f5 77 3d 64 b6 50 be 31 d7 3d 3e 11 07 4d bd
       0.060537074 -0.20382077 0.1853912 -0.050055567
000340 d7 02 2e 3e aa 3c 10 be c3 34 2e 3c 69 dc 69 be
       0.16993271 -0.14085642 0.010632697 -0.22837986
000350 db 8b 8e bd 27 5f 02 be e7 57 8f bd 38 91 2a bd
       -0.06960269 -0.1273161 -0.06999188 -0.041642398
000360 9a 30 79 bc 83 d2 c4 3b 63 bc ea bd ea 0f c9 bd
       -0.015209341 0.0060065403 -0.11461713 -0.098174885
000370 a0 95 34 3e a0 55 8d 3d db a7 4c be 64 02 0a bd
       0.17635202 0.06901097 -0.19985907 -0.033693686
000380 1b 1b 16 3c 42 c9 02 be 45 53 5e 3e dd e0 c9 3b
       0.009161736 -0.12772086 0.21711452 0.006160839
000390 77 f0 b8 be c0 02 11 3e d2 46 e5 3a aa 68 8b 3b
       -0.3612096 0.14161205 0.001749242 0.0042544203
0003a0 1b d8 15 be a3 b6 02 3e d9 fc f1 bd 70 a4 d9 3d
       -0.14633219 0.12764983 -0.11815805 0.10627067
0003b0 52 97 6b be 8e 21 15 3e 2b eb 77 be 84 3b 84 3c
       -0.23006943 0.14563581 -0.24210803 0.01614166
0003c0 34 94 3b 3d 32 3f 20 3d f7 77 9f bd c9 24 e1 3c
       0.045795634 0.039122768 -0.07786553 0.02748336
0003d0 c4 49 0b 3e 97 da 8d bd 1a 2d 98 bd 40 98 48 be
       0.13602358 -0.06926458 -0.074304774 -0.19589329
0003e0 c8 35 d9 3d 85 14 97 3d 70 e1 f6 bc dc 1a 08 be
       0.10605961 0.07376961 -0.030136794 -0.13291496
0003f0 7f eb 25 3e 07 4e a6 3b 03 4c 07 3e 98 3c 71 be
       0.16203116 0.0050752196 0.1321259 -0.23558271

X_11.0.bias f4 [128]
000000 1a 7d d3 3d c0 ee dd bb 20 98 10 3e 0d 9f ca bd
       0.103265956 -0.006772846 0.14120531 -0.09893618
000010 09 10 b4 3d b2 be c6 3c 7b 10 57 be 44 6f 83 3d
       0.08792121 0.024260852 -0.2100238 0.064177066
000020 57 95 3b bd 33 31 04 be d6 43 bc bd 5f b0 9d bd
       -0.04579672 -0.12909393 -0.09192626 -0.07699656
000030 d4 f7 bf 3d 89 a6 4d be b2 7c a7 3d 7e e7 12 bd
       0.09373441 -0.2008306 0.081780806 -0.0358653
000040 68 72 83 be 80 8e 51 3d 32 4e f0 bd a8 4c ef ba
       -0.25673223 0.05116129 -0.117336646 -0.0018257098
000050 ed cb b3 bd 4c c1 62 39 8a 0b 53 be bc 8b 00 3e
       -0.0877913 0.00021625048 -0.2060987 0.12553304
000060 58 e5 77 be a4 99 d1 bd e6 9f 05 3d 76 12 7d be
       -0.24208581 -0.10234383 0.032623194 -0.24714074
000070 62 05 ba 3d ce ae b3 3d 1a a9 51 be 7b 03 bc 3d
       0.09083058 0.08773576 -0.20474663 0.09180351
000080 e5 77 ff 3d a5 ec 63 bd b2 58 bc bd 8a a1 83 3d
       0.1247404 -0.055645604 -0.09196605 0.064272955
000090 f4 8f 5d be ab dc 7e bd a8 f8 d4 3c d0 c3 43 be
       -0.21636945 -0.062222164 0.025997475 -0.19117665
0000a0 41 fe 72 be 1c 15 74 3c ec 0d 7b bd 3f bd d4 bd
       -0.23729803 0.014897611 -0.061292574 -0.10387658
0000b0 7d a4 9d 3d 6a 67 74 be 47 f5 43 be 45 ee 35 3c
       0.07697389 -0.23867574 -0.19136535 0.011104171
0000c0 b3 c8 37 bd 96 0b 00 be 4f 43 10 3e 25 a0 24 be
       -0.044869136 -0.1250442 0.14088176 -0.16076715
0000d0 44 c2 5e 3d 34 73 39 bc 78 47 18 be fc 83 d2 bc
       0.054384485 -0.0113189705 -0.14871013 -0.0256977
0000e0 0c c5 0a be 76 ba f3 bc a8 26 14 be 33 c0 d2 3c
       -0.1355173 -0.029751997 -0.14467871 0.025726413
0000f0 08 2d fc bc b9 54 21 bd 10 9c 2d 3e e6 10 56 be
       -0.030783191 -0.03938744 0.16954064 -0.20904884
000100 79 28 80 bd 93 ff 9b bc 0d 48 a9 bd ef ca 1d 3e
       -0.062577195 -0.019042766 -0.08265696 0.15409444
000110 f9 6d 24 bd 0c e9 33 3e 92 d1 79 bd dd 44 24 be
       -0.04014394 0.17569369 -0.060990877 -0.16041894
000120 98 ee c5 3d 30 de 13 3e e0 73 65 be db 76 86 bd
       0.09664649 0.14440227 -0.22407484 -0.06565639
000130 01 df 04 3d 46 2a 68 be bd 5e 2f be ed 99 67 bd
       0.032439236 -0.22672376 -0.17125984 -0.05654328
000140 a6 69 f9 3c ab cf 84 bd 7d 49 a0 3d b0 ab 2d 3a
       0.030445885 -0.06484922 0.07826517 0.00066250097
000150 02 03 a0 bc 45 52 39 be 92 fa 04 bc 3e 57 88 bd
       -0.019532684 -0.1809779 -0.008116381 -0.06657265
000160 7b fb 7c bd 2d 2c 94 bd 66 5a 16 3b 14 c7 af 3d
       -0.061763268 -0.07234988 0.0022942065 0.08582893
000170 de 7b 14 3d 12 3a 11 bd 18 1e 16 be 58 15 f5 bd
       0.03625094 -0.03545577 -0.14659917 -0.119669616
000180 fc 9e 68 bc a0 e7 76 be 83 14 cd 3c 1b a8 6c be
       -0.014198061 -0.24111795 0.025034195 -0.23111002
000190 81 20 5e be a3 e0 7c 3d 2f dc b7 bd 6c 1e 3b be
       -0.21692087 0.061737668 -0.089775436 -0.18273324
0001a0 86 cd 42 3e d2 68 fa bd 80 71 e9 bc 68 2d 2d be
       0.19023713 -0.12227024 -0.028496504 -0.16911852
0001b0 f4 f0 3e be a1 87 63 be e6 39 6e be 87 fe 97 3d
       -0.18646604 -0.22219707 -0.23264274 0.07421594
0001c0 11 d6 ab bd df ea a4 3a 4f 28 06 be 6e ba a3 bd
       -0.08390439 0.0012582204 -0.13101314 -0.07994543
0001d0 01 19 ed bd 5b 54 b9 3d 8f e7 51 3e f3 f0 02 3d
       -0.11577035 0.09049293 0.20498489 0.03196807
0001e0 89 23 7d bc d0 b1 26 3e d2 3e 4a 3e cf 5c 41 be
       -0.015450367 0.16278768 0.19750527 -0.1888306
0001f0 33 58 19 bd 6a fb fc 3b 86 30 d8 bd 1e a4 e4 bd
       -0.03743763 0.0077204006 -0.1055613 -0.11164115

X_12.0.weight f4 [128, 20]
000000 48 85 3b 3c c8 9e 05 be 81 ee dc 3d 38 9a 42 3e
       0.011445351 -0.13048851 0.107876785 0.19004142
000010 72 93 2c 3e c7 10 20 3e 00 c2 2d be 6f 5d c5 bd
       0.16853121 0.156314 -0.16968536 -0.09636962
000020 62 12 b6 be 99 4e 27 be 78 02 1f 39 52 0a 99 3d
       -0.355609 -0.16338576 0.00015164341 0.074726716
000030 ce 81 ef 3b 6b 6a b2 bd 60 eb 10 3e 7c ed 22 bd
       0.007309175 -0.08711704 0.14152288 -0.039777264
000040 4a 25 92 3e 26 dd 97 3d 41 67 9b 3e fb 92 86 3a
       0.28544074 0.074152276 0.30352214 0.0010267192
000050 b9 22 3c 3e ab 03 2c 3c da bb 72 3e 2a 80 d5 3d
       0.1837262 0.010498921 0.23704472 0.10424836
000060 9f 14 98 bd 5f 60 cb 3d ad 02 a2 bd 57 27 40 3e
       -0.07425808 0.09930491 -0.079106666 0.18765007
000070 ec 13 15 3e 11 89 cc bd 39 25 0d 3e 39 e9 08 be
       0.14558381 -0.09987081 0.1378373 -0.13370217
000080 a7 89 15 bc d1 b6 2b 3c e2 a2 21 be 35 de c4 bd
       -0.009127057 0.010480599 -0.15784791 -0.09612695
000090 a6 ef 53 be 52 98 19 3d 1a 4c c2 bd 77 03 84 be
       -0.20696887 0.03749878 -0.094871715 -0.25783893
0000a0 d6 c5 18 3d 5d 42 c0 3d 95 10 39 be 34 ab dc 3b
       0.037298046 0.09387658 -0.18072732 0.006734276
0000b0 ea 80 93 bd 79 a7 b5 bd b9 e4 17 3e 81 e5 9e bd
       -0.07202323 -0.088698335 0.14833345 -0.07758618
0000c0 ed 6f 67 bd 5d b7 0e 3d 83 2a 11 3d 79 56 1f be
       -0.056503225 0.034842838 0.035440933 -0.1556033
0000d0 cf de 17 be e1 46 38 3c 64 11 cc 3c 36 aa 75 be
       -0.14831088 0.011247368 0.024910636 -0.23990712
0000e0 2b 20 83 bd e9 8d da 3d 1e c9 c4 3c 42 be 35 3e
       -0.0640262 0.106715985 0.024021681 0.17748359
0000f0 76 1a ff bd 15 92 9e bd 66 25 2f be da 76 52 3e
       -0.12456219 -0.07742707 -0.1710411 0.20553151
000100 6b 04 c7 bd 77 1d d3 3b 0e 1d d9 bd ac 11 13 3e
       -0.097176395 0.0064427215 -0.10601245 0.1436221
000110 2f bf 04 3d 98 cf fe 3d 61 cf 64 3d 83 d5 9c bd
       0.03240889 0.12441939 0.055861834 -0.07657912
000120 a0 d8 c4 3d b4 2f ad bd bb ad 41 3c 14 15 71 bc
       0.096116304 -0.08456364 0.011821206 -0.014714498
000130 2f 7d 68 bd 98 6c 2c 3e d2 9d 3a be a1 39 c6 bd
       -0.05676001 0.168383 -0.18224266 -0.096789606
000140 f4 1c 18 3d ce 0b 53 3e 3c dd 9c 3d d1 77 40 3e
       0.037136987 0.20609972 0.076593846 0.18795706
000150 91 62 85 bd d3 42 0f be 00 35 12 be f4 aa da bd
       -0.06512941 -0.13990335 -0.1427803 -0.10677138
000160 26 8d c3 3d 9b cf 69 bd b1 39 43 be e1 73 21 3e
       0.09548406 -0.057082754 -0.19064976 0.1576686
000170 e7 f6 12 be 52 38 7f be 93 dd 60 bc 38 cb 2e 3d
       -0.14351998 -0.24923828 -0.013724702 0.042674273
000180 98 7f c2 bd 0c 02 e8 3d 02 73 f7 bd aa 2e a6 3d
       -0.09496993 0.113285154 -0.12082483 0.08114369
000190 d1 a4 99 bd 55 57 b1 be ca af ba 3d e0 28 b1 3d
       -0.07502139 -0.34636942 0.0911556 0.086503744
0001a0 15 86 22 be 01 21 43 be df ca 72 bc 5d de af bd
       -0.1587146 -0.19055559 -0.014818876 -0.08587334
0001b0 ab 70 3a bd 0b ac b7 bd f6 db 13 3e ef d5 86 bd
       -0.045517605 -0.089683615 0.14439377 -0.06583773
0001c0 9c d5 f5 3c 3a 4a ea bd 8e 55 ef ba 61 81 4d bd
       0.030009083 -0.11439939 -0.001825975 -0.050172213
0001d0 26 a1 89 bd cd c1 6a 3d 54 60 31 3e 91 f6 4d be
       -0.0672019 0.05731373 0.17321903 -0.20113589
0001e0 e6 1e d6 bd 4f e3 0c be a6 d4 d0 bd 96 36 b9 3d
       -0.10455112 -0.13758586 -0.101968095 0.090436146
0001f0 67 6e 5a 3d 88 15 bf bc fc 87 43 3e 14 88 0b be
       0.053327944 -0.023325697 0.19094843 -0.13626128
000200 07 0c a0 bc 6e 7b 42 be a0 d6 89 3d 76 b5 8d bc
       -0.019536985 -0.18992397 0.067303896 -0.017298441
000210 d1 2f 0e be 2e c9 1a be bd c4 6d be 2c bf 29 3e
       -0.13885428 -0.15115806 -0.23219581 0.16576833
000220 47 40 17 3e 5a 4e ad bd f2 54 ad bd d6 b1 69 be
       0.14770614 -0.0846221 -0.08463468 -0.22821745
000230 af 32 1c bc 88 3e 8f 3d 08 af 15 3e bd b2 2a 3e
       -0.009533568 0.06994349 0.1461755 0.16669746
000240 e1 7f 00 3d a7 67 59 be f4 81 63 3d 35 67 3b 3e
       0.031371955 -0.21230946 0.055543855 0.18301089
000250 2c c7 ea bc 4e b1 91 3d 44 84 e5 3c ab f5 e3 bd
       -0.028659426 0.07113896 0.02801717 -0.11130842
000260 84 b8 1d be 55 0e 50 3d 51 b9 ff bd 72 6e c3 3d
       -0.15402418 0.050794918 -0.12486518 0.0954255
000270 ec 81 5b be 73 14 6f be bc 0d 2c 3e 28 b5 1e be
       -0.2143628 -0.23347645 0.16802114 -0.15498793
000280 2b 70 bd bc 6f aa aa 3a fe 5a 05 be 42 35 44 be
       -0.023124775 0.0013020764 -0.13022992 -0.19160941
000290 ab 13 07 3d 68 88 23 bd 8e cf 29 be bc 9d b6 3a
       0.03297774 -0.03992501 -0.16583082 0.0013932507
0002a0 01 79 a1 3d 8f cf 41 3e fe 72 85 be 8d 35 be bd
       0.07884408 0.18926834 -0.26064295 -0.09287558
0002b0 ea aa 09 3e 71 32 26 be ee db 3c be 3d 56 ba 3d
       0.13444105 -0.1623018 -0.18443272 0.0909848
0002c0 39 e6 10 3e 0a a7 c4 3c fc bd 69 be 1c 0c 2e bd
       0.14150323 0.024005432 -0.2282638 -0.042492017
0002d0 65 d5 8d bd 4f dd 00 3e bb 33 3b bd 37 8a 48 be
       -0.069254674 0.12584423 -0.04570363 -0.19583975
0002e0 8c 34 0f 3e e4 9b dc 3d ce 3b e6 3c 42 80 01 be
       0.13984889 0.10771921 0.028104689 -0.12646583
0002f0 8a b8 d4 bd 97 cd 15 be 9d 82 8c bd 0d e8 12 be
       -0.103867605 -0.14629208 -0.0686085 -0.14346333
000300 bd 2f 7f bd c8 63 f2 bd df 8a 1c 3e 02 ea 38 be
       -0.062301386 -0.11835438 0.1528735 -0.18058017
000310 52 2e de 3d c6 15 e8 bd 42 5e 09 3e ff 0b 03 be
       0.10848679 -0.11332278 0.13414863 -0.12797545
000320 7a 68 17 bd d1 95 3f bd 7c 14 fb bd de 82 89 3d
       -0.03696487 -0.046773735 -0.122597665 0.06714414
000330 db 60 8e 3e e0 60 3d 39 7c 54 5a 3e 77 ff d2 bd
       0.2780827 0.00018060533 0.2132129 -0.10302632
000340 c7 90 21 3e f1 4b 18 bd 31 3e 63 3e 5e 97 c2 bd
       0.15777884 -0.0371818 0.22191693 -0.09501527
000350 6f e8 ec 3d c6 a9 5b be b7 7d 3e be 9d 6a 71 3d
       0.11567771 -0.21451482 -0.18602644 0.058939565
000360 12 70 34 3e 2d 46 0d 3e 46 45 46 3d d0 e7 18 3e
       0.17620876 0.13796301 0.048405908 0.1493218
000370 19 2c 26 bd a4 c1 fe 3d 55 62 20 3e d7 df 51 bd
       -0.0405694 0.12439278 0.1566251 -0.05123886
000380 48 f2 25 3e 47 fc 03 be 5e 38 26 be f7 45 39 be
       0.16205704 -0.12889205 -0.1623244 -0.18093096
000390 ad bb 3d be b0 f4 9c 3d 69 67 25 be 7d c9 58 3d
       -0.18528624 0.07663858 -0.16152729 0.05292653
0003a0 e7 33 5e be d5 49 4f be 02 82 29 bd 15 79 85 3d
       -0.21699487 -0.20243008 -0.04138375 0.06517235
0003b0 0b 72 40 3e e3 0c 10 3e 86 97 94 3c b1 0a 7f bd
       0.18793504 0.14067416 0.018138658 -0.062266055
0003c0 e1 94 e0 bd 5f ca 3d 3c aa 57 15 be 7f 7f 99 bd
       -0.109658964 0.011583894 -0.14584222 -0.07495021
0003d0 58 1a a6 bc 94 cd 52 3d 2e 81 d0 3d a3 4f 05 ba
       -0.020276234 0.051465586 0.10180889 -0.0005085414
0003e0 96 17 4d bd 27 50 24 3e 8d fe 1e 3e ed a9 cb bd
       -0.05007132 0.160462 0.15526791 -0.0994452
0003f0 e6 e9 19 be cb e8 67 3c b7 44 86 bc cb fe 72 3d
       -0.15030631 0.014154623 -0.016390188 0.05932502

X_12.0.bias f4 [128]
000000 ef de b7 bd d3 8e 2d be 72 e7 08 be 96 51 31 3e
       -0.08978068 -0.16949014 -0.1336954 0.17316279
000010 2f e7 c5 bd e4 b6 b6 3d 91 97 05 bd de f5 45 3d
       -0.096632354 0.08921602 -0.032615248 0.04833018
000020 aa 60 08 bd c4 ba ae bb 6b 67 38 bd 6a be 96 3d
       -0.03329531 -0.005332323 -0.045020502 0.07360537
000030 7c a9 33 be df ee 32 3e 4c 1f c0 3d 4e a7 fa 3c
       -0.17545122 0.17473935 0.093809694 0.030597355
000040 ce ab 0a be cb f2 95 3d ec 58 2e be 38 d0 87 be
       -0.13542101 0.073217 -0.17026109 -0.26526046
000050 13 13 9d bd cf 4d 79 be 1f 25 f5 bd 6b f1 25 3e
       -0.07669654 -0.24346088 -0.11969971 0.16205375
000060 e9 d6 cd 3d cf fe 03 be c1 ad c4 bd c3 e8 2e 3e
       0.100507565 -0.1289017 -0.096034534 0.17080979
000070 b6 81 f1 3c 70 ac 60 bb da cc 18 be 71 df 2b 3e
       0.029480796 -0.0034282468 -0.14921895 0.16784455
000080 b4 2d 00 3d d8 12 ae bd d4 b1 96 3d 27 6c d5 3d
       0.031293586 -0.08499688 0.07358137 0.10421019
000090 04 6f 24 be 01 08 17 3d ad 60 d3 3d 69 a0 2a 3e
       -0.16057974 0.036872867 0.10321174 0.16662754
0000a0 f6 4b fa 3d 1b c7 ba bd dc 27 17 bc 67 7e fa bd
       0.1222152 -0.091200076 -0.009225812 -0.122311406
0000b0 fd 3c dd bd b4 42 1b 3c 95 ec f0 3c 08 1a ab 3d
       -0.10802648 0.0094763525 0.029409686 0.083545744
0000c0 7d 12 49 3e 91 7b 57 be 7e 2e 43 be 5d ac 71 be
       0.19635959 -0.2104323 -0.19060704 -0.23600908
0000d0 ad 8d 06 3e ea b6 37 be a6 2b 80 bd 0c 37 19 be
       0.13139983 -0.1794087 -0.06258325 -0.14962405
0000e0 ce ac 0e 3e 11 e8 c6 bc 17 20 3b bd e1 85 26 3e
       0.13933107 -0.02428058 -0.0456849 0.16262008
0000f0 9e a7 0b 3e af 0c 08 3d da bf 08 bd 25 99 45 3d
       0.1363816 0.03321522 -0.03338609 0.048241753
000100 b0 c1 d3 3d b6 da 23 3c 3d 7b 17 bd d2 0c f6 bb
       0.10339677 0.010000875 -0.036982764 -0.0075088525
000110 71 9e ec bd 9a 3b 63 be 00 b5 3c be 77 07 2a 3e
       -0.11553658 -0.22190705 -0.18428421 0.1660441
000120 e1 03 28 3e 66 45 9b 3d f1 48 03 bd ef 73 0d be
       0.1640773 0.07581596 -0.032051984 -0.13813756
000130 90 97 e5 bd 4c 82 56 be b4 2a 44 be 5d 9e 09 3e
       -0.11210549 -0.20948142 -0.19156915 0.13439317
000140 bd 84 bb 3d 54 79 a1 3d d0 14 df bd af 85 6f be
       0.09156177 0.0788447 -0.108926415 -0.2339084
000150 e9 50 7f be f7 af 52 be 43 f5 d0 bb 2c 98 c1 3d
       -0.24933209 -0.20574938 -0.0063768937 0.094528526
000160 3e 64 a6 bd 1d 4b 1a 3e 83 db 1e bd 62 60 7e 3d
       -0.081245884 0.15067716 -0.03878356 0.062103637
000170 3d c6 53 be 02 6f 4c bd 27 51 13 3e ed 7c 2f 3e
       -0.2068109 -0.049910553 0.14386426 0.17137499
000180 b8 23 49 be a2 38 00 3d 76 96 d3 bd a6 c4 86 be
       -0.19642532 0.03130401 -0.103314325 -0.26321906
000190 76 aa 8d bd fd 1d 0e be 57 7a dd bd c4 34 f4 bb
       -0.069172785 -0.13878627 -0.1081435 -0.007452579
0001a0 d3 7e b0 bd 67 8c fc bc 1a c4 77 be f1 c2 32 3e
       -0.0861794 -0.030828668 -0.241959 0.17457177
0001b0 0d 9b 22 3e 07 b3 67 be 49 5f 40 3d 14 f9 af bd
       0.1587946 -0.22626887 0.04696587 -0.0859243
0001c0 1a f6 e5 3d d0 59 18 3e 2f c1 73 3d b3 13 b2 bd
       0.11228581 0.14878011 0.059510406 -0.086951636
0001d0 1c 3a 79 be 82 e4 5a bc c2 54 59 be 10 44 39 bc
       -0.24338573 -0.013360145 -0.21223739 -0.011307731
0001e0 2d 75 6d be d1 68 1c bd eb 26 24 3e 74 7c d9 3d
       -0.2318923 -0.0381859 0.16030471 0.10619441
0001f0 68 0f 0c 3e 27 85 f0 3d 6d a6 0b bd 58 67 5f bd
       0.13677752 0.11744147 -0.034094263 -0.054541916

X_5.0.weight f4 [128, 20]
000000 9d 94 66 be b4 be 09 3d 81 6e a2 3c ab 60 a0 3d
       -0.22517629 0.033629134 0.019828083 0.07830938
000010 8e 30 47 3d 9f 1b 00 bd ed 6a d9 bd bc 8e 7b be
       0.04863029 -0.03127634 -0.106160976 -0.24566168
000020 dd 92 89 3c a4 be d1 3d 69 b8 29 3e 78 23 42 bd
       0.016793663 0.1024144 0.16574253 -0.047397107
000030 52 13 27 be f2 d8 0f 3d 3a 3f 50 3d 49 3b cb bd
       -0.16315964 0.035119005 0.050841548 -0.09923417
000040 6a c4 fa bd 35 71 43 be c3 04 24 3e 01 ee 4e 3e
       -0.12244494 -0.19086154 0.16017441 0.20207979
000050 45 fd 10 bc 30 25 9e 3d 84 d2 ac bd 86 f7 e6 3d
       -0.008849447 0.07721937 -0.0843859 0.1127768
000060 8b 88 19 bd 0a ed ab be 95 08 39 3d 58 8c 97 bd
       -0.037483733 -0.33579284 0.0451742 -0.07399815
000070 2a e6 53 3d 69 b4 ec bd e4 30 83 be 9f 40 5d be
       0.051733173 -0.11557848 -0.25623238 -0.21606682
000080 a6 d7 10 3e cc d9 e6 3d 1b 21 dd bd 74 08 09 3d
       0.14144763 0.1127201 -0.1079733 0.033455327
000090 30 da bc 3d a0 d3 a0 bb 61 75 33 3e 1a db c9 3d
       0.092213035 -0.00490804 0.17525245 0.098562434
0000a0 26 44 95 3d a1 c1 fb bb 29 ec 13 3e 85 59 61 3e
       0.07288389 -0.0076829945 0.14445557 0.22006805
0000b0 4b b1 21 3e 67 40 73 be 94 be a8 bd 82 77 62 be
       0.15790288 -0.23755036 -0.08239475 -0.22115901
0000c0 4e 05 20 3e 1e 11 ac bd 80 c4 27 3e 06 72 de bd
       0.15627024 -0.08401702 0.16383553 -0.10861592
0000d0 ff 4b 3f bc 0e 06 a9 bd 9e 08 1d 3e a9 4e 6d 3d
       -0.011675834 -0.08253108 0.15335318 0.057936344
0000e0 4b 9e 08 3e 46 40 3c 3d 9d b3 88 3d 23 ef 53 be
       0.13341634 0.045959733 0.066748835 -0.20696692
0000f0 09 fc 27 bd 04 8e 0e 3e fe 92 80 be 96 35 50 3d
       -0.041011844 0.13921362 -0.25112146 0.050832354
000100 30 d9 6b 3c 4f 05 02 be aa 77 22 bd 6b ea f3 3d
       0.014395043 -0.12697338 -0.0396649 0.11909946
000110 74 e5 61 be dc e9 5d bc 7c a1 e8 bd 38 ae cd 3d
       -0.22060186 -0.013544526 -0.11358926 0.10042995
000120 c6 c9 e0 3d bb b1 91 bd d4 2a d8 3b c9 23 06 3e
       0.10975985 -0.071139775 0.0065969024 0.13099588
000130 68 9d 4b 3d aa c3 e8 bd 40 6d 3c bd 9c c8 bc bd
       0.04971066 -0.11365445 -0.046002626 -0.09217951
000140 99 31 99 3d e5 e9 4b 3e 8d 90 21 3d b4 01 96 3e
       0.07480163 0.19913442 0.039444495 0.29298174
000150 98 49 59 3e 30 b4 62 3e 54 90 74 bd 6c 02 f1 3d
       0.2121948 0.22139049 -0.059707955 0.1176804
000160 f7 bc 87 3e aa 5b 75 3d b4 e7 32 bd 4b 88 90 be
       0.26511356 0.05990187 -0.043678 -0.28228983
000170 0b 85 7e be 58 ec 76 bc b9 2d 8e 3d bd 25 4b be
       -0.2485544 -0.015070997 0.06942315 -0.19838615
000180 7e d9 3b bd 54 0b 69 be d1 47 73 3d b5 7e f1 3d
       -0.045861714 -0.22758228 0.05939466 0.117917456
000190 2d c1 23 be 30 00 34 3c 14 94 83 3d a4 20 42 3e
       -0.1599166 0.010986373 0.06424728 0.18957764
0001a0 51 4f 73 be 44 e0 51 be 21 11 13 be e8 ab aa 3d
       -0.23760726 -0.20495707 -0.14362003 0.0833357
0001b0 82 b5 16 be 21 8f 1a be df 03 1b 3e 82 05 50 3d
       -0.14717677 -0.15093662 0.15138195 0.050786503
0001c0 ad c6 14 be 16 35 0b be 9f 4f 80 be e6 a8 96 bd
       -0.14528914 -0.1359447 -0.25060746 -0.073564336
0001d0 c7 52 12 be 53 04 98 3d a7 c8 07 be ea e9 ba bd
       -0.1428939 0.074227 -0.13260137 -0.09126647
0001e0 60 22 5d bd 4c d7 0e be 8b 93 fe be 15 41 11 bd
       -0.05398786 -0.13949317 -0.4972194 -0.035462458
0001f0 30 e8 ca bd 63 63 83 3d 66 7d 8f be f0 84 04 be
       -0.099075675 0.06415441 -0.2802536 -0.12941337
000200 11 de 2d 3e cd 62 0d be f4 0b 23 be 52 9c e4 bd
       0.16979243 -0.13807221 -0.15922529 -0.11162628
000210 3e a4 74 bd d9 67 9a bd 67 77 47 3d 1b f4 97 bc
       -0.059726946 -0.075393386 0.048697855 -0.018549016
000220 16 31 1e 3e 25 b8 1f 3d 89 ce 25 be 39 7a 28 be
       0.15448412 0.038993973 -0.16192068 -0.16452874
000230 75 12 d9 bd ba d5 03 3d 6b 67 d8 bc 67 5d 1a be
       -0.105992235 0.032186247 -0.026416501 -0.15074693
000240 77 28 9e 3d 0d a3 5d be 44 d1 c6 3d 90 31 74 3e
       0.07722562 -0.2164423 0.09707883 0.23847032
000250 5a 3e 03 be c7 0a 14 3d e0 c6 b4 bd 4a ee 0d 3e
       -0.12816754 0.03614309 -0.08826995 0.13860431
000260 29 a6 7f be c7 7a 7b bc 51 11 80 bc d0 25 52 3c
       -0.24965729 -0.015349097 -0.015633257 0.012826398
000270 83 8a d5 bc 18 fd c4 3d 1a 11 94 bd c5 10 23 3e
       -0.026067024 0.09618586 -0.07229824 0.15924366
000280 e7 fd fb bd 0e c3 d2 bc c3 12 43 3d 01 7a ad 3d
       -0.123042874 -0.025727775 0.047625314 0.08470536
000290 e0 07 fb bd f9 65 f2 bd 70 87 49 3e 30 b8 07 3e
       -0.122573614 -0.11835856 0.19680572 0.13253856
0002a0 d6 bb 27 bd fe c3 62 3d 90 87 3a be 93 b3 70 be
       -0.04095062 0.055362694 -0.18215775 -0.23506002
0002b0 48 59 c9 3d dc b5 f2 3d 9b 06 37 be b6 39 58 bd
       0.09831482 0.11851093 -0.17873614 -0.052789412
0002c0 3b 22 a9 3c 5b 69 d6 3c 8b cb fb bd a0 84 88 3d
       0.020646205 0.026173284 -0.12294682 0.06665921
0002d0 97 4d 23 3e 7e 2d a2 be 6a 1c 46 3e b2 ad 3f 3e
       0.15947567 -0.31675333 0.19346777 0.18718603
0002e0 1b 44 ac bd 46 9c 55 bd 1e ee 8e be 69 c8 09 3e
       -0.084114276 -0.052150987 -0.27916044 0.13455357
0002f0 4e ef b8 3d ea 2b 9a 3e 10 aa a6 3d 4e 9b 14 3d
       0.09030019 0.3011163 0.081379056 0.036280923
000300 f7 93 30 be bf 24 11 be 67 27 04 3e 3d aa 2c be
       -0.17243944 -0.14174174 0.12905656 -0.16861816
000310 3c a9 41 bd e0 3a 47 bd 3d 75 da bd 83 a7 36 3e
       -0.047280535 -0.048640132 -0.10666893 0.17837338
000320 bf d9 0f bc 74 7f c3 bd 1b 4a aa bc df a5 17 be
       -0.008779942 -0.09545794 -0.02078729 -0.14809369
000330 0d 25 2f 3e ae ea a1 3c 57 99 33 be 31 40 15 3e
       0.17103978 0.019765224 -0.17538963 0.14575268
000340 f7 61 77 be dc de ee 3d 2e 2b 12 be 16 fb 5c bd
       -0.24158464 0.11663601 -0.14274284 -0.05395039
000350 07 2f 11 3e 4b 71 a7 3d 92 10 95 3d f2 4f 68 be
       0.14178096 0.08175906 0.07278551 -0.22686747
000360 04 bb 14 3e 81 64 88 bc e6 fe 3f 3e 4d a7 09 be
       0.14524466 -0.016649486 0.1874958 -0.13442726
000370 41 f1 ba bd fa 59 e8 3d 1c ff 39 3e 12 2c 4b 3e
       -0.09128047 0.11345287 0.18163723 0.1984103
000380 a4 47 a7 bd a1 1b 0a be 74 0c 14 be 86 8d 10 be
       -0.08167961 -0.13487102 -0.14457875 -0.14116487
000390 f2 76 94 bd 47 86 c6 3d fb 44 3a be 90 3e ac bd
       -0.072492495 0.0969358 -0.18190376 -0.0841037
0003a0 b0 f3 fd 3d ad 5c 68 be f0 f8 47 be f5 92 a6 bd
       0.12399995 -0.22691603 -0.19528556 -0.081334986
0003b0 05 d2 5e be 56 b0 0f be 3e 24 25 3e be 5d 01 3e
       -0.21759804 -0.1403211 0.16127107 0.12633416
0003c0 64 78 b8 bc 15 18 6d 3e 12 73 85 be d5 60 a6 bd
       -0.022518344 0.23153718 -0.26064354 -0.08123938
0003d0 14 57 a1 3d b2 a6 1a be f5 60 8e 3e 8b 14 e6 bd
       0.07877937 -0.15102652 0.27808347 -0.11234387
0003e0 b8 58 1b be ac 2a 49 bd 74 0b ac 3c f6 be 11 bd
       -0.15170562 -0.04911296 0.021001555 -0.035582505
0003f0 ae a6 23 bd ce 14 a9 bd fd 0a 7a be 36 41 c9 bc
       -0.03995388 -0.08255921 -0.24418254 -0.024567228
