results/MLP_joint/s_MLP_joint_data_insilico_seed_56_2024-03-10_PH_45/model_epoch_107_loss_0.02.pth (torch, 897512 bytes, 19 tensors)

X_1.0.weight f4 [128, 20]
00000000: a62c 613e 6b0f e73c e008 b7bd 6845 f53d
00000010: 1299 97bd 2b01 4e3d 5448 f4bd dfd8 b23b
00000020: cba0 1d3d 162e c0bb 507b 17be 007e cb3d
00000030: d0da 3bbd 86ce ffbd 2204 87bd 1a8a 063d
00000040: b452 853c 86f9 8ebc 08a6 04be ad21 d2bd
00000050: 3ef9 6cbd 4c88 95bc e6ef c1bd cdb7 e1bd
00000060: a2b6 c83d 7b98 6fbd 963e 463d 3a07 8d3d
00000070: 9ed7 70bd 6d91 5e3d f896 7a3c 8d49 95bd
00000080: 4733 36bd 9d8e 85be a044 093e df92 023d
00000090: 8f98 e53d 2dac 14be 7188 33bd 803c 573d
000000a0: 7b62 493c 7dd8 f0bd 340f 85bc 226c eb3d
000000b0: 5718 8dbd d286 323e e834 63be 033e 1abe
000000c0: 0cce 753e 9d0b 4a3d bd64 63be cf4c 2cbe
000000d0: f4dc fd3d 10e7 943d 9d9c 883d 492e 45be
000000e0: 24a4 63bd a6f7 f9bb 0dc0 a53c f258 ec3d
000000f0: 3873 ac3d 0b38 86be 432e 003f 65b8 b9bd
00000100: 3f70 a13c bf26 383e 48b2 183d 8e51 a8bd
00000110: 37e3 4bbd 12c3 8cbe c7ac 9dbd ba1a 82bd
00000120: 2bb4 e43d cd8d 733d 6868 413e 940f a3bd
00000130: a678 a8bd ea6b a5bd 082b a53d 79b4 873d
00000140: 45e7 f53d f705 abbd d153 98be c0d3 15be
00000150: 60ad acbe adec 4c3d e410 d1be 0489 4b3d
00000160: a9f7 63bd a9e5 fcbe 7e06 b3bc ca02 03be
00000170: 2eda 813d 1c91 12be d29c 53be 0ce5 c73d
00000180: c451 123b 1027 993c 2850 17be a1a9 6dbe
00000190: bdfe bf3d 278b 2c3e e564 85be 0c44 93bd
000001a0: 806b 833d d620 e43b 2641 84bb fc52 a5bd
000001b0: b6ec 48be 06e3 babd d995 f8bd 8da7 70bd
000001c0: 3f70 36be 6b81 5ebe cc02 11bd e8c7 62be
000001d0: 5813 2ebd ec9e 983d ec70 453e 4609 3c3e
000001e0: 215f 5a3d 4375 e1bd 63f2 8a3e 0057 2ebe
000001f0: 81a3 ccbd 3944 d53d 8123 09be dee1 a3bc
00000200: 2e43 7fbd 94ed 073e b75f d63d 72b3 c9bc
00000210: 003c 603d 10c8 55be 02ab a33d a14a eebd
00000220: ba47 24be 2dd1 02be 58a6 e8bc 20a0 f9bd
00000230: 2210 1dbd ddfc 7d3e a356 a3bd 0723 92ba
00000240: 4356 713d 30ee 483e e216 b6be 9e04 a53d
00000250: 7332 043d 61de 38be 6107 62be 8aae 8b3c
00000260: a8e7 c63d 9d50 89bd 270a 1fbe 2467 223e
00000270: 5666 7bbe 3631 3cbe 0bc7 233e 0b2e 5abe
00000280: 7cf1 7fbe 81cc 353e 1ef8 d93d 474a a33e
00000290: ed0a 3dbe f4c3 fe3c cf5b ac3c 2d75 73be
000002a0: 0bd6 a6be 6c21 0dbe ab60 dd3d 800f acbb
000002b0: 3cb4 ca3d 5149 b2bd 85bf 47be cbfb 133e
000002c0: 508f 6bbe cec2 5d3c 18e6 afbd d0c0 6ebe
000002d0: 9caf 1a3d a927 903d 6f66 0c3e b8de 9b3d
000002e0: e012 483e 7487 0fbe 369a dcbc 8999 e4bd
000002f0: a210 a4bd cf59 353e b19a 2b3d 3440 90be
00000300: da6e 6abe e0dd c23c 1acd 27be 4897 8ebd
00000310: 4470 7d3c fd5f 8f3d f5b4 b6bd 69a5 21bd
00000320: 3fe3 593e 3c66 3abe 1809 d53d 2193 97bd
00000330: c911 1e3c 61cc 093d a0ab 8bbe d1b0 0c3e
00000340: 22c2 613e 0af2 c6be 607b 03bd 61f7 0ebe
00000350: e92f 35be 87a9 7fbd 30bf 71bd 72f3 8e3c
00000360: a162 17be 9632 e33b 5344 a53d 923d 1dbe
00000370: 084c dbbc 15bc 2ebd d81a b2bd 506b 15bd
00000380: f0a0 f43d 0035 303e ab7f cc3d 9ed9 29be
00000390: bcd9 8b3d 7e8f e5bc 0959 21be 31c2 703d
000003a0: e256 463e fcfc 2dbc fb6b 47bd e547 eebd
000003b0: 7088 3fbe 8d2d 55be 1957 14be a4b5 24be
000003c0: 3111 f53c 5822 b6bd e9b8 003c ff16 46be
000003d0: 9430 ec3d f4ec 683e 8650 cabd 1060 1ebe
000003e0: 41e1 283e 705e d53d 614e 31be ab3b d5bd
000003f0: 231d 67bd 9a8c 5ebe e433 353e e9d9 6a3d
0.21989688 0.028205594 -0.0893724 0.11976129 -0.07402243 0.050294083 -0.11927858 0.005457982
0.038483422 -0.005864869 -0.14793134 0.09936142 -0.045862973 -0.12490563 -0.06592585 0.032846548
0.016274787 -0.017452966 -0.12953961 -0.102603294 -0.057854883 -0.018253468 -0.09469585 -0.11021385
0.098004594 -0.058495026 0.04839953 0.06886144 -0.05879938 0.054337908 0.015294783 -0.07289419
-0.044482496 -0.26085368 0.13405085 0.03187835 0.11210739 -0.14518805 -0.043831293 0.05254793
0.012291546 -0.11760042 -0.016242601 0.11495234 -0.06889408 0.17434242 -0.22188151 -0.15062718
0.24004382 0.04932748 -0.22206397 -0.16826175 0.12395659 0.07270634 0.066704966 -0.19255938
-0.05557646 -0.007628399 0.020233179 0.115404025 0.08420414 -0.26214632 0.5007059 -0.090683736
0.019706843 0.1798353 0.037279397 -0.0821868 -0.049777236 -0.27492577 -0.0769897 -0.06352754
0.11167177 0.059461404 0.18887484 -0.07961956 -0.08226137 -0.080772236 0.08064848 0.06626219
0.12007002 -0.08350747 -0.29751447 -0.14631557 -0.33726025 0.0500304 -0.408332 0.049691215
-0.05565611 -0.49393967 -0.021853682 -0.12794033 0.063404426 -0.14313167 -0.20665291 0.09760484
0.0022326568 0.018695384 -0.14776671 -0.2320924 0.09374759 0.16849957 -0.2605354 -0.07190713
0.064169884 0.006961922 -0.0040360866 -0.08072469 -0.19621548 -0.091253325 -0.12137956 -0.05875354
-0.17816256 -0.21729057 -0.035403058 -0.2214657 -0.042498916 0.07452187 0.19281358 0.18362913
0.05331338 -0.11008694 0.2713805 -0.17025375 -0.099921234 0.10413403 -0.1339245 -0.020005163
-0.062319927 0.13274223 0.10467475 -0.024621699 0.05474472 -0.20877099 0.079916015 -0.11635328
-0.16042987 -0.12775107 -0.028399631 -0.121887445 -0.038345464 0.24803491 -0.07975509 -0.0011149355
0.058920156 0.19622111 -0.35564333 0.08057521 0.032274675 -0.18053581 -0.22073127 0.017051
0.09712154 -0.06704829 -0.15531217 0.15859658 -0.24550757 -0.18378147 0.15993898 -0.21306626
-0.24994463 0.17753793 0.10643028 0.31892607 -0.18461199 0.031099297 0.021039871 -0.23775168
-0.32585177 -0.1378228 0.108094536 -0.005250871 0.09897658 -0.0870539 -0.19506653 0.1445152
-0.23003888 0.013535215 -0.08588809 -0.2331574 0.03776513 0.070388146 0.1371095 0.076108396
0.1953845 -0.14016515 -0.026929002 -0.11162097 -0.08010985 0.1771004 0.041895572 -0.28173983
-0.22893849 0.023787439 -0.16386834 -0.06962448 0.015468661 0.0700073 -0.089212336 -0.039464388
0.21278094 -0.18203062 0.10402125 -0.074011095 0.009647795 0.033642177 -0.27279377 0.13739325
0.22046712 -0.38856536 -0.03210008 -0.13961555 -0.17694058 -0.062417533 -0.05902022 0.017450068
-0.14783718 0.0069335205 0.080696724 -0.15355518 -0.026769653 -0.042659838 -0.08696526 -0.036479294
0.11944759 0.17207718 0.09985288 -0.1658692 0.06828639 -0.028022524 -0.1575662 0.058778945
0.1936908 -0.010619398 -0.048686963 -0.116348065 -0.1870439 -0.20818157 -0.1448635 -0.16084915
0.029915424 -0.08893269 0.007856586 -0.1934471 0.11532703 0.2274664 -0.0987864 -0.15466332
0.16492178 0.10418403 -0.17315055 -0.104117714 -0.05642427 -0.21733323 0.17695576 0.05733672

X_1.0.bias f4 [128]
00000000: bdff 183e 0e5e 19be a505 8ebe 7af9 4b3e
00000010: b121 e63d 5838 09be d7e3 433b 1753 24be
00000020: 672f a4bd 5216 93bd 323d ca3d 1866 593e
00000030: fe26 de3c 23aa 073e 3e26 8bbd 63c9 ae3d
00000040: d5e1 aabe 3907 f73d b697 033e 0a97 083e
00000050: 0022 023e aa31 1d3e 52d1 4bbb a306 e93d
00000060: efd7 5cbe e138 d1bc 09e5 c8bd cc44 693d
00000070: 4cfc f9bd 90d0 2dbe afaa 683d 1760 4ebe
00000080: 2c6b 633d 3386 24be 0a1c 033e 69f6 05be
00000090: cbea 063e 881e 01be 7975 83be 3ffd 8bbe
000000a0: d0bd 563d 49f8 5ebe 7a88 723e 6747 12be
000000b0: 0b1f bfbd 5656 473e 434f 3ebd 6809 91be
000000c0: 0e1a c23d d9cf 103e 901c 28be d5c9 d43c
000000d0: 401c 0c3e fe64 f43b 3160 47be e77a 4b3e
000000e0: 3343 4dbe 6bbe 45be 8ce6 073e 716c 633e
000000f0: 6c8d 29be 8fd5 b0bd 5ce6 f33d 6409 acbd
00000100: 2e00 d63c 901c aab8 60e9 4c3d 3ea6 48be
00000110: 39a8 9d3d 6bb0 e53d 1c18 88be a389 98be
00000120: 6caf 1cbe 5c17 44be de7d e1bd fa31 1fbe
00000130: bb13 febd d174 a9bc 8ba7 42be 73e1 183e
00000140: 951a 89bd 0daf 09be f2fc 84be 1619 7bbe
00000150: 8091 a33b 2f37 81be 66f7 56be cea7 303c
00000160: 8d24 debc 9493 6b3d e0ec 753d 09f6 0a3b
00000170: 1a00 973b a696 4abe 2b08 dc3d a2bb e2bc
00000180: d744 adbe 3cbd 123e 8d6a 5ebe e836 b6bc
00000190: cea3 d13c 6259 42be b9c1 a93c a5c9 c3bd
000001a0: cf88 0d3b 3099 77bd 43eb d1bd 3199 9cbd
000001b0: 6f87 11be fd8b 063e 458c 213e c91b b0bd
000001c0: 6c5a 44be 2baf 83be 6596 5f3d d7d8 9bbd
000001d0: 1c70 02be 53cd 6a3d 5198 1e3e 4054 703d
000001e0: ac36 383e 7861 12be c71d 523e c717 3ebe
000001f0: 4446 363e 562d d33b aa74 d8bd cd0f 58be
0.14941306 -0.14977285 -0.2773868 0.19919387 0.11236895 -0.134004 0.0029890442 -0.16047321
-0.08016854 -0.07181992 0.09874953 0.21230352 0.027118202 0.13248496 -0.067944035 0.08534505
-0.3337542 0.120619245 0.12850842 0.13338867 0.12708282 0.15350977 -0.0031100106 0.11378219
-0.21566747 -0.025539817 -0.0980931 0.056950375 -0.12206325 -0.16974092 0.0568034 -0.20153843
0.05552213 -0.16066818 0.12803665 -0.1308228 0.13175504 -0.12609303 -0.25675562 -0.2734165
0.052427113 -0.21774401 0.23684874 -0.1428505 -0.09332093 0.19466528 -0.04646231 -0.2832749
0.09477626 0.14141788 -0.16417146 0.025975147 0.13682652 0.0074583283 -0.19470288 0.19871102
-0.20045166 -0.1931092 0.1327154 0.22209336 -0.16557854 -0.08634483 0.11909172 -0.084002286
0.026123133 -8.111552e-05 0.05002725 -0.19594666 0.076981016 0.1121529 -0.26580894 -0.29792508
-0.15301293 -0.19149536 -0.110103354 -0.15546408 -0.12406107 -0.020685585 -0.19009225 0.14929752
-0.06694523 -0.13445683 -0.25974232 -0.24521288 0.00499171 -0.25237414 -0.20992813 0.010782195
-0.027117038 0.05751379 0.060040355 0.0021203777 0.0046081664 -0.1978403 0.107437454 -0.02767736
-0.33841583 0.1433 -0.21720333 -0.022242978 0.025590803 -0.1897941 0.020722257 -0.09559945
0.0021596437 -0.060448825 -0.10249951 -0.076464064 -0.1421182 0.13139339 0.15776165 -0.085990496
-0.19175118 -0.2571958 0.054586787 -0.07609718 -0.12738079 0.05732472 0.15487792 0.058674097
0.17989606 -0.14294994 0.20519172 -0.18563758 0.17800242 0.0064446134 -0.10569127 -0.21099778

X_11.0.weight f4 [128, 20]
00000000: 881b 603b ff4c 993e b340 b43d dacb e73e
00000010: 0f52 f4bc d9d3 963d 8aa5 113d 7c3a 4a3d
00000020: f306 49be ebc7 82be 8c00 60bd d8fe d53d
00000030: 1ba7 24be a0df d23d f4ee 283e d834 633e
00000040: 64f6 5f3e 6715 f2bd 906d 1339 52aa 57be
00000050: c880 663e d687 35be 29fd 9a3d d424 413e
00000060: 2d42 af3e f072 19bc fd7e 51be e305 bc3d
00000070: b9d2 923e e001 6bbc 5968 ebbd 10f9 fa3d
00000080: f988 7abc be78 bb3b 8db9 cd3d f13c 2d3e
00000090: 5ace d2bd 32d4 443e e48e d33d e689 75be
000000a0: 85af e7bd 4120 b4bd 4c68 0d3e 16aa 7f3e
000000b0: 2dec 01be f1b0 2ebe 809f 8a3c 5a63 a93d
000000c0: cc16 283e 9f6c 4b3e 21d0 72bb 5667 08bc
000000d0: 78ec 49be 2746 bebd 7d44 b9bd 2c66 753c
000000e0: 6376 323e 49ea 833d c48f 79be 2014 7bbe
000000f0: 77d7 813e ef50 69be f146 283e 78cf d33a
00000100: e0a8 903e d568 e3bd 64f9 4b3d 900e 6ebd
00000110: 4cce 27bd 0736 3fbe a0f8 85be 441c 9e3d
00000120: 7574 7abd 8e92 29be cd89 33be 028d 043e
00000130: 2222 41bd a62d 93be 94fd 3abd 8b6a 303d
00000140: 8aa8 91bd f756 3dbe 1ef3 36be 0744 f6bd
00000150: bfe8 2e3d 4a97 813e 947c 21be 0821 4cbe
00000160: 17d5 623e ea8b eabb f57d 31be d0a4 c9bc
00000170: 16a1 863d 3166 03bd 9a2f 833c 94ac 6fbe
00000180: 6cff d8bc 1b42 a2bd bd16 f33d c548 91bc
00000190: 0405 35bd 38a6 25bd 1083 12be 6a40 aabd
000001a0: 526a 16bd f72d 7c3e 409d 3abe 4fba 0e3e
000001b0: d1cc 9ebd 82e6 9b3d 5943 c5bd caf6 25be
000001c0: 482f d1bd 2122 9ebe 3533 60be 9fc3 013d
000001d0: 0bf0 69be 255b 95be 4dc9 fabd 05b3 30be
000001e0: 71b8 49be 307c c13e c074 163c 3a26 5fbd
000001f0: 6493 52bd ad6e d7bc e74c ccbd f1ba 8cbd
00000200: de59 503d 0b98 863e 3b12 053e d8c1 d7bd
00000210: e311 d9bd 3124 f8bd 4f18 113e 73f6 e8bd
00000220: ea71 32be b1ac 3e3d 2c5d 18bd 6825 943d
00000230: 3253 353e 4e72 e23c 7db7 f63d 2156 3ebd
00000240: 8609 a13e 83e3 11be 3016 e2be f5a4 cbbd
00000250: 5820 373d 8d67 14bd 2614 f0bd 45ea 0cbe
00000260: 03ef 2e3e b8d1 a93b 6fb0 ef3d 443d 1bbe
00000270: 7ad2 04bd c429 da3d 0923 9c3d f115 103d
00000280: 6b38 343e bd52 b13d add4 af3c 11bd ce3e
00000290: 0623 933e f8b3 023d 7329 52bd 9c1d 1ebe
000002a0: 675c 84be 3b2e 5abe 2e89 e6bd 216f 41be
000002b0: 6f70 e63d c1dc 9c3d 4e2c 933b 72cf 52b9
000002c0: 5259 393e d3bd 323e 27d0 5abd a21e 69bd
000002d0: 9685 98bd 6d42 71be 8509 a73e 7175 41bd
000002e0: 8ee4 423d 944d e53d ef52 84be 7fb3 19bc
000002f0: c2da f93d c000 6b3e 81f7 27be 2c81 863d
00000300: 3017 fcbd 3c6d 6c3d b34a a0bd ba0e 223e
00000310: eb6f 533d 0951 44bd ae32 5a3d 46ac bf3d
00000320: f140 3abc 8b16 24be 08c0 b63d bcf4 06be
00000330: a4b9 e2bc 96d1 003d 5a31 91bd c321 773e
00000340: 9bae 663b 24f2 0bbe 126e 96bd ccb9 623e
00000350: 60ec 303d 9afc 50be f65a 51be 84f8 5abe
00000360: cfe3 95bd b006 73be cd35 1f3e bc03 a03d
00000370: 61e0 18be 2af0 953c bbf0 9b3d 674a c8be
00000380: ccd1 bf3d 785b ba3e 28a4 4c3d e156 23bd
00000390: f183 073e f6b7 63be ede2 51be 3ac0 83bc
000003a0: 0bbb 36be 0ce4 0bbe faee cebd d9a0 263d
000003b0: 4a06 d3bd e8c3 07be 344d 24bc 3b48 d7bd
000003c0: 8189 c3be 1589 5dbe a98b 203e a55a 803e
000003d0: ad17 4d3e 0a71 03bd 1f18 1f3e c035 6ebe
000003e0: c33a 48be 965b 9b3e f162 463d 190b 3e3d
000003f0: 48d7 1d3e 73e0 093e 37bb 443e 1c6c 50be
0.0034196097 0.29941556 0.08801403 0.45272714 -0.029824285 0.073646255 0.03555826 0.04937218
-0.19631557 -0.2554315 -0.05468802 0.10448998 -0.1607937 0.10296559 0.16497403 0.22188127
0.21871334 -0.118204884 0.00014059828 -0.21061066 0.22510064 -0.17727599 0.07567818 0.18861705
0.34230176 -0.009365782 -0.20458598 0.0918081 0.28676394 -0.014343709 -0.11494512 0.12254536
-0.015291446 0.0057211807 0.10045157 0.16917779 -0.10293265 0.19221571 0.103299886 -0.23978385
-0.113127746 -0.087952144 0.13809317 0.24967226 -0.1268775 -0.17059685 0.016921759 0.08270903
0.16414946 0.19865654 -0.0037050324 -0.008325418 -0.19719112 -0.09290724 -0.09046266 0.014977973
0.17427973 0.06441171 -0.24371248 -0.24519396 0.253597 -0.2278478 0.16433312 0.0016159853
0.2825384 -0.111039795 0.049798384 -0.058119357 -0.040968224 -0.18672954 -0.26166248 0.07720235
-0.06114622 -0.16559812 -0.17533036 0.12944415 -0.047151692 -0.28745764 -0.045651987 0.043070357
-0.071122244 -0.18490206 -0.1786618 -0.12024694 0.042702433 0.25310737 -0.15770179 -0.19934475
0.221516 -0.0071577923 -0.17333205 -0.024614722 0.065736935 -0.03207988 0.01601391 -0.23405677
-0.026488982 -0.07922765 0.11869571 -0.017734895 -0.044194236 -0.04044172 -0.14307809 -0.08313067
-0.03672249 0.24626909 -0.18224049 0.13938259 -0.077539094 0.07612325 -0.09631986 -0.16207424
-0.10214096 -0.30885413 -0.21894534 0.0316807 -0.22845475 -0.291711 -0.12245426 -0.1725579
-0.19699265 0.3779006 0.009183109 -0.054479815 -0.051410094 -0.026297892 -0.099756055 -0.06871594
0.050866954 0.26287875 0.12995236 -0.1053502 -0.10599115 -0.12116278 0.14169429 -0.113751315
-0.17426267 0.04655141 -0.03719823 0.07233697 0.17707518 0.027642395 0.12046716 -0.046468858
0.31452578 -0.14246945 -0.44157553 -0.099435724 0.04470858 -0.036231566 -0.11722593 -0.13761242
0.17083363 0.005182471 0.11703574 -0.1516009 -0.03242729 0.106524974 0.0762387 0.035177175
0.17599647 0.08658359 0.021463716 0.4037862 0.28737658 0.031909913 -0.05130906 -0.15440983
-0.25851747 -0.21306698 -0.11256634 -0.18890049 0.11251914 0.07659293 0.0044913655 -0.0002010444
0.18100479 0.17455225 -0.053421166 -0.05691398 -0.074473545 -0.23560496 0.3262445 -0.04723114
0.047581248 0.111964375 -0.25844523 -0.009381174 0.12199928 0.22949505 -0.16403009 0.06567606
-0.1230911 0.05772136 -0.07826748 0.1582593 0.051620405 -0.047928844 0.05327099 0.093590304
-0.011368022 -0.16024224 0.08923346 -0.13179296 -0.027676411 0.031449877 -0.07089491 0.24133973
0.0035199288 -0.13666588 -0.07345213 0.22141188 0.043194175 -0.2040886 -0.20444855 -0.21383864
-0.07318842 -0.2373302 0.15547867 0.07813212 -0.14929344 0.018302996 0.07614275 -0.39119264
0.093661875 0.3639791 0.04996124 -0.039877776 0.13233925 -0.22238144 -0.20496722 -0.016082872
-0.17844789 -0.13661212 -0.10104175 0.04068074 -0.10303934 -0.13258326 -0.010028172 -0.10511824
-0.38190845 -0.21634324 0.15678276 0.25069156 0.20028563 -0.032090224 0.15536545 -0.23262691
-0.19553666 0.30343312 0.0484342 0.046397302 0.15414155 0.13464527 0.19212042 -0.2035374

X_11.0.bias f4 [128]
00000000: e947 023d a890 3cbe 0fef 59be 218b c8bb
00000010: c7ca c5bc 27dd 5dbe 0a3b 27be 0346 213e
00000020: 9bdb 4f3e 05e3 e6bd ff00 bf3d f1cd ff3d
00000030: a166 bf3d 15cd c3bd 869a 2f3e 1005 013e
00000040: 3945 52be 8457 8c3d 8e74 f4bd b50a 293e
00000050: c374 49bd 7063 a3bc b90b c83d 10a3 6abe
00000060: c435 2dbe c481 70be 074c 253d a84d 90be
00000070: dd5d a53d 8424 85bd cb6d 273d dc5d 91be
00000080: 078d a2bd 4bf1 2b3e b1a7 4dbe c831 7ebd
00000090: 7cdf ca3d e98e 99bc e841 babc e413 12be
000000a0: a671 d53d a2cc 063e 6925 5a3e a2e7 01be
000000b0: 8029 293e ecda a4bd 89bc 49be 313c 4bbe
000000c0: 490c 1f3e 6fa3 3cbd 0df3 053e 29a3 38bd
000000d0: 285a 49bd 0a08 c0bd dc20 4b3d 50a9 18bc
000000e0: bca1 ccbd ebce 8c3d ee43 0f3e e868 e93c
000000f0: 82ad 3b3e 9ead 073e c8c5 21bd fc61 133b
00000100: 2e6a 0b3e c41b fb3d 5036 383e 039b 2c3d
00000110: c4d6 a03d 15ac 73be 5200 d63d a69b 81bd
00000120: 69ef c33d 3825 2e3e f979 22be 3b9d 5cbd
00000130: da23 87bd 3f3b 68be f4c4 7b3c aeec 54bd
00000140: ac6e 633d 7618 93bc ec68 7d3d 3758 37be
00000150: 29e4 013e dc08 473e 1810 17be 3e86 ca3a
00000160: aa64 c73c 7317 083e c6f2 433b 9281 93bd
00000170: 7be8 5fbe 6703 8d3d 49b6 f23d be47 923a
00000180: c33a 113e f65e e73c 9a81 b0bd 2843 d0bd
00000190: 7b19 92bd 67aa 273d 0934 2bbe cc70 65be
000001a0: 9b40 0bbe f7b2 843d e775 1e3e 4026 2dbe
000001b0: 7ffe 70be e1b5 e6bd 4f01 30be 8893 d83d
000001c0: f4ba 8c3c 80e0 a6bd 5641 a5bc 1c92 ebbd
000001d0: f4e4 913d 31c7 7dbe b05b 213e cbf4 503e
000001e0: a48c 9bbc c6b2 08be a16f 92be b52a 493d
000001f0: 4f93 6e3e 542d b8bd ba77 e4bc 2be4 1dbe
0.03180686 -0.18414557 -0.212826 -0.006120101 -0.024144543 -0.21666394 -0.16331115 0.15749364
0.20298617 -0.11273769 0.09326362 0.12490452 0.09345747 -0.09560601 0.1714879 0.12599587
-0.20534219 0.0685263 -0.119362935 0.1650799 -0.04918362 -0.019944876 0.09767861 -0.22913766
-0.16915041 -0.23487002 0.04035571 -0.28184247 0.080745436 -0.065011054 0.04087619 -0.28391922
-0.07937055 0.16791265 -0.200835 -0.062059194 0.099059075 -0.018744903 -0.022736505 -0.142654
0.10422067 0.13163999 0.21303333 -0.12686017 0.16519737 -0.080495685 -0.19700827 -0.1984718
0.1553203 -0.0460543 0.13080998 -0.045077477 -0.049158245 -0.09376533 0.049591884 -0.009317711
-0.09991786 0.06875404 0.13990757 0.028492406 0.18327907 0.13249823 -0.03949526 0.0022488823
0.13614723 0.12261155 0.17989469 0.04214002 0.07853463 -0.23796113 0.1044928 -0.06328516
0.09567148 0.17006385 -0.15866841 -0.053860884 -0.06598635 -0.2267885 0.0153667815 -0.051983528
0.055525467 -0.017956 0.06186764 -0.17904745 0.12684692 0.19436973 -0.14752233 0.0015451384
0.024339993 0.13290195 0.0029899343 -0.07202448 -0.21866028 0.068854146 0.118511744 0.0011160297
0.14182572 0.028243523 -0.086184695 -0.10169059 -0.07133766 0.040933993 -0.16719069 -0.2240631
-0.13598864 0.06479447 0.15474664 -0.16909122 -0.23534583 -0.112651594 -0.17187999 0.10575014
0.01717899 -0.08148289 -0.020172756 -0.115024775 0.071237475 -0.24783017 0.15757632 0.20405881
-0.018987961 -0.13349447 -0.2860079 0.049112994 0.23298381 -0.08993021 -0.027889121 -0.1541907

X_12.0.weight f4 [128, 20]
00000000: 3b29 97be 8a1b 563c f5b9 a73e 98b9 2cbe
00000010: 0a97 9cbe 55b3 40be 6df7 9e3e 3e62 033d
00000020: 6c18 1cbe 2fc2 e03d b8b0 af3d 394f febd
00000030: 41d0 3b3e 7c8b 52be a333 31be 525f 3a3d
00000040: 9ce7 b83d 9d8c d93d 8a1b 44be 4089 5fbd
00000050: 7306 48be a2da 323e 04b6 b3be d2f1 af3b
00000060: f1b1 f0be 439e 7fbe c1db 993e 8887 51bd
00000070: 1953 153e 782a ad3c 76af 5d3d dd6c 783d
00000080: fdb4 213d c32b f03d a463 c7bc b3c9 843d
00000090: e8e3 2fbe 9b26 b2bd 1b4d 4ebe 6988 56be
000000a0: d282 a83d 9812 df3d e3ce e3bd c1d8 923d
000000b0: 8639 63be 511e 723d 6551 6b3e f2f9 da3d
000000c0: e7f6 f3bd 9149 9ebd 741d 4d3c 9774 7abe
000000d0: fd44 f1bd 73cd 333d f1c8 a1bd c1e4 27b9
000000e0: 55d5 25be ebf5 53be e42b 68be d8e4 333d
000000f0: 0e2f a4bd a5fd 02bd e5b5 acbe 5108 2fbe
00000100: fbe7 15be 85ba d6bd a93f 143e def6 cb3d
00000110: a3d3 13bd eefa 163e 2d6c 56be d382 40bd
00000120: 67f3 f73d f2fe d9bd 0896 0e3e fa79 5d3d
00000130: 2731 8f3d 3c54 e3bd fe58 ba3b 39dd 1abe
00000140: bd87 2dbd 4b03 9ebd 8c58 20be 7702 eebd
00000150: 9230 693d 3c26 89bd 4737 443e ac4d 0abe
00000160: ae41 9e3d ff50 9dbd 1982 f03d 114d 61bd
00000170: ec6a eabd 0687 0f3e 55b4 403b 6ee1 43bd
00000180: 967d 343c 7e12 50be 7f30 83be 9aee 83be
00000190: 500f 0ebd 3735 3dbd b79e febc acc4 5db9
000001a0: 041d 243d 7d7e b6bd 0eaa 1f3e cbda b4bc
000001b0: 99a7 11be fcb3 f3bc ff9a 03be b6e5 27be
000001c0: 44f5 7dbe d45e 84be 1a05 8dbd b9ac 023e
000001d0: 8aac 61be 182c f33d c0c6 fd3d ccf0 fe3d
000001e0: 67c4 fabd 8a35 1ebe 3acd ad3e 61dd 4c3e
000001f0: 4487 1b3e 696f 313e bca1 79bc deac 71be
00000200: 1780 b4be afd4 8cbe 3943 f53d b90c 153a
00000210: 4232 05bd be44 32be 3ccd 3ebc dbff 6cbc
00000220: a1db e93d 1a58 32be 7523 98be 7bbe 0d3d
00000230: bfe8 b8bd 8593 013b f283 b93d 701d d0bd
00000240: 8bf6 183e 85b4 b93d 590a 033e d778 9f3d
00000250: c79c 2e3e 21df 3abd b147 38be b3cd 1d3e
00000260: e271 1d3e e491 33be a853 02bc 1af9 59bd
00000270: b084 25bd 7fe9 70bb 393e 7abe fcb7 e83c
00000280: c8fd 05bc 89a8 5c3d db81 45bd 2774 f63d
00000290: 699e 67bd 21ce 943d 7454 4f3d bc7b 873e
000002a0: 9388 47be 7d38 14bd de87 73bd 583e 0abe
000002b0: 1dd0 2c3e 6f42 15be fc09 2abe 7b89 05bd
000002c0: e0ea f1bd b2ae 8b3d a595 16be 9a4e d3bd
000002d0: 056e 06bb 6b2f 14be 20e2 bcbc c4ed 343c
000002e0: 3c34 e1bd 21c9 453d d026 eabd 8b12 c7bd
000002f0: e26c be3d 7540 42be 0efb 68be 5015 b1bd
00000300: 2c0f 1fbe b904 dabd 3182 923d 788d 84be
00000310: c18e be3c cef0 46bc 4b4f b03d 8937 9e3d
00000320: 59fc 60be 5dd3 863e 2a22 863d 584a 013e
00000330: 60e1 ba3e e85a e4bd aa39 a63e 3f91 71be
00000340: a3b1 bd3d fb88 a4be 028e f33d ab43 f7bd
00000350: ba22 133d ead5 c7bc 7083 f93c 0943 683d
00000360: 2bd3 a63d 63a5 cf3d 134f a5bc 8f7e 90bb
00000370: 9d58 f83d fe9e 2d3d 5622 8fbd d223 223d
00000380: 714d 15bd 255a cabd 562c 6d3e 3294 48bd
00000390: a1f9 30be cf08 cd3d 9c11 3cbd 697a 32bd
000003a0: c053 47be 6d5b a13d 5880 2bbe 0a8a 673d
000003b0: 1a7e 8fbe ae51 c23d 1652 96be 4bc9 14bd
000003c0: df79 2c3e 971b 8dbd e511 013d 520d f83d
000003d0: 39e0 883e 4218 0fbd 9d20 bdbd f8d8 96bd
000003e0: 27f7 6e3e 61f1 173e 0fc7 c6bd 415e 4cbe
000003f0: 8f78 c53d daf1 70bd 1f11 903d ed0e 97be
-0.29523644 0.013068089 0.3275906 -0.16867673 -0.30583984 -0.1881841 0.31048146 0.032076113
-0.15243691 0.109745376 0.08578628 -0.12417454 0.18341161 -0.20561022 -0.17304854 0.04550106
0.09028551 0.10622523 -0.1915113 -0.05457425 -0.1953371 0.17466214 -0.35099804 0.0053694034
-0.4701076 -0.24962716 0.3005047 -0.051154643 0.1458248 0.021138415 0.05412241 0.060650695
0.039479245 0.11727097 -0.024339505 0.064837836 -0.17176783 -0.0869877 -0.20146601 -0.20950474
0.08228077 0.10892218 -0.11123445 0.07170249 -0.22189912 0.059110943 0.22980268 0.106922045
-0.11912327 -0.077288754 0.012519229 -0.24458538 -0.117807366 0.043897104 -0.07899655 -0.00016011579
-0.16194661 -0.20699279 -0.22672993 0.043919414 -0.080167875 -0.031980176 -0.33732525 -0.17093016
-0.14639275 -0.104847945 0.1447741 0.099591956 -0.036090504 0.1474416 -0.20939703 -0.046999764
0.12106972 -0.1064433 0.1392442 0.054071404 0.06991797 -0.11100051 0.005686878 -0.15123452
-0.04236578 -0.07715472 -0.15658778 -0.11621564 0.056931086 -0.06696746 0.19161712 -0.13506192
0.07727371 -0.076814644 0.11743564 -0.055005137 -0.11446175 0.14016351 0.0029404361 -0.04782241
0.01101627 -0.20319554 -0.25622937 -0.25767976 -0.034682572 -0.046193328 -0.03108154 -0.00021149468
0.040066734 -0.089108445 0.15592214 -0.022076985 -0.1422409 -0.02974891 -0.12852095 -0.16396222
-0.24800593 -0.25853598 -0.06885739 0.12761201 -0.22038475 0.118736446 0.12391424 0.12448272
-0.12244492 -0.15450111 0.33945638 0.20006324 0.15188318 0.17327656 -0.015236314 -0.236011
-0.35253975 -0.27506015 0.11975712 0.0005685795 -0.032518633 -0.17409036 -0.011645611 -0.014465298
0.11418844 -0.1741642 -0.29714552 0.034605484 -0.09028768 0.0019771766 0.0905837 -0.10161865
0.14937799 0.090676345 0.12796916 0.0778672 0.17051993 -0.04562295 -0.17996098 0.154105
0.15375474 -0.17536122 -0.0079545155 -0.053216077 -0.040409744 -0.0036760268 -0.24437799 0.028408043
-0.008178182 0.053871665 -0.048219543 0.12033873 -0.056547556 0.072658785 0.05061765 0.2646159
-0.19485693 -0.036186684 -0.059455745 -0.13500345 0.16876264 -0.14576124 -0.16605371 -0.032601815
-0.11812377 0.0682043 -0.14705522 -0.103177264 -0.0020512354 -0.14471214 -0.023057044 0.011043016
-0.10996291 0.048287515 -0.11433184 -0.09720334 0.092981115 -0.18969901 -0.2275202 -0.08646643
-0.15533131 -0.10645432 0.07153738 -0.25889182 0.02326143 -0.012142373 0.08608874 0.07725436
-0.21971263 0.26333132 0.06549485 0.12626016 0.36500072 -0.111501515 0.3246587 -0.23590563
0.09262397 -0.32135758 0.1189232 -0.120734535 0.03592179 -0.024393994 0.030458182 0.056704555
0.08145746 0.10138967 -0.020179307 -0.004409618 0.12126277 0.042387955 -0.06988971 0.039584942
-0.036450807 -0.09880475 0.23161444 -0.048969455 -0.17282726 0.10011446 -0.04591523 -0.04357377
-0.19465542 0.07878766 -0.16748178 0.05652813 -0.28025895 0.094882354 -0.29359502 -0.03632478
0.16843365 -0.06890028 0.031511206 0.12111916 0.26733568 -0.034935243 -0.09234736 -0.07365602
0.23336469 0.14838172 -0.09705936 -0.1995783 0.09642135 -0.058824398 0.070345156 -0.29503575

X_12.0.bias f4 [128]
00000000: 5377 143d ff14 9c3c 70bd 0c3e 580a 0bbe
00000010: 369a ae3d 544f 17bc fda5 83be 559e 9f3d
00000020: 96a7 b4bc fa35 09be 25d2 9c3c 8f2f f7bd
00000030: cce9 bd3c 25d2 46be 2ad0 b23d ef91 0fbd
00000040: 8eee 83be 719b d5bc 50d5 8bbd 0c5c 5e3c
00000050: 12f4 07be b454 873d d091 7fbe a37e a13d
00000060: ab61 49be 9560 a0bd f4d9 913d e186 0cbe
00000070: 6381 1a3e 0e57 ab3d 1203 8dbe 06c3 b23d
00000080: f027 b43d 0dfe aabd 8938 1fbe 058f f03c
00000090: cf0e 76be a1ae 15bd 1d22 cf3c a6ff 5abe
000000a0: eb7c 5fbe e8c6 473d 904f 24bd a3f6 8cbe
000000b0: 0ce9 943d ac5d 7fbe c612 30be bc2f 043d
000000c0: 00da 24be 1404 0abe fba9 cf3d 135b 35be
000000d0: 138b 583d af91 05be 16fe 26be daa5 10bd
000000e0: 3397 32be 5895 8bbd b15e 2ebe 4ec9 a83d
000000f0: 5a8b 07be f355 3dbd 7fdf 3d3e 7cd7 69be
00000100: 5f4c 09bd caac fcbc 81c3 05be bf36 d43d
00000110: 54b4 b93c 8543 0c3e 168e ccbd 922f 29be
00000120: 7c70 b33d 8fae 4a3e e6fb 34be b0c7 d43c
00000130: 6e3b 583d d774 60be 5a3f 28be f3c3 25bd
00000140: 88db 923c 4f2d 98bd 575b 833d c554 fa3d
00000150: d38a 473d 60ea 3abe 84a8 fdbc 7918 2abd
00000160: cc54 ff3c 1c93 05be ac6f 20bc 0c6f e73d
00000170: 363d 583d cdec 493b a540 07be 4f5d 3ebe
00000180: 0ef3 49bc 32ad 6abe 18de 193d 7068 66be
00000190: e537 78be 8bb0 293d 716d cc3b e22c 51be
000001a0: 5c64 6a3e 23b3 3cbe 44d6 0fbb ce73 2dbe
000001b0: e09d 58be a915 84be e81f 72be 165c 27bb
000001c0: 2732 dbbd 1433 bc3c c09b 00be b3af e4bc
000001d0: 258e 06bd ad27 893d 6738 6c3e de7a bf3c
000001e0: 7112 c3bc 53dc 0a3e a65f 4b3e fcfa 13be
000001f0: 922c febb 7601 e4bb 439d ebbd 1fa3 5fbe
0.03624661 0.01905298 0.1374414 -0.13578165 0.08525507 -0.009235222 -0.25712577 0.07793871
-0.022052567 -0.13399497 0.019143173 -0.12069618 0.023182772 -0.19416101 0.087311104 -0.035051282
-0.2576794 -0.026075097 -0.068277955 0.01357175 -0.13276699 0.06607953 -0.24957967 0.07885482
-0.19666164 -0.078309216 0.071216494 -0.13723327 0.1508842 0.08366214 -0.27541405 0.08728604
0.0879668 -0.083492376 -0.1554891 0.029365072 -0.24029087 -0.036543492 0.025284821 -0.21386585
-0.21824996 0.048773676 -0.04011494 -0.2753192 0.07271013 -0.24938077 -0.17194661 0.032272086
-0.16098785 -0.13478118 0.10139843 -0.17710523 0.052867007 -0.13043855 -0.16307864 -0.03531442
-0.1744049 -0.068155944 -0.1702831 0.08241521 -0.13236752 -0.046224546 0.18542288 -0.22836107
-0.0335201 -0.030844111 -0.1306286 0.103620045 0.022668995 0.13697632 -0.09988038 -0.16522053
0.08761689 0.19793151 -0.17674217 0.025974125 0.05279105 -0.21919571 -0.16430417 -0.040470075
0.017926946 -0.07430517 0.06413906 0.122232 0.048716377 -0.1825347 -0.030964144 -0.041527245
0.031168364 -0.13044399 -0.00979225 0.113004774 0.05279275 0.003081131 -0.13208254 -0.18590282
-0.012326015 -0.22917631 0.03756532 -0.22500777 -0.24240072 0.04142813 0.0062386324 -0.20427278
0.22889847 -0.1842771 -0.002194778 -0.16938707 -0.21153975 -0.25797775 -0.23644984 -0.0025537065
-0.10702925 0.022973575 -0.12559414 -0.027915811 -0.032850403 0.06697021 0.23068391 0.023374017
-0.023812504 0.1356061 0.19860706 -0.14451212 -0.007756778 -0.006958182 -0.11504605 -0.2183957

X_2.0.weight f4 [128, 128]
00000000: cc2a 6a3d d5bb 37bd a7cd a23c 2732 22bd
00000010: 5906 b1bb b555 943d 79fe b9bd 57de 0abe
00000020: 2698 fbbd c566 8bbd d2a1 b63d c2a4 b2bd
00000030: e9e8 a6bd ace4 c5bd cc21 b73a 6f9f bebd
00000040: f5cb b43d 9692 74bc d835 123e daba 0ebe
00000050: 2993 893d ef92 c83d 1dd1 cf3d 1a64 dbbc
00000060: 404f 143d df7c ee3b db98 b8bd 9b4d a63d
00000070: 655c 453d 4f54 d6bd cc40 3f3d ce71 f93c
00000080: 51a1 e3bd 3653 06bc 00b5 cdbd e703 27be
00000090: 5379 56bd f95c fd3c f357 9bbd a7cf d6bd
000000a0: 61b5 8b3a 7c54 693c d102 ed3d e599 40bd
000000b0: 26b3 7fbc f9ea a4bd 29d1 b53c d8eb eebd
000000c0: 546c b8bd 1096 ce3d b78c 64bc 9691 60bd
000000d0: 6cfa 69bd b32d 17bd 62a1 1c3d b8a1 e4bd
000000e0: d58f 823d 1234 bcbb df76 13bd a933 de3c
000000f0: 774a 7dbd 6c29 cbbc 0f87 c0bd 86ed 663c
00000100: e1ec aabc b5ac 6cbd 1675 d2bd b16a 20bd
00000110: edac 133d 2928 613d 8521 9bbc 6464 c23b
00000120: 9605 0d3d 612c 11bb e64c 33bc 86db 233d
00000130: 2d51 33bc d2ea 253e 428a ddbc a943 39bd
00000140: e7b1 ad3d dd76 d13d b5bb 60bd ebc7 bb3c
00000150: fa35 b0bd 8617 a6bd cb43 dcbd 3db0 ebbd
00000160: d868 053d 4ddb 11bc 8fd6 29be 8872 9fbd
00000170: 6698 25bd 924c d5bd 4850 1dbd 2707 9a3c
00000180: 8400 e2bc 0877 a13c a46a 36bd 7e1a b03c
00000190: 27ac 29bd 911a f9bd a393 4c3b 3e60 12bd
000001a0: 5a30 9cbd d6b8 89bd 1340 63bc e70a 14be
000001b0: c683 b8bd 1181 48bd 2bfe a93d 2ed6 b93d
000001c0: aeeb 803a c51e 1bbc 4baa 47bc 36eb f43c
000001d0: 1ad1 e1bc 9d9e 71bd 499b cc3a cbdd ea3c
000001e0: d935 2dbb 82b0 86bb 9511 f7bd 4629 943d
000001f0: 0109 a03d c3ca a1bc 0dc1 ef3d 8f71 44bd
00000200: 33e4 8c3d 6c61 c3bd 0331 ac3c 1c93 843c
00000210: e8ff c2bc e291 85bd 5845 a3bd 9e45 503d
00000220: c1c5 943d 6564 ae3c 87ee aebd 011e 02bd
00000230: c70e c23d 2c79 8e3d a227 283d eabe 903d
00000240: 5b20 1cbd 8b88 21bd dcf7 84bd 5ce0 95bc
00000250: fe47 27bd 111a 1a3d e562 323c 503e 3dbd
00000260: 59fe 953b 3310 c3bc 8514 00bd 2fff 953c
00000270: 8448 a8bd 7cc3 17be 7f6f d33c 43c5 56bd
00000280: 84b6 a3bc 23c4 42bd 7373 dcbd 440d 97bd
00000290: 395e f33c ee64 01bd 943c 36be 4f1d a43c
000002a0: d2c0 4cbc 3459 b63d 3899 91bd bb99 6c3c
000002b0: e22b 683e 9245 36bd ff58 a7bd 3691 a0bc
000002c0: c94c 613d 9274 273d 133a 2abe e892 8bbd
000002d0: 4909 8dbd 00df b13d 8eee 813d b876 67bd
000002e0: ca10 343d 459e 3c3d 458d acbc c76b e8bc
000002f0: 30af 13be 73bf 20be e788 7c3c 8ae6 353d
00000300: c842 91bd 4030 683c d50e f13c 2f6e 17bd
00000310: 50a6 3e3d af14 29bc 4047 00bc 23b2 2fbd
00000320: 548c a7bc 1472 12be e373 d9bd 5dc1 723d
00000330: eb02 533d 2cd0 d5bd 87df 013e 07ca 2bbe
00000340: 023a 8f3d c162 92bd aa20 673d 8ed8 28bd
00000350: a920 a33c 3bc8 1abd 6f8c bcbd 3307 81bd
00000360: c292 7a3d 23d0 3cbb f05a 42bc 5823 b13d
00000370: 8c00 843c 83c1 a13d 3540 b23d 5e2f a5bd
00000380: c883 853d ac37 27be a2df 03be cff4 03be
00000390: 8f0e cfbc abe8 f4bc 99d7 cdbd 030e 293e
000003a0: 5712 3abd 69f4 27bd 0ec6 363c ca86 4dbd
000003b0: 22cc d23d 3728 f43d 0732 383d e462 09bd
000003c0: e0b0 0ebd bf26 883d e3d1 58bc b696 ffbc
000003d0: 6d9f 093c e868 ff3d 1323 c33d 4f0b e23d
000003e0: f3f4 5cbb df4e fa3d 9583 623d 0533 00be
000003f0: 23f2 a1bd fc60 0a3c a093 833d 669e ae3d
0.05716972 -0.044856865 0.019873453 -0.03959861 -0.005402368 0.0724291 -0.0908174 -0.13561378
-0.122848794 -0.06806711 0.089175835 -0.08722831 -0.08149893 -0.09662756 0.0013971864 -0.09307753
0.08827964 -0.014927527 0.14278352 -0.13938466 0.06717522 0.0979365 0.10147307 -0.02678113
0.03620839 0.0072780694 -0.0901353 0.08120271 0.048183817 -0.10465299 0.046692654 0.030449774
-0.11114753 -0.00819855 -0.10044289 -0.16310082 -0.052361798 0.030928122 -0.07585134 -0.10488825
0.0010658914 0.014241334 0.11572803 -0.047021765 -0.015606677 -0.0805263 0.022194462 -0.116660774
-0.09005037 0.10087216 -0.013949565 -0.05482634 -0.057123587 -0.036908817 0.038239844 -0.11163658
0.0637509 -0.005743512 -0.036002036 0.027124243 -0.061838593 -0.024800025 -0.094007604 0.014094716
-0.020864906 -0.057781894 -0.102762386 -0.03916425 0.036053587 0.05496994 -0.018936882 0.0059323777
0.034429155 -0.0022151696 -0.010943627 0.040004276 -0.010944647 0.16202858 -0.027043466 -0.04523054
0.08481198 0.102277495 -0.05486651 0.022922477 -0.08604045 -0.081099555 -0.10755118 -0.11508224
0.03257069 -0.008902383 -0.16585754 -0.07785517 -0.04042854 -0.10414995 -0.03840664 0.018802239
-0.027588136 0.019710079 -0.044535294 0.021497007 -0.041423943 -0.1216327 0.0031215928 -0.035736315
-0.0762641 -0.06724708 -0.013870257 -0.14457284 -0.09009509 -0.048951212 0.08300432 0.09074055
0.0009835863 -0.009467785 -0.012186597 0.029897314 -0.027565528 -0.058989156 0.0015610243 0.028670212
-0.00264298 -0.004110397 -0.120639004 0.07234435 0.07814217 -0.019750005 0.117067434 -0.04795986
0.06879463 -0.09540066 0.021019464 0.016183428 -0.023803666 -0.065219656 -0.07972211 0.050847642
0.07264281 0.021288106 -0.08541589 -0.031766895 0.09475475 0.069567055 0.04105342 0.07067664
-0.038116794 -0.03943686 -0.06492588 -0.01829546 -0.04084014 0.037622515 0.010887836 -0.046202004
0.0045774397 -0.023811435 -0.03126957 0.018310158 -0.08216956 -0.14820665 0.025810001 -0.052434217
-0.019984491 -0.04755033 -0.10764208 -0.07375577 0.029708015 -0.031590395 -0.17796546 0.020033507
-0.012497144 0.08903733 -0.07109302 0.014440949 0.2267299 -0.04449994 -0.081712715 -0.019600492
0.05500487 0.040882654 -0.16623716 -0.068151295 -0.06886537 0.08685112 0.06344329 -0.056509703
0.043961324 0.046049375 -0.021063456 -0.028371705 -0.14422297 -0.15698032 0.015413499 0.044409312
-0.07092816 0.01417166 0.029426018 -0.036970314 0.046545327 -0.010319873 -0.007829487 -0.042894494
-0.020452656 -0.1430133 -0.10617807 0.059266437 0.051516455 -0.10440096 0.12682925 -0.16776286
0.06993486 -0.07147742 0.056427635 -0.041222148 0.019913035 -0.03778861 -0.09206473 -0.06300201
0.061175115 -0.0028810583 -0.0118625015 0.086493194 0.016113542 0.078982376 0.08703653 -0.08065675
0.06519276 -0.16329831 -0.12878278 -0.12886356 -0.025275497 -0.029896101 -0.100508876 0.16509251
-0.045427646 -0.041004572 0.011155618 -0.050177373 0.102928415 0.11921733 0.044969585 -0.033541575
-0.03483665 0.06648015 -0.013233635 -0.031199794 0.0083998265 0.12471181 0.09528174 0.11037313
-0.0033715337 0.12222075 0.055301268 -0.12519462 -0.07907512 0.008445974 0.064246416 0.08526306

X_2.0.bias f4 [128]
00000000: 80bc 0ebc 13e2 e6bd 3321 bbbd 26af 78bd
00000010: 04eb 953d 70cb 05be 00c8 1ebd 0f98 823c
00000020: 342f 6e3d 596a 33bc 0495 013c 8b19 49be
00000030: 0982 8bbd bed3 5b3c e0e5 81bd 368c 2abb
00000040: b1dd 863d a009 b73b ee7d c1bd adf0 44bd
00000050: cc57 12be 9a31 d0bd 598c e33c 7d49 c1bd
00000060: 6a79 8fba 8d61 1bbd 34b8 f0bb 0f0a 6b3d
00000070: a653 5a3c 9ced b53c 76c0 33bd f166 a3bd
00000080: 4f48 91bd 2466 0dbe 07b6 a0bd d95e 693d
00000090: 6afe 6dbd e03a 953c 2d5d 22bd 0805 01bc
000000a0: f0cf db3c 95e6 dbbb e97d 36bd 10a7 ae3b
000000b0: 93a8 7c3d 8f7f c0bd 4d73 2d3d 113e e8bd
000000c0: d278 3dbc a632 683d 2bfd d8bd 7d87 c1bd
000000d0: a918 cebd 1405 72bd 7d99 1dba f649 d7bd
000000e0: 6ae1 883c 4ab0 9abd 16c6 243a b333 a73d
000000f0: 83ee 8b3d 87d3 67bc ea2e 2bbd c6cd ec3d
00000100: d874 b3bc b5a4 a53d e47c 303d e3a8 183d
00000110: 3829 17be 0f6d 67bd 6893 b4bc c516 063d
00000120: e074 03be b3b0 d0bd 3e4c 99bd 4806 a4bd
00000130: 73d1 a1bc c041 70be 05b0 ccbd ce8d 43bd
00000140: f65e aa3d 20a9 f3bd e83d 203d 7516 60be
00000150: 8794 06be 56c5 c03d 99c4 1cbd 721d bfbd
00000160: 5fd8 dabc 158d a6bd a8bb 893d 3f1e f23b
00000170: 5d44 48bd 8c2f e43c 8590 2fbe 0d89 bb3b
00000180: 21e6 00bd caf9 f3bc 46f3 9cbd 230c bbbb
00000190: 5390 3abd c798 d3bd 4548 84bd 7b6d 383d
000001a0: fc99 283d d428 033c d3d7 1ebd 45de 5bbd
000001b0: 47e3 8a3d d714 353d 40b8 353d 6f15 cbbd
000001c0: ef81 d2bd c923 90bd 0d55 43bb 3554 573c
000001d0: b44c 7d3c 0424 87b9 fb13 94bd 70b5 23be
000001e0: adb9 65bd 4cae bebd a63e 773c 97fd 443d
000001f0: 94f0 dbbd 02d9 26be 5a35 6abb 0701 cfbd
-0.008711934 -0.11273589 -0.091371916 -0.06071391 0.07320216 -0.13065886 -0.038764954 0.015941648
0.058150485 -0.010950648 0.007909063 -0.1963865 -0.068119116 0.0134171825 -0.06342673 -0.0026023514
0.06585253 0.005585864 -0.09447847 -0.04808109 -0.14291304 -0.10165711 0.027776884 -0.09437845
-0.0010946218 -0.03793483 -0.0073461775 0.05738264 0.013325607 0.022208028 -0.043884717 -0.07978619
-0.0709387 -0.13808495 -0.07847219 0.05697522 -0.058103956 0.01821655 -0.03963964 -0.007874735
0.02683255 -0.006710837 -0.04455367 0.005329974 0.061684202 -0.0939933 0.042346288 -0.11339963
-0.01156445 0.056688927 -0.10595163 -0.094496705 -0.10063297 -0.059086874 -0.0006011946 -0.10512154
0.016709048 -0.07553156 0.00062856206 0.08164158 0.06832602 -0.014149553 -0.041792788 0.11562686
-0.021906301 0.08088056 0.043087855 0.037270438 -0.14761817 -0.05650049 -0.022042945 0.03273656
-0.12837553 -0.10189953 -0.07485245 -0.080090106 -0.019753193 -0.23462582 -0.099945106 -0.047742657
0.083188936 -0.118974924 0.03912154 -0.21883567 -0.13142596 0.09412639 -0.038273428 -0.09331788
-0.026714502 -0.08132378 0.06725246 0.0073888595 -0.04889332 0.027854703 -0.17144974 0.005723125
-0.031469468 -0.029782195 -0.07663588 -0.005708234 -0.045547795 -0.10331874 -0.06459097 0.045026284
0.041162476 0.00800534 -0.038780045 -0.05367877 0.06781631 0.044209328 0.044365168 -0.099161975
-0.10278689 -0.070380755 -0.0029805333 0.013142635 0.015460182 -0.0002577604 -0.072303735 -0.15987182
-0.056085277 -0.09310588 0.01509062 0.048093405 -0.10739246 -0.1629372 -0.0035737366 -0.10107618

X_3.0.weight f4 [128, 128]
00000000: 6801 f53c 061d 053d db75 4e3d 6ac8 acbd
00000010: 9aac b23d 9846 2b3e 7e56 aebb 717a 4cbd
00000020: 0d11 aabd d7c1 763d ad1b 15bc a6ce 2dbd
00000030: 53fd 9d3e cc98 f93c d9c9 1cbd 0dda 91bc
00000040: 695d febc 6923 5ebc 82a5 cf3d 1855 71be
00000050: cc81 103e 0841 163e cb7c 02be a5b7 053c
00000060: 0bc3 70bd 7c8b 893d 7c1f 733e 2cf2 ac3d
00000070: d7ad f7bd 2a04 923d b328 18be 9bdf 13be
00000080: 3fb9 50bd bfa8 2c3e e2a6 053d c1dc 86be
00000090: b7e8 2bbd 0409 9c3d 8ad3 913d 8099 91bc
000000a0: 0318 d0bc 8a5f 8a3d a8c8 d63b ecdd 653d
000000b0: fe06 f23d 5ae2 a73d a89b cabc fca2 5e3d
000000c0: 3634 cc3d e225 65be 0a82 563e f989 bf3b
000000d0: b068 d4bc d0ab bc3d 0b46 33bd 3709 393e
000000e0: 91d8 bfbd 96ca 98bd 8efb dcbd abab a3bd
000000f0: 5b61 c23d 3ff8 773d 5bf8 b03d d575 1fbe
00000100: 40ef 273e 281d 1fbe 8108 fa3c a758 2b3e
00000110: 194b 013d 7a3f 0e3e 4059 0c3e 3799 ecbd
00000120: a8d9 0fbc 851c b3bd 67ad e4bd 15f7 0cbe
00000130: 2d92 77bd a23e f33d 1f9f c83d d1c0 57bd
00000140: e290 7fbd 7cd6 dc3c 195f 28bd 1a60 983d
00000150: 3782 e83d 0e8e 01be 76a8 48bd fa3d 153d
00000160: 7223 cfbd 0c8e b83d 9f47 1f3e 3f55 023e
00000170: 4a08 b23d 4995 993d d58e a0bc 94b7 aa3d
00000180: 2242 d63d 4cd9 5bbd ca8b c73d 75e9 a9bd
00000190: 5ba6 813d e429 bfbc b2f2 3d3e 38d6 79bd
000001a0: c6e0 d53d e127 e63d 40c7 84bc 1ad3 a73a
000001b0: 723c e8bd 5f54 93bd 92ec 8a3c a74b 153d
000001c0: 8a3a 553c 518c a8bd 6e8c 8abd fe8f 30bd
000001d0: 4fa0 0ebe df2a e43d e5d4 e9bc 80b1 3b3e
000001e0: 3083 083e e81f 42bd ca3c 7cbd c2c1 7dbc
000001f0: a84a b13d f15c 903c 7686 22be ff67 2c3d
00000200: 9f17 0bbd 703b 813d 54bd b0bd acbd 6f39
00000210: e092 e13b 3c5e 193e 935f e83d 93ee 89bd
00000220: 0120 a33d 0980 183d 9979 8fbb e289 c43d
00000230: 43a9 8b3e 98be da3d 55f6 603a ca35 9ebd
00000240: 6525 9c3c e1e2 b83c 3265 5ebd 22b7 ab3c
00000250: 76c7 a8bc bbbb 193e a0a8 c73c 15a1 b53d
00000260: 7a39 863d a7f8 b13d 1610 1f3e 52a3 853d
00000270: ee8e 0abd ea6b 3cbd f38d b5bd e972 98bd
00000280: b11e 1cbe b729 023e 8152 093e 728d 2abe
00000290: 2f05 c3bd 9509 a63c 12dc ba3d 5c5e 533c
000002a0: 17e8 9fbc 89c5 12be 882d d83b 4286 8ebc
000002b0: 179f 25bd 6119 56bd 946b 90bd 16b7 88bd
000002c0: 4e69 153e 5fe7 b9bc b1d8 4f3d 608f 6dbd
000002d0: 6ea2 77bd ca7a c1bc 34b6 383d 38a0 573e
000002e0: 1562 a93d 8aa5 4a3d 966a ddbd b3ad 07bd
000002f0: 2f75 243c 82ef bf3c e330 933d 6c77 2abe
00000300: 36c2 093e ca66 283d 1fa0 d13d 0dcd 7c3c
00000310: 117b 80bd c8ff 5d3e 7ef4 ddbb 03ac e5bb
00000320: 7e9f bebc a9de cabd 8173 563c 1c6e 67bd
00000330: 1eea 273d 683e 023e c619 88bb 7f4f 5a3e
00000340: 0bdf abbd d4bd f73c 4c58 593d ff20 943d
00000350: 061c 0e3e b4bf f7bc 421e e5bc eca5 bf3d
00000360: 30b6 933d aedb b33d 9931 993d cb84 2fbd
00000370: 7025 79bc 5b27 433c 2a98 60bd 9677 69bd
00000380: f710 ce3c f8eb aa3d 81d9 673d 1a81 c4bd
00000390: ba91 18bd 9c4a 853d c3df 1e3e c1b4 023e
000003a0: ed98 6e3d 1096 b93d 60ba 4cbd 4f4b 003e
000003b0: 28c3 acbd cbbd 01bc d828 c23d 72e3 53bd
000003c0: 51d7 623d 26ed 8d3d 7bb4 15bd f9bd 4b3d
000003d0: 802b 1abd 1530 55bd f9eb bf3d 3487 603d
000003e0: 6775 cfbd 7a4a 2c3b 5cee a8bd 2588 b6bc
000003f0: d90e dd3d 64b1 743b a509 263d 0f82 f93d
0.029907897 0.032498382 0.050405364 -0.084366634 0.087243274 0.16726148 -0.0053203693 -0.049921457
-0.083040334 0.060243454 -0.009100837 -0.042433403 0.30857334 0.030468367 -0.038278434 -0.01780417
-0.0310504 -0.013558247 0.1013899 -0.23567617 0.14112014 0.14673245 -0.12742917 0.00816146
-0.058779757 0.06716058 0.23742479 0.08444628 -0.12093704 0.071297005 -0.14859276 -0.14440767
-0.050957914 0.16861247 0.032629855 -0.26340297 -0.04196998 0.07618907 0.07120426 -0.01777339
-0.025402075 0.06756504 0.006554682 0.056119844 0.1181774 0.0819747 -0.024732426 0.054354653
0.09970896 -0.22377732 0.20948043 0.005845305 -0.025928825 0.09212458 -0.04376797 0.18069921
-0.09367479 -0.07460515 -0.10790168 -0.079917274 0.09491225 0.06053948 0.0864112 -0.15572293
0.1639986 -0.15538466 0.030521633 0.16733037 0.03156576 0.13891402 0.13705921 -0.11552661
-0.008779921 -0.08745674 -0.11165886 -0.1376613 -0.06044214 0.11877181 0.09795975 -0.05267412
-0.06239403 0.026957743 -0.041106317 0.07440205 0.113529615 -0.12651846 -0.048988782 0.03643606
-0.101141825 0.09011468 0.15554665 0.12727831 0.08692987 0.07499177 -0.019599358 0.08335796
0.104618326 -0.053674027 0.097434595 -0.082964815 0.06330558 -0.023335405 0.18549612 -0.06099531
0.10443263 0.11238075 -0.016208291 0.0012804002 -0.11339654 -0.07193827 0.016958509 0.0364491
0.013014445 -0.08229888 -0.06765066 -0.04310607 -0.1392834 0.111409895 -0.028543899 0.1832943
0.13331294 -0.04739371 -0.06158141 -0.01548809 0.08656818 0.017622443 -0.15871605 0.042091366
-0.033958074 0.06310165 -0.086298615 0.00022863474 0.006883964 0.14977354 0.11346354 -0.067349575
0.07965089 0.03723148 -0.0043785092 0.095966116 0.27277574 0.10680884 0.0008581628 -0.07725103
0.0190608 0.022569122 -0.054295726 0.020961348 -0.020602923 0.1501302 0.024372399 0.088686146
0.065539315 0.08690005 0.1553348 0.065252915 -0.033827715 -0.046001352 -0.08864965 -0.074437924
-0.15246083 0.12711225 0.13410379 -0.1665552 -0.09522473 0.020268241 0.09124006 0.012900915
-0.019519849 -0.14333166 0.0065972246 -0.017398003 -0.040434923 -0.052270297 -0.07051769 -0.06675546
0.14590952 -0.022693334 0.050743762 -0.05799806 -0.06045764 -0.02361812 0.045095637 0.21057212
0.08270661 0.049474277 -0.10811345 -0.033124637 0.010037704 0.023429636 0.07187059 -0.16647118
0.13452992 0.041113652 0.10235619 0.015429747 -0.06273473 0.21679604 -0.0067735305 -0.007009031
-0.023269411 -0.0990575 0.013089062 -0.056501493 0.040994756 0.12719119 -0.004153463 0.21319388
-0.083921514 0.030241884 0.053062722 0.07232856 0.13877878 -0.030242778 -0.02796853 0.09357819
0.07212484 0.08782135 0.07480163 -0.04285125 -0.01520668 0.011911239 -0.054832615 -0.05699881
0.025154574 0.08345789 0.056603912 -0.09594937 -0.03724835 0.06508371 0.15515046 0.12764265
0.05825131 0.09061825 -0.04998243 0.12528728 -0.084356606 -0.007918785 0.094804466 -0.05173058
0.055381123 0.06929998 -0.036549073 0.04974172 -0.03763914 -0.052047808 0.0937118 0.05481644
-0.101298146 0.0026289509 -0.082485884 -0.022281716 0.107938476 0.0037337178 0.04053654 0.1218301

X_3.0.bias f4 [128]
00000000: 6052 9bba 09d3 28be 4ee4 acbd 3377 41bc
00000010: ebca 50bd 3e97 a6bd 39b8 aa3d d6a7 9ebb
00000020: f7a4 6ebe 57af 0fbe ca56 0abe 14dd 3e3d
00000030: 4f87 42bc 5ffa 953c 39fd bebc 6372 513d
00000040: 0b79 fcbd 7d1c 4abd de05 b53c cfdd 49bd
00000050: 2080 f73d dd63 01be 8e14 1abd beec 4bbd
00000060: 39d2 32bc 5844 6cbc ff0a 493d 57af 503d
00000070: a0b4 6a3d 0dea b9bc 36b0 f4bd 2467 66bd
00000080: 5cda 993d 3c55 00bc 74fe d43d 65a3 ca3c
00000090: f54a 44bd 05cb ee3d aa58 c8bc 6eb7 ee3d
000000a0: d521 f2bc b330 ad3d 2481 053e cd0f 8b3c
000000b0: ed6e 383b dbd8 c63d 306b c5bd 84ad e7bc
000000c0: 5043 b43d 21a6 e6bc 417d 683d 31d6 b8bc
000000d0: 9a96 91bd 84a1 a0bd 26ac f7bc da9a 013e
000000e0: cc24 a83d b67b 9c39 2fee 8fbb d0ef 44be
000000f0: 647b c53d 539b 2ebc 6288 ac3c 1952 80bc
00000100: 09ec aa3d 1758 0cbd 7132 56bd ec33 59bb
00000110: c602 a5bd 10b3 9cbd 3a7d 83bc 6782 0f3e
00000120: 73ce d73d 4c05 d0bc 0895 3fbe 0651 03be
00000130: 8fd7 153c 81ab 95bd 690b 713d ee40 01be
00000140: 43db fc3b 66ca 9fbb 4768 c03d 77f0 62bd
00000150: 550d 0dbc d7b7 0cbe f903 c5bd 6c9a edbc
00000160: 97a6 0a3c 0137 1abd 434b cfbd 7118 dfbd
00000170: 98bb 913b a987 983c b6f8 a03d 0651 583d
00000180: 97ae d3bc 5db9 d83c 9835 413d ce94 2e3d
00000190: 924a ab3d 595c a0bd 9bad 8cbe a334 dcbc
000001a0: 0ca5 173c abbc c3bd 28b8 993d 3c4d 793d
000001b0: c5e3 dabc 58ef 703d d2a1 e9bb 8736 c9bc
000001c0: 27e2 643d 8171 da3d aafe b93d 977d 85be
000001d0: d074 64be 02c2 a23d d49e be3d feb1 6ebd
000001e0: c32f bcbd 1cd0 c7bd 45ce b5bd 2405 c3bd
000001f0: 0607 08ba 9e22 e5bd 884a 5bbe 5fb6 62bd
-0.0011850111 -0.16486754 -0.08441983 -0.011808204 -0.050974768 -0.08134316 0.08335919 -0.004841785
-0.23305117 -0.1403173 -0.1350967 0.046597555 -0.01187308 0.018307863 -0.023314105 0.05113448
-0.123277746 -0.049343575 0.022097524 -0.0492838 0.12084985 -0.12635751 -0.03761726 -0.04978632
-0.010914379 -0.014420591 0.049082752 0.050948467 0.057301164 -0.022694612 -0.11947672 -0.056250706
0.07512352 -0.007832821 0.104000956 0.024736116 -0.047923047 0.11659817 -0.02445634 0.1165608
-0.029557148 0.08456554 0.13037544 0.016975308 0.0028142289 0.09709331 -0.09639585 -0.02828098
0.08801901 -0.028155388 0.056760076 -0.022563072 -0.07108803 -0.07843307 -0.030233454 0.12656727
0.082101434 0.0002984681 -0.0043924074 -0.19232106 0.096426755 -0.010657149 0.021061126 -0.015664147
0.083458014 -0.034263697 -0.0522942 -0.003314252 -0.080571696 -0.07651341 -0.016050924 0.14014588
0.10537424 -0.02539315 -0.18709195 -0.12823877 0.009145631 -0.073081024 0.058848772 -0.12622425
0.0077165677 -0.0048764227 0.09394889 -0.055405106 -0.008609136 -0.13742004 -0.09619898 -0.029004298
0.00846257 -0.037650112 -0.10121777 -0.10893334 0.0044474117 0.018619375 0.07859938 0.052811645
-0.025840087 0.026455576 0.04717025 0.04262238 0.083638325 -0.07830114 -0.274762 -0.026880568
0.009255659 -0.0955747 0.07505828 0.060864672 -0.026719937 0.058822006 -0.007129886 -0.024562133
0.05587974 0.106661804 0.090817764 -0.2607238 -0.22310185 0.0794716 0.09307638 -0.058275215
-0.09188797 -0.097564906 -0.088772334 -0.09522465 -0.0005189035 -0.11188243 -0.2141515 -0.055349704
