results/RNN_parallel/s_RNN_parallel_data_insilico_seed_56_2024-03-22_PH_45/model_epoch_299_loss_0.08.pth (torch, 18184 bytes, 14 tensors)

X_1.weight_ih_l0 f4 [1, 20]
0	0x3f67feaa	0.9062296
1	0x3df89e40	0.12139559
2	0xbe95f9c4	-0.2929212
3	0x3f641980	0.8910141
4	0xbd84a5e0	-0.06476951
5	0x3ee993ac	0.45620477
6	0xbee56e18	-0.44810557
7	0xbd59ae40	-0.053144693
8	0x3ef403a4	0.47659028
9	0x3d667f60	0.056273818
10	0xbf0e7f52	-0.55663025
11	0x3f0c902c	0.5490749
12	0xbdcee9c0	-0.10103178
13	0xbee8e91c	-0.45490348
14	0xbe439530	-0.1909988
15	0x3e80b4dc	0.25137985
16	0x3e369b78	0.17832744
17	0x3cec5c40	0.028852582
18	0xbef115a0	-0.4708681
19	0xbeb28dd0	-0.3487382

X_2.weight_ih_l0 f4 [1, 20]
0	0xbf1367ea	-0.57580435
1	0x3df4b6e0	0.11948943
2	0xbeb39ec0	-0.35082054
3	0x3e854bd4	0.26034415
4	0x3f0c0dcc	0.5470855
5	0x3f0b0742	0.5430795
6	0xbe9c069c	-0.30473793
7	0x3eb12c28	0.34604
8	0xbd50dc20	-0.050991178
9	0x3d8989c0	0.06715727
10	0xbf697ab6	-0.9120287
11	0x3f57abea	0.84246695
12	0x3ebff688	0.37492776
13	0x3f397e1e	0.72458065
14	0xbede1590	-0.43375826
15	0x3c5a2c80	0.013316274
16	0x3ee0f84c	0.43939435
17	0x3c782280	0.015144944
18	0xbdbc0570	-0.091807246
19	0xbe0361f0	-0.12830329

X_3.weight_ih_l0 f4 [1, 20]
0	0xbf65c9e6	-0.897612
1	0xbf3659d8	-0.7123084
2	0x3f54fdcc	0.83199763
3	0x3f1627e4	0.5865462
4	0xbf3c48a8	-0.73548365
5	0xbefde780	-0.49590683
6	0x3f4e9ffe	0.8071288
7	0x3f127e10	0.57223606
8	0x3f09ec3a	0.5387608
9	0xbf20b414	-0.6277478
10	0xbcb56880	-0.022144556
11	0x3e3df320	0.18549776
12	0x3e9b7b38	0.30367446
13	0x3f392b9e	0.7233218
14	0x3f3333c0	0.7000084
15	0xbf72a284	-0.9477923
16	0x3f7d6f22	0.989977
17	0xbf31416a	-0.6924044
18	0xbe85f53c	-0.2616366
19	0x3e2cdae8	0.16880381

X_4.weight_ih_l0 f4 [1, 20]
0	0xbef35688	-0.47526956
1	0xbeeadf9c	-0.45873725
2	0xbeca9528	-0.39566922
3	0x3ecb6474	0.39725077
4	0x3e336850	0.17520261
5	0x3f43c1a4	0.7646735
6	0xbedac2fc	-0.42726886
7	0xbedd6184	-0.4323846
8	0xbed79384	-0.42104733
9	0x3e9b8acc	0.3037933
10	0x3e76b5c0	0.2409277
11	0x3f65af70	0.8972082
12	0x3eff760c	0.4989475
13	0xbf5bdcbc	-0.8588369
14	0xbe85af80	-0.26110458
15	0xbf07717a	-0.52907526
16	0x3f4bd160	0.79616356
17	0xbeb196ac	-0.34685266
18	0x3f14f130	0.5818052
19	0x3dce8100	0.100831985

X_5.weight_ih_l0 f4 [1, 20]
0	0x3e1807d0	0.1484673
1	0xbf3e2a06	-0.7428287
2	0xbf7da660	-0.99081993
3	0x3ed025a4	0.40653718
4	0x3c7e9a00	0.015539646
5	0x3dfb6ab0	0.122762084
6	0xbf17278c	-0.5904472
7	0xbf705944	-0.9388621
8	0x3eae9574	0.340984
9	0x3f6ef66c	0.9334476
10	0xbee92380	-0.45534897
11	0xbdd51160	-0.10403705
12	0x3d871320	0.06595445
13	0xbe985a34	-0.2975632
14	0xbee95064	-0.45569146
15	0xbee11284	-0.4395944
16	0xbf61a9fe	-0.8815001
17	0xbf22312a	-0.6335627
18	0xbf0b8b8a	-0.54509795
19	0xbe87c628	-0.2651837

X_6.weight_ih_l0 f4 [1, 20]
0	0xbf7d3708	-0.98912096
1	0xbe3e9d50	-0.18614697
2	0x3eae2420	0.34011936
3	0x3f5f4b04	0.8722384
4	0x3f55951a	0.83430636
5	0x3eed35a0	0.46329975
6	0xbf4630d2	-0.77418244
7	0x3f4db7f8	0.8035884
8	0xbf78a0d4	-0.97120404
9	0xbe4cf280	-0.20014381
10	0x3ed13d4c	0.40867078
11	0xbf70a798	-0.9400573
12	0x3e0ae390	0.1356337
13	0xbebc2164	-0.36744225
14	0x3f4b1564	0.79329515
15	0x3f402528	0.75056696
16	0x3e2fac28	0.17155516
17	0x3f060360	0.523489
18	0xbf28e624	-0.65976167
19	0x3f20206e	0.62549484

X_7.weight_ih_l0 f4 [1, 20]
0	0x3deb6b80	0.114951134
1	0xbe9e5128	-0.30921292
2	0x3e343738	0.1759919
3	0x3f556ade	0.8336619
4	0xbdac7dc0	-0.084224224
5	0xbf02b046	-0.5105022
6	0xbec0837c	-0.37600315
7	0x3f455dae	0.7709607
8	0xbf0d7550	-0.5525713
9	0x3f35283a	0.70764506
10	0xbdbac4c0	-0.09119558
11	0xbf3042ca	-0.6885191
12	0xbf3d981a	-0.74060214
13	0x3ea57758	0.32317615
14	0x3f2eb944	0.6825144
15	0xbd4cc4c0	-0.049992323
16	0xbee2baac	-0.44283044
17	0x3f7689c0	0.9630394
18	0xbf579a70	-0.8422003
19	0xbf1068e2	-0.5641004

X_8.weight_ih_l0 f4 [1, 20]
0	0xbe2448c8	-0.16043389
1	0xbf12fdd0	-0.5741854
2	0x3e284738	0.16433418
3	0xbf3c06c0	-0.734478
4	0xbeb02098	-0.34399867
5	0xbf2430cc	-0.6413696
6	0xbf1ad90e	-0.6048745
7	0xbf36984a	-0.71326125
8	0x3e7727f8	0.2413634
9	0x3f1b8a9e	0.6075839
10	0x3dcdc9f0	0.10048282
11	0x3f10b682	0.56528485
12	0xbe8a11b4	-0.2696663
13	0xbf41dc16	-0.7572645
14	0x3f41755e	0.75569713
15	0xbf6d065a	-0.92587817
16	0x3e207610	0.15670037
17	0xbe96d4ec	-0.29459321
18	0xbf75a01e	-0.95947444
19	0xbe3331d8	-0.17499483

X_9.weight_ih_l0 f4 [1, 20]
0	0x3f7dc59c	0.9912965
1	0xbee32418	-0.44363475
2	0x3bae9400	0.0053277016
3	0xbf57da9a	-0.84317935
4	0xbf3fae6e	-0.74875534
5	0x3f11084e	0.56653297
6	0x3ef5cb58	0.480067
7	0xbf7798d2	-0.9671756
8	0xbf3b0552	-0.73054993
9	0x3eccf4b8	0.40030456
10	0xbee06f40	-0.43834877
11	0xbc85cb00	-0.01633215
12	0x3ebab8f8	0.36469245
13	0x3f1be790	0.6090021
14	0xbdd26670	-0.10273445
15	0x3df5d600	0.12003708
16	0x3f487002	0.7829591
17	0x3dfd1cb0	0.12358987
18	0x3f046182	0.51711285
19	0xbf0cc77a	-0.5499188

X_10.weight_ih_l0 f4 [1, 20]
0	0x3ee3f714	0.44524443
1	0xbc565f00	-0.013084173
2	0xbf6f6fd4	-0.9353001
3	0x3cbdfc00	0.023191452
4	0xbeea1e50	-0.45726252
5	0xbf1f8fb2	-0.62328637
6	0xbde2bc30	-0.1107105
7	0xbdc4b550	-0.09604895
8	0x3e7a5638	0.24446952
9	0xbefe771c	-0.49700248
10	0x3e44f3e0	0.19233656
11	0x3f04ddbc	0.5190084
12	0xbf083504	-0.53205895
13	0x3df6e8f0	0.12056148
14	0xbe6f9840	-0.23397923
15	0xbee0cff4	-0.43908656
16	0xbe3e2410	-0.18568444
17	0x3f0f8846	0.5606731
18	0x3f454f1c	0.77073836
19	0x3edeb760	0.4349928

X_11.weight_ih_l0 f4 [1, 20]
0	0xbf4b1c44	-0.79340005
1	0x3e332a68	0.17496645
2	0x3f47f9f6	0.78115785
3	0xbe03e060	-0.12878561
4	0xbe971308	-0.29506707
5	0xbf180a2a	-0.5939051
6	0xbf681d56	-0.90669763
7	0xbf7f9002	-0.99829113
8	0xbf366e0c	-0.7126167
9	0xbf4831fe	-0.7820128
10	0x3cfe8140	0.03106749
11	0xbf39e32c	-0.7261226
12	0xbea05e20	-0.31321812
13	0xbefb4ed8	-0.4908359
14	0x3f68ab24	0.9088614
15	0x3f7765fe	0.9664
16	0xbf38d4a0	-0.7219944
17	0xbf4b52b0	-0.79423046
18	0x3f0be76e	0.5465001
19	0x3f0e123e	0.55496585

X_12.weight_ih_l0 f4 [1, 20]
0	0xbf44e742	-0.7691537
1	0x3f7c314c	0.9851272
2	0x3ee12724	0.43975174
3	0x3e92ecb4	0.28696215
4	0x3f6b0c26	0.9181541
5	0xbf453048	-0.77026796
6	0xbf48c65c	-0.7842767
7	0x3dccc450	0.09998381
8	0x3eda1654	0.4259516
9	0xbf7de7e2	-0.9918195
10	0x3f091c48	0.5355878
11	0xbf3c652e	-0.7359189
12	0xbf045dba	-0.51705515
13	0xbf5b5dbc	-0.856899
14	0xbf7de67c	-0.99179816
15	0x3f3206f2	0.6954185
16	0xbf64c66c	-0.8936527
17	0x3f1b4da6	0.6066536
18	0xbf651980	-0.89492035
19	0xbf5b3ff8	-0.85644484

X_13.weight_ih_l0 f4 [1, 20]
0	0x3ed749d4	0.42048514
1	0x3f5842f0	0.8447714
2	0x3f39b5a6	0.725428
3	0xbd61f560	-0.05516565
4	0x3f291140	0.66041946
5	0xbed35a00	-0.41279602
6	0x3f0f2c52	0.55927
7	0x3f4089f6	0.7521051
8	0xbf6b6c80	-0.9196243
9	0xbf77c810	-0.96789646
10	0xbf39bba4	-0.7255194
11	0x3e9c16ac	0.30486047
12	0xbf5907ee	-0.84777725
13	0xbf12ad36	-0.5729555
14	0xbf4787c0	-0.77941513
15	0xbf347e82	-0.70505536
16	0x3e9e7074	0.3094517
17	0xbf693036	-0.9108919
18	0x3f1f8486	0.6231159
19	0xbf08f196	-0.5349363

output.weight f4 [1, 13]
0	0xbdda05ad	-0.10645614
1	0xbcdaf90a	-0.02673008
2	0xbde87ae0	-0.113515615
3	0xbdd292e6	-0.10281925
4	0xbeabf028	-0.33581662
5	0x3d291f0d	0.041289378
6	0xbf05b70c	-0.5223243
7	0xbcd9dbd4	-0.02659408
8	0xbd70c2f2	-0.058779664
9	0x3d6781d9	0.056520317
10	0xbcab85b7	-0.020937784
11	0xbea2b03e	-0.31775087
12	0xbe4fca72	-0.2029207
