results/MLP_tree/hidden_size_128/s_MLP_tree_data_insilico_seed_56_2024-03-12_PH_120/model_epoch_103_loss_0.06.pth (torch, 722276 bytes, 23 tensors)

X_1.0.weight f4 [128, 20]
0.18298894 0.05033273 -0.026242772 0.1794586 -0.05299303 0.077463835 -0.077321306 -0.031483296
0.07524929 -0.010284229 -0.14305358 0.10420568 -0.041057367 -0.120008655 -0.060764678 0.03842899
0.022400374 -0.0107018575 -0.12211588 -0.094489075 -0.18693994 -0.15926959 -0.44557813 -0.14556462
-0.24316852 -0.11593864 0.19208823 -0.059574112 0.16831794 -0.04716392 0.02896147 -0.060364306
-0.035762727 -0.2569815 0.13310982 0.026620183 0.1031822 -0.15712674 -0.058185536 0.03629512
0.04728086 -0.022946969 0.017586505 0.09623715 -0.2063203 0.0859582 -0.2714462 -0.11553635
0.059218533 0.19436125 -0.2555161 -0.2022502 0.088227175 0.03479941 0.026638733 -0.23459218
-0.09932119 -0.05282204 -0.026154185 0.068063326 0.13903059 -0.1775541 0.25926265 -0.123220704
-0.026186617 0.06821614 0.022948435 -0.02741617 -0.029390061 -0.07800327 -0.14527784 -0.1311692
0.046156447 -0.0034413482 0.12843591 -0.13799778 -0.13904859 -0.1364167 0.02575499 0.0117936535
0.029961208 0.45514745 -0.57966256 -0.003908598 -0.45116684 -0.02971959 -0.21795243 -0.040019114
0.029132774 -0.30013895 -0.022521166 -0.12733406 0.068669625 -0.13122892 -0.18731982 0.12448752
0.036414888 0.059731077 -0.10042612 -0.17904906 0.052947268 0.2655341 -0.35225287 -0.1571849
0.022163872 -0.07803856 -0.1880046 -0.12140849 -0.16521786 -0.11196965 -0.08233424 -0.019945024
-0.14014718 -0.18029842 0.000541694 -0.18651107 -0.008448176 0.10775984 0.22532618 0.215496
-0.05076431 -0.28183982 0.37240124 -0.13246045 -0.2882388 -0.14781936 -0.28804174 -0.12426667
-0.20388931 0.3288695 0.07310256 -0.056863416 0.020534553 -0.24499208 0.042260602 -0.1546986
-0.19874212 -0.16539495 -0.06484834 -0.1567168 0.07784371 0.28451464 -0.02139652 0.12734689
-0.047299135 0.114465855 -0.36293054 0.19669472 -0.07557242 -0.45571148 -0.20826241 0.02984618
0.11106658 -0.051550034 -0.13817 0.17731526 -0.22535104 -0.16234651 0.18249087 -0.18954661
-0.07095968 0.043265983 -0.09229447 0.009127726 -0.13671148 0.005807555 -0.057700865 -0.059130654
-0.08558659 0.054902643 0.077394664 -0.03584349 0.068621024 -0.117308065 -0.22544326 0.11381567
-0.26119834 -0.01815378 -0.11811653 -0.26589194 -0.10980858 0.16494203 0.5006475 0.10122259
-0.045564767 -0.08687879 0.016126312 -0.25924367 -0.22910708 0.06848727 0.12745711 -0.19641496
-0.14440063 0.10733815 -0.08126066 0.012189495 0.09667196 0.15077862 -0.008714128 0.040894136
0.1366605 -0.028018376 0.11393204 -0.12119299 -0.0970077 -0.015330825 -0.14920948 0.061117403
0.07311987 -0.09705399 -0.03579646 -0.14329053 -0.18062575 -0.06626914 -0.0632275 0.012721758
-0.15320852 0.0008435513 0.073849656 -0.16116816 0.06121482 -0.03650021 -0.14243872 -0.057710223
0.03604862 0.16556269 0.14083874 -0.077352345 0.19518597 -0.010454195 -0.10393651 0.11223944
0.2466248 0.041718557 0.003149421 -0.064865716 -0.13576853 -0.15698367 -0.09364081 -0.10952448
0.011024908 -0.096021324 -0.03855499 -0.23345208 0.15710945 0.19501448 -0.10275679 -0.17356864
0.13720977 0.21152245 -0.19733816 -0.12833676 -0.08090129 -0.24240577 0.1509709 0.030201865
00000000: 7461 3b3e b129 4e3d 15fb d6bc ffc3 373e
00000010: 380f 59bd 5ca5 9e3d a25a 9ebd a1f4 00bd
00000020: 4d1c 9a3d 2f7f 28bc a37c 12be ca69 d53d
00000030: c52b 28bd 19c7 f5bd 62e4 78bd b767 1d3d
00000040: fd80 b73c d856 2fbc e417 fabd 7d83 c1bd
00000050: 2f6d 3fbe 9117 23be d122 e4be e40e 15be
00000060: 2b01 79be 3d71 edbd c7b2 443e fc03 74bd
00000070: 8a5b 2c3e f42e 41bd 9b40 ed3c 9040 77bd
00000080: f07b 12bd 1493 83be f14d 083e 9212 da3c
00000090: 3051 d33d d5e5 20be f553 6ebd 31aa 143d
000000a0: 93a9 413d 48fb bbbc 9311 903c fc17 c53d
000000b0: a145 53be da0a b03d fffa 8abe 529e ecbd
000000c0: 228f 723d a306 473e 02d3 82be ad1a 4fbe
000000d0: 73b0 b43d d389 0e3d 7939 da3c ef38 70be
000000e0: e868 cbbd ec5b 58bd 4d41 d6bc c964 8b3d
000000f0: 095e 0e3e bed0 35be 13be 843e 235b fcbd
00000100: 5185 d6bc e7b4 8b3d 5bfe bb3c e097 e0bc
00000110: 6dc3 f0bc 2ec0 9fbd b7c3 14be 3851 06be
00000120: 8b0e 3d3d 3e88 61bb b484 033e 4a4f 0dbe
00000130: c162 0ebe d2b0 0bbe 21fc d23c 2b3a 413c
00000140: 3571 f53c 1609 e93e c464 14bf b213 80bb
00000150: 57ff e6be 7f76 f3bc ec2e 5fbe 15eb 23bd
00000160: dba7 ee3c d0ab 99be 4f7e b8bc dc63 02be
00000170: a9a2 8c3d e060 06be c4d0 3fbe 50f3 fe3d
00000180: c727 153d 93a8 743d 36ac cdbd a358 37be
00000190: 3cdf 583d 16f4 873e 7d5a b4be 14f5 20be
000001a0: 0291 b53c aed2 9fbd 4784 40be 04a5 f8bd
000001b0: df2e 29be 5850 e5bd db9e a8bd bf63 a3bc
000001c0: be82 0fbe 26a0 38be 7800 0e3a c2fc 3ebe
000001d0: 386a 0abc 31b1 dc3d e8bb 663e fcaa 5c3e
000001e0: 3dee 4fbd 4f4d 90be 60ab be3e b6a3 07be
000001f0: 0994 93be f55d 17be 357a 93be 867f febd
00000200: 5cc8 50be 9561 a83e ccb6 953d 9de9 68bd
00000210: 1438 a83c 34df 7abe 7419 2d3d 4f69 1ebe
00000220: 0e83 4bbe 4b5d 29be 35cf 84bd 5e7a 20be
00000230: 866c 9f3d e7ab 913e c147 afbc 3967 023e
00000240: bdbc 41bd 136d ea3d 08d2 b9be 576a 493e
00000250: b7c5 9abd 0453 e9be be42 55be fa7f f43c
00000260: e076 e33d 2126 53bd 707c 0dbe 2292 353e
00000270: 6cc2 66be 2a3e 26be e3de 3a3e 8218 42be
00000280: 4f53 91bd ac37 313d e204 bdbd 758c 153c
00000290: 18fe 0bbe 4d4d be3b be57 6cbd fc32 72bd
000002a0: 0648 afbd 98e1 603d 1881 9e3d a0d0 12bd
000002b0: 2e89 8c3d 363f f0bd 99da 66be 3118 e93d
000002c0: cabb 85be 3cb7 94bc 14e7 f1bd fd22 88be
000002d0: 52e3 e0bd 90e6 283e 6f2a 003f ca4d cf3d
000002e0: 1fa2 3abd 82ed b1bd 541b 843c 96bb 84be
000002f0: 0c9b 6abe 0e43 8c3d 1e84 023e 0121 49be
00000300: c2dd 13be 1bd4 db3d fd6b a6bd 73b6 473c
00000310: f3fb c53d b665 1a3e b4c5 0ebc 9c80 273d
00000320: bbf0 0b3e cb86 e5bc 3455 e93d 0834 f8bd
00000330: f9ab c6bd 242e 7bbc 5fca 18be 3e56 7a3d
00000340: dfbf 953d 3ec4 c6bd 4f9f 12bd c1ba 12be
00000350: f5f5 38be 1db8 87bd 6b7d 81bd ec6e 503c
00000360: b2e2 1cbe c521 5d3a 7d3e 973d 4409 25be
00000370: 64bc 7a3d 3f81 15bd 75db 11be 8e61 6cbd
00000380: b8a7 133d 4489 293e 0838 103e e86a 9ebd
00000390: d5de 473e 1248 2bbc aadc d4bd cbdd e53d
000003a0: 368b 7c3e 14e1 2a3d 8466 4e3b 51d8 84bd
000003b0: e806 0bbe 54c0 20be c1c6 bfbd 5f4e e0bd
000003c0: d1a1 343c d4a6 c4bd d6eb 1dbd 100e 6fbe
000003d0: 4de1 203e e0b1 473e 2772 d2bd fabb 31be
000003e0: b880 0c3e 5799 583e 0413 4abe b66a 03be
000003f0: 93af a5bd 3839 78be 1e98 1a3e e769 f73c

X_1.0.bias f4 [128]
0.15664661 -0.11582153 -0.30736357 0.13091747 0.1165748 -0.090444185 -0.01758022 -0.14399041
-0.12193007 0.018333722 0.0966896 0.26610574 0.004792422 0.12828544 0.019186944 0.03392825
-0.31331784 0.10301295 0.09970626 0.07541562 0.12825662 0.13509835 -0.012250982 0.060518198
-0.16015863 -0.021717185 -0.120693475 0.1527629 -0.2584138 -0.15273504 0.047465924 -0.22222489
0.069749676 -0.15845852 0.14156069 -0.20169498 0.14547178 -0.1277943 -0.27368867 -0.2637511
0.04872845 -0.19497663 0.21396257 -0.115641564 -0.12205315 0.1549347 -0.030367097 -0.2433855
0.11727943 0.16983555 -0.11343927 0.027398016 0.1554155 0.01910213 -0.17500727 0.17487077
-0.17315699 -0.18473957 0.19410533 0.20878886 -0.22003295 0.015010413 0.08360953 -0.050914608
-0.08134934 -0.008175868 0.05416801 -0.21964744 0.095575966 0.17450151 -0.28556997 -0.27654612
-0.0633438 -0.18613762 -0.20506711 -0.11503192 -0.13552846 -0.12781964 -0.22365984 0.11183569
-0.07748977 -0.16036008 -0.2649396 -0.20818257 -0.012876693 -0.17484653 -0.18417245 0.089793764
-0.06460866 0.060805406 0.11869437 0.003530393 -0.03349516 -0.12387608 0.09339873 -0.017144242
-0.25807014 0.13174582 -0.12510534 -0.1473912 0.10967857 -0.16808435 -0.09778966 -0.114881195
0.055507276 -0.08234916 -0.14212975 -0.058883704 -0.16451783 0.12697305 0.17357744 -0.11992278
-0.2598676 -0.20291542 0.042737566 -0.0710854 -0.18037781 -0.013439476 0.19117336 0.063564464
0.13415152 -0.07906368 0.07998176 -0.18081059 0.3208546 -0.010469839 -0.12244932 -0.20834616
00000000: f867 203e d733 edbd c25e 9dbe 3b0f 063e
00000010: c5be ee3d cd3a b9bd 6504 90bc 3972 13be
00000020: 79b6 f9bd 9a30 963c 3205 c63d 033f 883e
00000030: c009 9d3b 425d 033e f02d 9d3c 59f8 0a3d
00000040: 326b a0be 74f8 d23d cc32 cc3d 8173 9a3d
00000050: b455 033e 3957 0a3e 58b8 48bc eee1 773d
00000060: a000 24be 3de8 b1bc 242e f7bd e16d 1c3e
00000070: d04e 84be 9366 1cbe a16b 423d ec8e 63be
00000080: ebd8 8e3d f342 22be 49f5 103e 2189 4ebe
00000090: 8ef6 143e 82dc 02be ec20 8cbe 620a 87be
000000a0: 7c97 473d f4a7 47be 0119 5b3e 7cd5 ecbd
000000b0: 00f7 f9bd 34a7 1e3e 6bc4 f8bc 0c3a 79be
000000c0: 3330 f03d 5fe9 2d3e d952 e8bd ce71 e03c
000000d0: 3e25 1f3e 127c 9c3c 1b35 33be 5311 333e
000000e0: 1150 31be 5f2c 3dbe 8cc3 463e bfcc 553e
000000f0: 5150 61be 3cee 753c 793b ab3d d68b 50bd
00000100: 7c9a a6bd 13f4 05bc 46df 5d3d 42eb 60be
00000110: 55bd c33d 86b0 323e 3a36 92be 7497 8dbe
00000120: 65ba 81bd dc9a 3ebe 1dfd 51be db95 ebbd
00000130: f9c7 0abe 27e3 02be 1607 65be 1c0a e53d
00000140: f5b2 9ebd 6f35 24be 2aa6 87be d02d 55be
00000150: c4f8 52bc f80a 33be b497 3cbe cbe5 b73d
00000160: 8c51 84bd 170f 793d 0916 f33d 2a5e 673b
00000170: 3932 09bd beb2 fdbd d547 bf3d 1572 8cbc
00000180: c521 84be 60e8 063e 9d1b 00be b8ed 16be
00000190: 289f e03d 4e1e 2cbe f245 c8bd d546 ebbd
000001a0: 995b 633d ada6 a8bd 768a 11be 0a30 71bd
000001b0: 5d77 28be 3905 023e 49be 313e 139a f5bd
000001c0: 5e0d 85be 0fc9 4fbe 960d 2f3d 3995 91bd
000001d0: f6b4 38be 3f31 5cbc f3c2 433e 162e 823d
000001e0: 045f 093e 23ec a1bd 7acd a33d 6926 39be
000001f0: 0e47 a43e b089 2bbc b6c6 fabd b258 55be

X_10.0.weight f4 [128, 20]
0.010278757 0.11130033 -0.050025273 0.14813372 -0.15936773 0.032616172 -0.15061872 0.055947892
0.024500186 -0.1565439 -0.1198716 0.039492663 -0.22532865 0.03874063 0.100747146 0.15735105
0.15365133 -0.18394744 -0.066356376 -0.27788287 0.08897959 0.0040990906 0.18153803 0.1722983
0.24592534 -0.07054002 -0.03453162 -0.044463504 0.21682952 0.11503837 -0.18443458 0.05340451
-0.08308677 -0.059911028 0.037680555 0.109920934 -0.158064 0.14175615 0.05795428 -0.27972174
-0.072884336 0.088931605 0.011504074 0.20802602 -0.15398288 -0.010317253 0.28636414 0.12329708
-0.014688744 -0.018576989 -0.103330255 -0.107894324 -0.29660457 -0.19218902 -0.18967912 -0.08424345
0.07498844 -0.035009786 -0.34332013 -0.3450436 0.19187331 -0.14628063 0.15053694 -0.083449155
0.13563906 -0.073329724 0.16831869 -0.11979475 0.018532533 -0.12501116 -0.21760423 0.12134723
-0.01669549 -0.120714515 -0.12996428 0.17529424 -0.0008431523 -0.24073087 0.0014516424 0.09050077
0.043386485 -0.023029307 -0.017554415 0.14324448 0.16722295 0.24865955 0.023512356 -0.08499146
0.11207501 0.1547548 -0.24242884 -0.09437126 -0.0062133186 -0.10684204 -0.061638653 -0.31447387
-0.109481625 -0.1645878 0.031179104 -0.10719429 3.220653e-05 -0.24682572 -0.36785436 0.036356665
0.164734 0.26875353 -0.34438697 0.18341422 -0.28322354 0.047814187 0.013821896 -0.052688766
0.0042036157 -0.2074579 -0.12392089 0.11928022 -0.14899847 -0.22079332 -0.060140487 -0.118606254
0.04496225 0.25792125 0.19774158 -0.22171505 -0.036356583 -0.15330087 -0.16839288 0.17275798
-0.03602626 0.20392106 0.19478475 -0.039779574 -0.037907653 -0.04981295 0.21637034 -0.035994392
-0.09377163 0.1294221 0.047732696 0.15905681 0.2125839 0.03750277 0.05483208 -0.10945114
0.18717644 -0.08043747 -0.12878454 -0.0640524 0.13890617 -0.10494226 -0.13634126 -0.15639135
0.15340838 -0.010042528 0.10462196 -0.16078112 -0.03810364 0.10449869 0.077905454 0.040487904
0.30642438 -0.10118922 -0.28750125 0.27544186 0.15257123 0.022898026 -0.43039042 -0.023956353
-0.41896927 0.24240611 -0.11569145 -0.19349054 0.10220775 0.057350807 -0.025753096 -0.042737164
0.12542407 0.10553595 -0.13602161 -0.15307169 0.03599987 -0.13682762 0.3872655 -0.05462785
0.05951897 0.0024924092 -0.27109095 0.10094844 0.18820754 0.26901904 -0.10547985 0.12424728
-0.064288035 0.11709001 -0.01804806 0.21951878 0.11401533 0.015626006 0.11795771 0.15934959
-0.1290207 -0.07489735 0.20574406 0.2578706 0.15162927 0.28091824 -0.024950892 0.123442166
-0.26551318 -0.09282277 -0.120617636 0.17453551 -0.0027196798 -0.24875958 -0.24782754 -0.25597087
-0.11416239 -0.27725494 0.11647189 0.03990592 -0.03140973 -0.06786398 0.15452419 -0.031185715
0.17656292 0.23922482 -0.1721247 0.07745527 -0.15569802 -0.10689595 -0.2206395 -0.03267135
-0.1980699 -0.1600353 -0.12823737 0.010025721 -0.13678014 -0.16906154 -0.048930723 -0.14615525
-0.31709847 -0.11130506 0.25490478 0.23619209 0.07106552 -0.1878405 -0.008713564 -0.16763946
-0.10887449 0.43285272 0.009129439 0.0076621054 0.11749846 0.101009086 0.1618801 -0.23030552
00000000: 3b68 283c 6df1 e33d 4de7 4cbd 5eb0 173e
00000010: 4b31 23be 8998 053d cb3b 1abe 9e29 653d
00000020: 9db4 c83c 0b4d 20be 3e7f f5bd 0fc3 213d
00000030: 8ebc 66be 7fae 1e3d 8554 ce3d a220 213e
00000040: c656 1d3e b85c 3cbe dae5 87bd aa46 8ebe
00000050: ee3a b63d aa51 863b 1be5 393e f76e 303e
00000060: dad3 7b3e 4977 90bd 0771 0dbd 5d1f 36bd
00000070: 8f08 5e3e 3d99 eb3d 6bdc 3cbe b0be 5a3d
00000080: 6529 aabd 4465 75bd ed56 1a3d 3a1e e13d
00000090: 87db 21be 8628 113e 7861 6d3d b037 8fbe
000000a0: 6244 95bd c621 b63d 957b 3c3c c604 553e
000000b0: b0ad 1dbe b209 29bc 529e 923e 2e83 fc3d
000000c0: 0fa9 70bc c52e 98bc d09e d3bd b3f7 dcbd
000000d0: 8edc 97be 33cd 44be 3e3b 42be d487 acbd
000000e0: 8a93 993d 6c66 0fbd a8c7 afbe 8ea9 b0be
000000f0: 707a 443e 97ca 15be 5b26 1a3e 64e7 aabd
00000100: f7e4 0a3e e52d 96bd bc5b 2c3e f356 f5bd
00000110: 8ad1 973c ed02 00be a5d3 5ebe e684 f83d
00000120: fbc4 88bc 2c39 f7bd 5b15 05be 5580 333e
00000130: fe06 5dba 2782 76be 0945 be3a 7858 b93d
00000140: 07b6 313d f5a7 bcbc 47ce 8fbc aeae 123e
00000150: 7e3c 2b3e 9ca0 7e3e fc9c c03c 0110 aebd
00000160: 9587 e53d 0b78 1e3e 443f 78be b845 c1bd
00000170: 1899 cbbb 00d0 dabd d078 7cbd b802 a1be
00000180: e737 e0bd b489 28be 526b ff3c ae88 dbbd
00000190: 8015 0738 e2bf 7cbe 6857 bcbe baea 143d
000001a0: 08b0 283e 109a 893e 7d53 b0be f0d0 3b3e
000001b0: ad02 91be cfd8 433d 3c75 623c 2dd0 57bd
000001c0: 7cbe 893b d86f 54be 3cca fdbd 3049 f43d
000001d0: 0e93 18be a517 62be df55 76bd d6e7 f2bd
000001e0: 562a 383d 410e 843e c57c 4a3e 4509 63be
000001f0: a4ea 14bd e7fa 1cbe 2f6f 2cbe 78e7 303e
00000200: 4690 13bd afd0 503e a775 473e e8ef 22bd
00000210: 0e45 1bbd aa08 4cbd 3090 5d3e db6e 13bd
00000220: 570b c0bd 3a87 043e 5c83 433d cadf 223e
00000230: 98af 593e 819c 193d 9a97 603d eb27 e0bd
00000240: 2eab 3f3e 66bc a4bd 18e0 03be e82d 83bd
00000250: 6b3d 0e3e f8eb d6bd 0b9d 0bbe 0e25 20be
00000260: 1617 1d3e 6a89 24bc 0a44 d63d cea3 24be
00000270: 9012 1cbd 6903 d63d e58c 9f3d a5d6 253d
00000280: a8e3 9c3e 4b3c cfbd 5d33 93be b706 8d3e
00000290: a23b 1c3e a494 bb3c 225c dcbe 1d40 c4bc
000002a0: 2483 d6be 4f39 783e a4ef ecbd 6222 46be
000002b0: 4c52 d13d aee8 6a3d 28f8 d2bc 2a0d 2fbd
000002c0: 2b6f 003e 3b23 d83d 4049 0bbe d3be 1cbe
000002d0: 9a74 133d 8a1c 0cbe aa47 c63e 74c1 5fbd
000002e0: 2aca 733d b057 233b 6fcc 8abe 0ebe ce3d
000002f0: 7ab9 403e ddbc 893e d205 d8bd 5c75 fe3d
00000300: 72a9 83bd e3cc ef3d 86d9 93bc 88c9 603e
00000310: df80 e93d 1c02 803c d093 f13d 8a2c 233e
00000320: 011e 04be c863 99bd 92ae 523e 9e07 843e
00000330: b444 1b3e 84d4 8f3e d065 ccbc 3fcf fc3d
00000340: 58f1 87be dd19 bebd 6106 f7bd 70b9 323e
00000350: a83c 32bb d5ba 7ebe 81c6 7dbe 9d0e 83be
00000360: f9cd e9bd 5cf4 8dbe d088 ee3d 6474 233d
00000370: 7da7 00bd 45fc 8abd 973b 1e3e 2f79 ffbc
00000380: e9cc 343e 5af7 743e 7541 30be dea0 9e3d
00000390: 4d6f 1fbe 44ec dabd 52ef 61be 65d2 05bd
000003a0: d6d2 4abe 4be0 23be a850 03be ec42 243c
000003b0: 1810 0cbe 781e 2dbe 956b 48bd b9a9 15be
000003c0: bb5a a2be e8f3 e3bd e182 823e 57dc 713e
000003d0: cd8a 913d 4359 40be 56c3 0ebc aea9 2bbe
000003e0: 97f9 debd df9e dd3e a493 153c 6612 fb3b
000003f0: 08a3 f03d dadd ce3d e6c3 253e 36d5 6bbe

X_10.0.bias f4 [128]
-0.03862256 -0.24987718 -0.2963912 0.044722747 -0.09009298 -0.105454296 -0.115511835 0.14416997
0.19771232 -0.060944907 0.043028507 0.10286105 0.04781514 -0.17726338 0.19453835 0.056019537
-0.23403822 0.115445815 -0.16831872 0.15993404 -0.04126338 -0.013658671 0.07898591 -0.18775861
-0.29797053 -0.2438242 -0.061546262 -0.2865319 0.05056357 -0.1033959 0.060734287 -0.26998067
-0.066838466 0.109141596 -0.19324118 -0.11838869 0.16443808 -0.1724549 -0.05524804 -0.17115678
0.18811488 0.14362296 0.17783426 -0.098850705 0.11971172 -0.110730566 -0.23166975 -0.17831519
0.13553935 -0.07092637 0.015515494 -0.06865047 -0.045077406 -0.17880966 0.013636845 0.04741373
-0.13241388 0.04047173 0.04076979 -0.0034623987 0.17343453 0.15124679 0.072621584 -0.04719366
0.033888128 0.1740753 0.21892413 0.033896398 0.008419464 -0.25556755 0.10531845 -0.054098338
0.09498629 0.14384738 -0.19628723 -0.16875225 -0.10965481 -0.14063506 0.006456206 -0.065118596
0.12192002 -0.015660247 0.08756023 -0.20174411 0.16114093 0.19419691 -0.14494576 -0.020314248
0.08929247 0.056565277 -0.0205621 0.016486794 -0.21106765 0.04266478 0.12634689 0.10704909
0.2683575 -0.015656112 -0.09851087 -0.092263766 -0.09312532 -0.07228448 -0.23014739 -0.18068154
-0.21114823 0.033386786 0.19250739 -0.15086159 -0.15098183 -0.15866058 -0.19882415 0.1252714
0.02920829 -0.03679418 0.10255669 -0.10512837 0.050689507 -0.16165565 0.16400354 0.18698949
0.13669309 -0.11175456 -0.32452288 0.029856699 0.2460121 -0.07226863 -0.14376338 -0.25893643
00000000: b132 1ebd cedf 7fbe 96c0 97be 332f 373d
00000010: ab82 b8bd 6cf8 d7bd 7891 ecbd 4ba1 133e
00000020: 1975 4a3e 5ea1 79bd a93e 303d d0a8 d23d
00000030: cfd9 433d 8884 35be 1035 473e be74 653d
00000040: b7a7 6fbe db6e ec3d be5b 2cbe c0c5 233e
00000050: ca03 29bd 9ec8 5fbc 5dc3 a13d cb43 40be
00000060: 988f 98be 0dad 79be ef17 7cbd 4fb4 92be
00000070: bf1b 4f3d 3bc1 d3bd 84c4 783d e83a 8abe
00000080: 9be2 88bd a185 df3d 04e1 45be c575 f2bd
00000090: 7562 283e 0498 30be c54b 62bd b943 2fbe
000000a0: 30a1 403e e611 133e 2f1a 363e 3d72 cabd
000000b0: 6b2b f53d b5c6 e2bd d63a 6dbe 4298 36be
000000c0: d4ca 0a3e d841 91bd b334 7e3c 9e98 8cbd
000000d0: 16a3 38bd e119 37be 136d 5f3c e634 423d
000000e0: 8197 07be afc5 253d 39fe 263d 69e9 62bb
000000f0: d298 313e 70e0 1a3e a0ba 943d 244e 41bd
00000100: 47ce 0a3d cc40 323e a62d 603e f3d6 0a3d
00000110: cbf1 093c c0d9 82be 33b1 d73d 3896 5dbd
00000120: 2c88 c23d ba4c 133e 85ff 48be 64cd 2cbe
00000130: b392 e0bd a302 10be 958e d33b e65c 85bd
00000140: 34b1 f93d eb49 80bc c752 b33d 0296 4ebe
00000150: 2102 253e 8edb 463e a96c 14be 116a a6bc
00000160: f8de b63d feb0 673d d971 a8bc 500f 873c
00000170: 1e22 58be 44c1 2e3d 1461 013e 8e3c db3d
00000180: 2766 893e 3f41 80bc 11c0 c9bd c9f4 bcbd
00000190: 7db8 bebd e309 94bd c2ab 6bbe 9504 39be
000001a0: 3e37 58be 95c0 083d a820 453e 767b 1abe
000001b0: fb9a 1abe eb77 22be 8f98 4bbe 2547 003e
000001c0: 3946 ef3c 7eb5 16bd 3e09 d23d 8b4d d7bd
000001d0: cd9f 4f3d 0f89 25be 8bf0 273e 2c7a 3f3e
000001e0: 46f9 0b3e 93df e4bd dd27 a6be 0996 f43c
000001f0: 99ea 7b3e 9301 94bd b536 13be 5193 84be

X_11.0.weight f4 [128, 20]
-0.18241389 0.15912654 0.19914605 -0.1267039 -0.09804889 -0.20647225 -0.016928418 0.1444745
-0.11429651 0.2196839 0.05723354 -0.15229906 0.15670672 -0.23055866 -0.19633096 0.023616761
0.06947882 0.08618614 -0.21105792 -0.073859036 -0.20711686 0.1457573 -0.0058116056 0.16082272
-0.18979836 -0.20362177 0.07384931 -0.0630946 -0.29069307 0.250612 0.04991955 0.057091396
0.038015675 0.11834808 -0.020891305 0.07026496 -0.16479257 -0.0788498 -0.1924821 -0.19992019
-0.03158158 -0.06737243 -0.4542136 -0.055723537 -0.6421702 0.046477027 0.12921667 -0.006852498
0.18062599 -0.22877736 0.040033236 -0.2176719 -0.0930249 0.065746225 -0.060322545 0.015388701
-0.14933324 -0.19706541 -0.21922396 0.04926244 -0.2912758 -0.1455965 -0.44205308 -0.11108075
-0.24251224 -0.025258241 0.23437619 -0.11147243 0.058831293 -0.16124989 -0.24915011 -0.08753269
0.077821754 -0.1533564 0.08841699 -0.0005799594 0.011693841 -0.17247579 -0.0586933 -0.21817246
0.012059177 0.03999918 -0.035720702 -0.08180593 0.10238585 -0.041853722 0.21878476 -0.08061845
-0.037349883 -0.0059774653 0.09669784 -0.075584844 -0.13454166 0.120663166 -0.016048439 -0.06641592
-0.0073024244 -0.22134668 -0.2743013 -0.27574036 0.02239069 -0.09081864 -0.17449102 -0.102027014
-0.036440156 -0.0576682 0.317617 0.035207845 -0.08160812 -0.17006409 -0.093364134 -0.12873903
-0.21256818 -0.22283685 -0.0329073 0.16377929 -0.18404058 0.15521443 0.16048802 0.16111548
-0.1055072 -0.121594034 0.35822794 0.03601399 -0.10105482 -0.21286139 -0.34270144 -0.21965328
-0.31600088 -0.064357094 0.1879755 0.06954634 0.03910179 -0.09889729 0.06735594 0.06823231
0.20031522 -0.08493393 -0.20513932 0.12908332 -0.1137546 0.02730661 0.12686127 -0.13002989
0.07756479 0.05746693 0.08948147 0.054406177 0.14699697 0.0015263497 -0.17094705 0.16315828
0.16293307 -0.1660318 0.0015168907 -0.043623783 -0.030719573 0.006090539 -0.2345527 0.03827733
-0.112039186 0.036941387 0.019310512 -0.099470384 -0.25342926 -0.106552355 0.017416341 0.16063474
-0.018581495 -0.15059666 -0.116684586 -0.1922228 0.11172462 -0.20225297 -0.22155535 -0.08665661
-0.1702676 0.018450778 -0.1939001 -0.14651896 0.07462741 -0.12620114 -0.36434102 -0.1781871
-0.33946595 0.18662891 0.118389435 -0.020485254 0.16447961 -0.42654762 -0.27287856 -0.13214703
-0.20217294 -0.15494183 0.021198558 -0.31113797 -0.030866457 -0.0680865 0.02841238 0.017936822
0.032689545 0.14844106 -0.09429459 0.04601009 0.060723104 -0.24159177 0.16782348 0.016893355
0.22833666 -0.20371285 -0.012585317 -0.25160587 -0.09288559 -0.15070711 -0.093543 -0.06539937
-0.03921502 -0.018286077 -0.1392309 -0.123145886 0.07720414 -0.14474864 -0.3837292 0.069919996
0.059963305 -0.089714415 0.057327896 -0.09286823 -0.33751065 0.02187467 0.0001357549 0.0015693618
-0.15285884 0.11572842 -0.13609251 0.082177006 -0.26022905 0.109597474 -0.28380314 -0.031012323
0.12854378 0.11380323 -0.032250572 0.031101009 0.13959873 -0.10547128 -0.03978127 -0.11300479
0.002698285 0.09407127 -0.04665316 -0.14935374 0.14582245 -0.0108884545 0.11633817 -0.25128704
00000000: b5ca 3abe 11f2 223e f1ec 4b3e abbe 01be
00000010: dbcd c8bd 766d 53be 77ad 8abc 20f1 133e
00000020: 4a14 eabd d1f4 603e b76d 6a3d 49f4 1bbe
00000030: ba77 203e 9217 6cbe fc0a 49be f077 c13c
00000040: e94a 8e3d 5c82 b03d 911f 58be 6843 97bd
00000050: 7116 54be 6741 153e 486f bebb b6ae 243e
00000060: 805a 42be 3a82 50be 4f3e 973d be37 81bd
00000070: b9d5 94be 3750 803e 7178 4c3d abd8 693d
00000080: 53b6 1b3d 7a60 f23d 3e24 abbc 13e7 8f3d
00000090: 62bf 28be 017c a1bd 071a 45be e1b7 4cbe
000000a0: b05b 01bd 8efa 89bd af8e e8be 5d3e 64bd
000000b0: 4465 24bf b25e 3e3d 6051 043e eb8a e0bb
000000c0: 05f6 383e 9d44 6abe e4f9 233d 62e5 5ebe
000000d0: d783 bebd f5a5 863d c614 77bd e420 7c3c
000000e0: d0ea 18be 84cb 49be 3f7c 60be 6ac7 493d
000000f0: 1a22 95be 4017 15be c854 e2be 4e7e e3bd
00000100: 2155 78be 5fea cebc 5000 703e a84b e4bd
00000110: 15f9 703d b11e 25be 3521 7fbe 5744 b3bd
00000120: 0361 9f3d 7609 1dbe f813 b53d 6b08 18ba
00000130: 8697 3f3c 7e9d 30be 6368 70bd 9a68 5fbe
00000140: db93 453c 2ed6 233d df4f 12bd de89 a7bd
00000150: acaf d13d cf6e 2bbd 1d09 603e 491b a5bd
00000160: 31fc 18bd 9dde c3bb 8409 c63d 3acc 9abd
00000170: 4ac5 09be 401e f73d 0478 83bc 1205 88bd
00000180: 2d49 efbb b4a8 62be 3871 8cbe d72d 8dbe
00000190: ae6c b73c 20ff b9bd c6ad 32be 8af3 d0bd
000001a0: 4642 15bd 7e35 6cbd b29e a23e 1a36 103d
000001b0: 2822 a7bd 4825 2ebe b235 bfbd 2ad4 03be
000001c0: 79ab 59be 582f 64be cec9 06bd c2b5 273e
000001d0: 2275 3cbe 88f0 1e3e f956 243e 75fb 243e
000001e0: 2914 d8bd 4b06 f9bd a769 b73e 6883 133d
000001f0: d4f5 cebd 56f8 59be 9076 afbe caec 60be
00000200: deca a1be a7cd 83bd a67c 403e 506e 8e3d
00000210: 3329 203d aa8a cabd e9f1 893d 62bd 8b3d
00000220: 6f1f 4d3e d7f1 adbd 0b10 52be 6b2e 043e
00000230: 2cf8 e8bd 1db2 df3c ece7 013e 8e26 05be
00000240: 4ada 9e3d 7262 6b3d 1042 b73d 03d9 5e3d
00000250: 6086 163e cc0f c83a be0c 2fbe f712 273e
00000260: edd7 263e 3d04 2abe 68d2 c63a daae 32bd
00000270: 9da7 fbbc 2593 c73b 952e 70be b1c8 1c3d
00000280: cd74 e5bd da4f 173d 1431 9e3c 21b7 cbbd
00000290: 7bc1 81be 1f38 dabd b7ac 8e3c 6f7d 243e
000002a0: 3838 98bc 0336 1abe 54f8 eebd 0ed6 44be
000002b0: e1cf e43d 671b 4fbe 68df 62be 0579 b1bd
000002c0: a15a 2ebe 1626 973c bf8d 46be 1109 16be
000002d0: 41d6 983d df3a 01be e88a babe ae76 36be
000002e0: 7bce adbe a61b 3f3e 2976 f23d b1d0 a7bc
000002f0: 586d 283e 7364 dabe bdb6 8bbe 8d51 07be
00000300: 6c06 4fbe 12a9 1ebe 99a8 ad3c 7a4d 9fbe
00000310: a7db fcbc ef70 8bbd 14c1 e83c 3ef0 923c
00000320: 79e5 053d ef00 183e 861d c1bd 1375 3c3d
00000330: cab8 783d d563 77be ebd9 2b3e ef63 8a3c
00000340: 16d1 693e 1a9a 50be a532 4ebc 7cd2 80be
00000350: cd3a bebd f752 1abe 7993 bfbd 1bf0 85bd
00000360: ee9f 20bd afcc 95bc 8c92 0ebe e933 fcbd
00000370: 341d 9e3d fd38 14be 2778 c4be 3732 8f3d
00000380: 159c 753d 31bc b7bd a8d0 6a3d b331 bebd
00000390: 32ce acbe 8232 b33c 6e59 0e39 0bb3 cd3a
000003a0: 0787 1cbe 0603 ed3d d65b 0bbe 6b4c a83d
000003b0: be3c 85be a474 e03d a54e 91be 8e0d febc
000003c0: fba0 033e ab11 e93d 2d19 04bd 8bc7 fe3c
000003d0: f8f2 0e3e 5401 d8bd aff1 22bd 0e6f e7bd
000003e0: b6d5 303b 70a8 c03d 6217 3fbd 30f0 18be
000003f0: 7b52 153e 7d65 32bc b542 ee3d b2a8 80be

X_11.0.bias f4 [128]
0.00021060453 0.0025352216 0.18375058 -0.16405547 0.060307182 0.028134817 -0.19590344 0.08668423
-0.08193504 -0.1644827 -0.11479451 -0.06388314 0.0770351 -0.23516576 0.068885304 0.08746398
-0.34986797 0.009350821 -0.12989974 -0.046831004 -0.10325173 -0.02649126 -0.24044688 0.06281124
-0.092597835 -0.050851077 -0.06335415 -0.22427836 0.10840117 0.121241294 -0.2758915 0.060532562
0.10632322 -0.1615059 -0.18814994 0.1350638 -0.25204724 -0.04015093 -0.0334894 -0.22695151
-0.18400933 -0.03303571 -0.11766372 -0.33774358 0.01902765 -0.24379593 -0.3257436 0.0253601
-0.1719378 -0.14230649 0.06387119 -0.096412666 0.046848003 -0.058138505 -0.23044106 -0.009660796
-0.14034629 -0.0065743113 -0.16525371 0.029524032 -0.021171106 -0.086255856 0.1636347 -0.20553964
-0.06459079 0.01916239 -0.1514994 0.1394944 0.026552703 0.13866897 -0.06370096 -0.10469005
0.05834958 0.11145971 -0.21940996 -0.08091767 -0.0032980808 -0.22687683 -0.1652864 -0.105465576
-0.00029234585 -0.124010794 0.10744674 -0.005362445 0.045334198 -0.24863155 -0.18387116 -0.07626085
-0.09155478 -0.08184515 -0.0061573125 0.017792258 0.066447265 -0.121817335 -0.15418603 -0.048282217
-0.051730644 -0.25707802 -0.054229368 -0.29875976 -0.18382466 0.026697809 -0.048411474 -0.17317975
0.14402543 -0.20358287 -0.04142105 -0.19801216 -0.23953542 -0.2273385 -0.20938767 -0.022787085
-0.09082073 -0.05724191 -0.17635098 -0.03852018 -0.13471368 0.04223616 0.14454672 -0.022036856
-0.060671706 0.13732955 0.13488415 -0.05937842 -0.03291773 0.040485777 -0.13335384 -0.16014066
00000000: b9d5 5c39 f625 263b 1d29 3c3e 28fe 27be
00000010: aa04 773d fd7a e63c e99a 48be 8087 b13d
00000020: 8fcd a7bd 276e 28be 6219 ebbd 2ad5 82bd
00000030: 94c4 9d3d 4bcf 70be bd13 8d3d 5120 b33d
00000040: e521 b3be 3034 193c 7004 05be ded1 3fbd
00000050: a575 d3bd 3304 d9bc b537 76be 2ea3 803d
00000060: efa3 bdbd 3849 50bd d2bf 81bd 3aa9 65be
00000070: 6f01 de3d 5b4d f83d a741 8dbe fef0 773d
00000080: fdbf d93d cd61 25be 61aa 40be 2a4e 0a3e
00000090: 560c 81be 4d75 24bd 2e2c 09bd fa65 68be
000000a0: f16c 3cbe 7450 07bd adf9 f0bd baec acbe
000000b0: e0df 9b3c a4a5 79be ddc7 a6be fcbf cf3c
000000c0: 7610 30be cbb8 11be e6ce 823d 0174 c5bd
000000d0: b1e3 3f3d a422 6ebd bef8 6bbe 5148 1ebc
000000e0: f0b6 0fbe 526d d7bb 4538 29be 62dc f13c
000000f0: 076f adbc e9a6 b0bd db8f 273e fc78 52be
00000100: 2d48 84bd 72fa 9c3c a922 1bbe 9fd7 0e3e
00000110: 0e85 d93c 3dff 0d3e a675 82bd bd67 d6bd
00000120: f8ff 6e3d fd44 e43d 01ad 60be 2ab8 a5bd
00000130: 9d24 58bb 6652 68be d740 29be 56fe d7bd
00000140: ff45 99b9 5ff9 fdbd 090d dc3d 73b7 afbb
00000150: 5ab0 393d 4599 7ebe b948 3cbe a62e 9cbd
00000160: 1381 bbbd 6e9e a7bd 48c3 c9bb 12c1 913c
00000170: 8115 883d 5e7b f9bd f1e2 1dbe 93c3 45bd
00000180: 83e3 53bd bb9f 83be 9d1f 5ebd 0af7 98be
00000190: 883c 3cbe 5db5 da3c 1c4b 46bd 0856 31be
000001a0: 677b 133e 0778 50be 1ea9 29bd b3c3 4abe
000001b0: c648 75be 6ccb 68be b969 56be fbab babc
000001c0: 3800 babd 7e76 6abd 5a95 34be 56c7 1dbd
000001d0: 62f2 09be d3ff 2c3d 0e04 143e a386 b4bc
000001e0: e582 78bd 1ea0 0c3e 121f 0a3e c936 73bd
000001f0: bed4 06bd 6ad4 253d e98d 08be eafb 23be

X_12.0.weight f4 [128, 20]
0.031286627 -0.042599794 0.022283604 0.14181376 0.0012042775 0.16908608 0.06990332 -0.07669199
-0.15029919 -0.00038546466 -0.16861568 -0.09444147 -0.16351704 -0.26065275 -0.0354849 -0.22083373
0.09985847 -0.11637161 0.107682854 -0.20045602 0.2774637 -0.17357928 0.36437526 -0.026692867
-0.15907753 -0.12590651 -0.3395886 0.28104708 0.28351557 0.036325905 0.25609702 -0.01550575
0.10899113 0.12875003 -0.039148904 0.023235507 -0.086770386 0.15864335 0.027283456 -0.13464963
0.04285857 0.10217006 -0.1966976 0.054732677 -0.030746166 -0.030650701 0.12263066 -0.07201927
-0.13912864 0.0426612 0.002875741 -0.18822749 -0.18124676 -0.022307362 -0.009546579 -0.27551115
-0.1009968 0.06819624 -0.016203415 0.13542083 -0.15956159 -0.05024787 -0.13422392 0.2626323
-0.1769418 0.1085605 0.016701583 0.10883199 -0.032353196 0.027834328 0.0103198495 -0.122038916
0.050930545 -0.12937915 -0.032584473 -0.05869018 -0.100300126 0.12526956 -0.224941 -0.13909961
-0.025661862 0.14154534 -0.024531707 0.25190058 -0.011651418 -0.14245977 -0.16977201 -0.16958216
0.107300214 -0.04539769 -0.19058824 0.15766014 -0.14372341 -0.24963447 -0.014249515 0.04211106
-0.09548524 0.11288834 -0.12104288 0.08114045 -0.2833454 -0.08927421 0.5467405 0.20914656
-0.025354886 -0.18154971 -0.12414464 -0.29403165 -0.34769678 -0.08935399 0.16519177 -0.044436954
0.053604413 -0.08768764 0.02836359 -0.01645219 -0.030070437 0.09764959 0.21651061 -0.15514892
-0.1121335 -0.10224157 -0.17378207 0.041216116 0.029052546 -0.043574437 0.12483151 -0.14407724
0.12002035 -0.11497213 0.03583223 -0.048868906 -0.1708534 -0.1838848 -0.26586685 0.13099808
0.11174034 -0.12184856 -0.12316512 -0.26807547 -0.014686555 0.029898418 0.08305367 0.13847148
0.076714836 -0.17269076 0.05870466 0.17785996 0.0438519 0.09509595 0.04447289 -0.094677255
-0.13680549 0.06877627 -0.10609686 0.11493681 -0.19417195 -0.21267666 0.18936019 -0.13316733
-0.06602105 0.03219845 -0.16050012 -0.20198847 -0.044191502 -0.0048640566 -0.08096147 -0.041468542
0.041165806 0.1441755 -0.27519798 -0.107443124 0.119844005 -0.17689718 -0.19897334 0.07654806
0.12721153 0.009879802 -0.2422192 -0.05629595 -0.07735668 0.14342727 -0.090312645 -0.18689024
0.117047876 0.109057374 0.09263705 -0.13451853 -0.08903927 -0.13433057 -0.08288265 -0.15776381
-0.076697014 -0.13288453 0.13817875 -0.1954565 0.0933959 -0.12865548 0.11853119 -0.14391917
0.060422197 -0.046543837 -0.12238443 0.03822038 0.20912014 -0.08185978 0.10562668 -0.0054880623
0.21900426 0.047511928 0.13859113 -0.17836908 0.032324944 -0.29764685 -0.2686601 -0.022907205
0.09542525 0.05849853 -0.029504005 0.073181465 -0.037933163 -0.016615607 0.3503546 0.06735047
0.3122902 -0.18766724 -0.45470324 -0.17849201 -0.260217 0.23845543 0.012568828 0.22743534
-0.041118458 -0.024856795 0.13781616 0.24575543 0.36959723 0.32310987 0.20106591 0.12090263
-0.059086837 -0.1878135 -0.3337932 0.08667871 0.039400615 0.2019217 0.10007557 0.050051
-0.26521087 -0.02899423 0.16776402 -0.08780491 -0.14190772 0.01765876 -0.018764103 0.050500207
00000000: 6826 003d 1f7d 2ebd 1b8c b63c a037 113e
00000010: d9d8 9d3a e724 2d3e 7929 8f3d b110 9dbd
00000020: 08e8 19be 3118 cab9 97a9 2cbe 886a c1bd
00000030: 0371 27be 4774 85be 9d58 11bd 3d22 62be
00000040: 9982 cc3d 3d54 eebd d488 dc3d 5844 4dbe
00000050: b90f 8e3e c4be 31be 658f ba3e 00ab dabc
00000060: 38e5 22be a3ed 00be 8fde adbe 67e5 8f3e
00000070: f428 913e 79ca 143d 261f 833e d40b 7ebc
00000080: be36 df3d 0cd7 033e 9a5a 20bd 6458 be3c
00000090: acb4 b1bd 6773 223e 8e81 df3c 98e1 09be
000000a0: 788c 2f3d 893e d13d 186b 49be 5f2f 603d
000000b0: 62df fbbc 2e17 fbbc c925 fb3d d77e 93bd
000000c0: bd77 0ebe 83bd 2e3d ee76 3c3b b5be 40be
000000d0: c098 39be eebd b6bc 4169 1cbc cc0f 8dbe
000000e0: 69d7 cebd 78aa 8b3d 06bd 84bc c2ab 0a3e
000000f0: 1d64 23be b6d0 4dbd ff71 09be be77 863e
00000100: 3b30 35be f854 de3d c2d1 883c 4ee3 de3d
00000110: c984 04bd d104 e43c 9614 293c 8aef f9bd
00000120: 8c9c 503d f87b 04be 4c77 05bd 1d65 70bd
00000130: 276a cdbd aa46 003e ef56 66be 2170 0ebe
00000140: d338 d2bc 43f1 103e b8f6 c8bc 1df9 803e
00000150: 97e5 3ebc f9e0 11be b7d8 2dbe f2a6 2dbe
00000160: 37c0 db3d eef2 39bd 9029 43be a971 213e
00000170: 3b2c 13be 2ea0 7fbe cc76 69bc a67c 2c3d
00000180: c48d c3bd 0132 e73d 54e5 f7bd f72c a63d
00000190: a612 91be 66d5 b6bd 2ff7 0b3f 842a 563e
000001a0: 0db5 cfbc 2be8 39be 8c3f febd 518b 96be
000001b0: 5005 b2be 3aff b6bd 0828 293e 8603 36bd
000001c0: 4d90 5b3d 9495 b3bd c25a e83c bec6 86bc
000001d0: 4756 f6bc 82fc c73d f5b4 5d3e 5cdf 1ebe
000001e0: 40a6 e5bd 0764 d1bd edf3 31be 3bd2 283d
000001f0: 9bff ed3c 1c7b 32bd aaa7 ff3d fc88 13be
00000200: 3bcd f53d 8276 ebbd d1c4 123d c32a 48bd
00000210: 32f4 2ebe 4c4c 3cbe b31f 88be 5c24 063e
00000220: 1fd8 e43d bd8b f9bd ff3d fcbd 3041 89be
00000230: e09f 70bc 87ed f43c 0b18 aa3d 78cb 0d3e
00000240: ab1c 9d3d d9d5 30be 4c74 703d ec20 363e
00000250: 0d9e 333d aac1 c23d 3529 363d 26e6 c1bd
00000260: bd16 0cbe 93da 8c3d 4f49 d9bd fe63 eb3d
00000270: 03d5 46be e9c7 59be a3e7 413e 045d 08be
00000280: 0b36 87bd 86e2 033d 255a 24be 11d6 4ebe
00000290: 2602 35bd aa62 9fbb 21cf a5bd ebda 29bd
000002a0: 7a9d 283d bea2 133e c0e6 8cbe 240b dcbd
000002b0: c670 f53d 8924 35be abbf 4bbe 3bc5 9c3d
000002c0: bd43 023e e5de 213c 4f08 78be 9596 66bd
000002d0: 2e6d 9ebd 99de 123e d6f5 b8bd 2860 3fbe
000002e0: ccb6 ef3d 7959 df3d 7eb8 bd3d 3abf 09be
000002f0: 395a b6bd f48d 09be 61be a9bd d68c 21be
00000300: 5313 9dbd e212 08be bb7e 0d3e c025 48be
00000310: 5a46 bf3d 43be 03be 7bc0 f23d 8c5f 13be
00000320: 447d 773d c0a4 3ebd b0a4 fabd f98c 1c3d
00000330: 9723 563e 1aa6 a7bd cd52 d83d 34d5 b3bb
00000340: a742 603e de9b 423d d5ea 0d3e 62a6 36be
00000350: 2967 043d 2b65 98be d18d 89be e4a7 bbbc
00000360: 506e c33d 289c 6f3d 62b2 f1bc 2ae0 953d
00000370: ce5f 1bbd 741d 88bc ae61 b33e 0bef 893d
00000380: 80e4 9f3e d72b 40be ddce e8be 9cc6 36be
00000390: 2a3b 85be a92d 743e 7ced 4d3c cfe4 683e
000003a0: d46b 28bd 7aa0 cbbc ae1f 0d3e 50a7 7b3e
000003b0: d93b bd3e a86e a53e 39e4 4d3e cc9b f73d
000003c0: 0a05 72bd 2f52 40be f1e6 aabe 9c84 b13d
000003d0: 8a62 213d 90c4 4e3e 6cf4 cc3d 4702 4d3d
000003e0: b8c9 87be 4f85 edbc 55ca 2b3e 10d3 b3bd
000003f0: 4250 11be 1ba9 903c 2db7 99bc 4ed9 4e3d

X_12.0.bias f4 [128]
-0.23332517 -0.05877969 -0.16508895 0.13090861 -0.09556792 0.103078105 -0.06263743 0.06388824
-0.043682534 -0.016729712 -0.13352533 0.23384996 -0.1607512 0.19766542 -0.018707644 -0.031015659
-0.30625385 0.046603836 -0.15871663 -0.36422893 -0.0648892 -0.18878004 -0.1439622 0.2068403
0.10223847 -0.12048039 -0.16577122 0.0789449 0.03269262 -0.027544504 -0.19721964 0.2932458
0.024464864 0.002600986 0.09009412 0.088567145 -0.16116884 0.06647889 0.24151698 0.21574408
0.21284364 -0.14282411 -0.08784172 -0.113924816 -0.07483646 -0.008575149 0.04499383 0.078181356
0.21503544 -0.21837336 -0.1858329 -0.19619644 0.13384643 -0.15019351 -0.135774 -0.058692545
0.08959896 -0.04073673 -0.08486589 0.10447377 0.23551975 0.12805365 -0.049099296 0.0063826516
0.15943319 -0.007596543 -0.07700266 -0.06411636 -0.13637948 -0.26429367 -0.16619149 0.11557059
0.108338125 0.07523582 0.05249029 0.020323658 -0.13190567 -0.20833543 -0.2580796 0.01584153
0.09503087 0.030548688 -0.11303264 -0.3135413 -0.25656265 -0.19626245 -0.0018314273 0.2095607
-0.08734274 0.10055147 -0.034160577 0.051053952 -0.08670928 -0.06539913 0.079122655 0.14421634
-0.2279981 0.02071563 -0.07355795 -0.26047847 -0.056838527 -0.15981768 -0.119536854 -0.0040974575
-0.08296674 0.09707267 -0.1177294 0.10235224 0.16164215 -0.2628939 0.0476521 -0.06221429
-0.0546544 0.14825499 0.13989154 -0.11067315 -0.26005596 -0.11142726 -0.24057078 0.035625942
-0.24790382 -0.043892305 0.16649209 0.08527367 0.09748049 0.13529554 -0.124342464 -0.05308307
00000000: cbec 6ebe f9c2 70bd 140d 29be e80c 063e
00000010: 1db9 c3bd 9d1a d33d 0e48 80bd d6d7 823d
00000020: 75ec 32bd c00c 89bc ddba 08be 5d76 6f3e
00000030: f69b 24be ce68 4a3e c640 99bc 8d14 febc
00000040: 4ecd 9cbe aae3 3e3d 9d86 22be 377c babe
00000050: a1e4 84bd 8e4f 41be d46a 13be f2cd 533e
00000060: 6762 d13d 6cbe f6bd eebf 29be ddad a13d
00000070: b2e8 053d 03a5 e1bc f2f3 49be 5024 963e
00000080: 8a6a c83c 4e75 2a3b 4483 b83d b162 b53d
00000090: 7209 25be 1626 883d 3a50 773e 04ec 5c3e
000000a0: aff3 593e 7c40 12be 5ce6 b3bd 6a51 e9bd
000000b0: dc43 99bd c87e 0cbc 734b 383d 8c1d a03d
000000c0: 4032 5c3e 449d 5fbe fb4a 3ebe b8e7 48be
000000d0: 0a0f 093e 54cc 19be 5708 0bbe 9867 70bd
000000e0: a97f b73d 8fdb 26bd 2bce adbd 58f6 d53d
000000f0: 172c 713e 7f20 033e 581c 49bd 9025 d13b
00000100: 7442 233e 6cec f8bb 92b3 9dbd 704f 83bd
00000110: 10a7 0bbe 8051 87be 1a2e 2abe 46b0 ec3d
00000120: 61e0 dd3d 3d15 9a3d 0f00 573d cd7d a63c
00000130: 4812 07be e255 55be 0223 84be 19c6 813c
00000140: 8b9f c23d 3e41 fa3c a87d e7bd 7c88 a0be
00000150: 2e5c 83be 06f9 48be 810c f0ba 1597 563e
00000160: c0e0 b2bd eeed cd3d f6eb 0bbd f31d 513d
00000170: a394 b1bd fbef 85bd 0f0b a23d 73ad 133e
00000180: 5578 69be d3b3 a93c 8da5 96bd 6f5d 85be
00000190: 84cf 68bd 3fa7 23be bdcf f4bd f743 86bb
000001a0: 77ea a9bd 09ce c63d 1d1c f1bd 0d9e d13d
000001b0: 8585 253e 079a 86be d92e 433d 69d4 7ebd
000001c0: 4bdd 5fbd 28d0 173e ba3f 0f3e 9ba8 e2bd
000001d0: 0e26 85be fa33 e4bd 3058 76be 82ec 113d
000001e0: 80da 7dbe 6bc8 33bd e77c 2a3e f6a3 ae3d
000001f0: daa3 c73d ea8a 0a3e 43a7 febd a26d 59bd

X_5.0.weight f4 [128, 20]
0.009073414 -0.108569965 -0.35683483 -0.3211925 0.17974253 0.10962717 -0.11031417 -0.012499686
-0.14880437 0.24435566 0.17297342 -0.03921946 -0.15279898 0.046287827 0.06021989 -0.09454082
-0.12521172 -0.20355406 0.13547648 0.16372459 0.032859046 -0.09186571 -0.06391819 -0.14419574
0.12546109 -0.12660527 0.12073528 -0.033249963 0.009754745 0.111284465 -0.2496133 -0.20934348
0.14728501 0.114944085 -0.11266679 0.018551636 0.06405896 -0.049003147 0.11291627 0.016106125
0.171885 -0.043119173 0.26009268 0.041697886 0.03988815 -0.17546426 -0.057181306 -0.12239097
0.122056276 -0.030761557 0.20138235 -0.07080658 0.02697951 -0.042839263 0.1940212 0.099424906
0.17553754 0.088534884 0.109623626 -0.16391535 -0.04098862 0.035526875 -0.17011924 -0.11456949
0.08200879 -0.025255071 -0.15064059 0.118388936 -0.18135989 0.11521825 -0.102024555 0.112045266
0.12105904 -0.06124267 0.0137081295 0.13385873 0.046880927 -0.123558685 -0.0642712 -0.11998346
0.037710607 0.17843758 -0.014499775 0.30674693 -0.028562896 0.0044027613 -0.25005668 0.082091436
0.18122248 -0.107250005 0.015034038 -0.22432391 -0.19387868 0.03394489 0.11105956 -0.16526012
-0.021933952 -0.21320775 0.06409109 0.11299176 -0.14528006 0.0568244 0.028519569 0.2179575
-0.17490692 -0.15342955 -0.116608046 0.0980523 -0.14433715 -0.20897345 0.14513595 0.044666294
-0.1507602 -0.1401466 -0.2529708 -0.073600076 -0.14018315 0.08002986 -0.123420626 -0.07849231
-0.100552805 0.28456515 -0.5355159 -0.12185861 -0.29638785 0.005360322 0.12660688 -0.17498434
0.15184477 -0.03207196 -0.17889202 -0.13113913 -0.07770109 -0.08936511 0.041377373 -0.016779386
0.16740786 0.06470475 -0.12223265 -0.1101046 -0.16875425 -0.19695884 0.022487659 -0.33503133
0.3099009 -0.04300188 -0.021553671 0.17475423 -0.13108228 0.12677602 -0.056375362 0.17046347
-0.21892516 0.011900416 0.0053912187 0.02488656 -0.025552837 0.08278972 -0.10171717 0.11195413
-0.14297688 -0.036705885 0.043183424 0.08710519 -0.11430829 -0.12116461 0.20480715 0.11253632
-0.05355834 0.06997129 -0.19360551 -0.24651617 0.086821035 0.10694014 -0.19042334 -0.064640924
0.008589124 0.013871914 -0.13552758 0.05376266 0.099494755 -0.29462942 -0.049805768 -0.16263787
-0.09617178 -0.065051235 -0.2777817 0.07388707 -0.37342376 0.31541106 0.07778628 0.033627577
-0.17173596 -0.13638431 0.13947068 -0.15320024 -0.027124705 -0.024070537 -0.07799544 0.21088867
0.0011172498 -0.20961636 0.050142605 -0.3570552 0.17294979 0.017630681 -0.20429619 0.15477902
-0.15364777 0.14611624 -0.13600105 -0.0468132 0.14991699 0.09050793 0.081219085 -0.21987456
0.14963312 -0.015976064 0.18342242 -0.14416723 -0.052771475 -0.03707348 0.1518146 0.03975363
-0.18919493 -0.18168886 -0.17583004 -0.10278273 0.008359004 0.26759613 -0.19276614 -0.095023036
0.11269794 -0.23907094 -0.20876354 -0.09654791 -0.2348885 -0.15996303 0.13906865 0.10143544
-0.0387412 -0.08998926 -0.18799508 -0.38831228 0.36793122 -0.03226782 0.013064738 -0.12953341
0.020218603 0.06680908 0.05595586 -0.0005128112 -0.005547424 -0.05109077 -0.21842572 -0.007301845
00000000: a8a8 143c ee59 debd 0eb3 b6be 5873 a4be
00000010: 6d0e 383e 3684 e03d 65ec e1bd 7ccb 4cbc
00000020: 2c60 18be 5f38 7a3e f21f 313e 96a4 20bd
00000030: 5677 1cbe 4e98 3d3d 22a9 763d 9e9e c1bd
00000040: 8037 00be 7a70 50be 59ba 0a3e 6ba7 273e
00000050: 3597 063d 1724 bcbd 8ae7 82bd 0ca8 13be
00000060: df78 003e d0a4 01be 0f44 f73d 1d31 08bd
00000070: 5ed2 1f3c 1ce9 e33d a19a 7fbe 235e 56be
00000080: e2d1 163e ce67 eb3d d9bd e6bd 9af9 973c
00000090: 5831 833d 86b7 48bd a540 e73d fef0 833c
000000a0: 9f02 303e bb9d 30bd de2a 853e 67cb 2a3d
000000b0: c261 233d e7ac 33be f236 6abd 1ea8 fabd
000000c0: a4f8 f93d a9ff fbbc 2d37 4e3e 0a03 91bd
000000d0: 2204 dd3c 3978 2fbd 7ead 463e 499f cb3d
000000e0: 1dc0 333e c751 b53d 5a82 e03d 6dd9 27be
000000f0: afe3 27bd a184 113d bd33 2ebe 69a3 eabd
00000100: 39f4 a73d b9e3 cebc 8741 1abe e675 f23d
00000110: 68b6 39be 8cf7 eb3d 40f2 d0bd fd77 e53d
00000120: cded f73d 98d9 7abd 1098 603c 4312 093e
00000130: 3706 403d 560c fdbd 9ea0 83bd e3b9 f5bd
00000140: 7076 1a3d 57b8 363e 7790 6dbc ef0d 9d3e
00000150: bcfc e9bc 0a45 903b 6e07 80be 8e1f a83d
00000160: 6392 393e e4a5 dbbd 5351 763c 2bb5 65be
00000170: 2288 46be cc09 0b3d 3273 e33d f339 29be
00000180: d5ae b3bc 2253 5abe 3042 833d 3968 e73d
00000190: 4cc4 14be b4c0 683d dfa1 e93c 4030 5f3e
000001a0: cd1a 33be a31c 1dbe 33d0 eebd a5cf c83d
000001b0: 1ecd 13be 23fd 55be 859e 143e 01f4 363d
000001c0: e260 1abe 9782 0fbe 6485 81be a3bb 96bd
000001d0: 2c8c 0fbe b2e6 a33d f4c3 fcbd 94c0 a0bd
000001e0: a1ee cdbd 86b2 913e 9217 09bf 0291 f9bd
000001f0: 26c0 97be a4a5 af3b 3ca5 013e 182f 33be
00000200: 327d 1b3e e35d 03bd 782f 37be 5649 06be
00000210: c021 9fbd 0e05 b7bd 527b 293d ec74 89bc
00000220: f76c 2b3e ed83 843d 1d55 fabd 857e e1bd
00000230: eacd 2cbe 94af 49be 0a38 b83c 3a89 abbe
00000240: 55ab 9e3e bd22 30bd 5391 b0bc c6f2 323e
00000250: 6f3a 06be 93d1 013e dae9 66bd fa8d 2e3e
00000260: eb2d 60be f6f9 423c d2a8 b03b e6de cb3c
00000270: 2f54 d1bc a88d a93d 1751 d0bd 3548 e53d
00000280: 8868 12be e958 16bd 1ae1 303d 3564 b23d
00000290: 771a eabd 2725 f8bd f7b8 513e 7179 e63d
000002a0: fd5f 5bbd 1c4d 8f3d 8640 46be bc6e 7cbe
000002b0: 3acf b13d 6f03 db3d 56fe 42be 7662 84bd
000002c0: 66b9 0c3c 0647 633c bec7 0abe 3c36 5c3d
000002d0: e8c3 cb3d abd9 96be 2201 4cbd 8b8a 26be
000002e0: b6f5 c4bd 9539 85bd 6739 8ebe 1b52 973d
000002f0: 6631 bfbe 8f7d a13e 6a4e 9f3d 12bd 093d
00000300: 8ddb 2fbe 54a8 0bbe 67d1 0e3e 86e0 1cbe
00000310: a134 debc 932f c5bc 13bc 9fbd 33f3 573e
00000320: af70 923a aca5 56be 5562 4d3d f0cf b6be
00000330: c019 313e 386e 903c 0533 51be 647e 1e3e
00000340: d755 1dbe 7f9f 153e dc43 0bbe 33bf 3fbd
00000350: d783 193e 395c b93d 3156 a63d cc26 61be
00000360: 6d39 193e 3ce0 82bc 16d3 3b3e 93a0 13be
00000370: e726 58bd 5dda 17bd 4975 1b3e b4d4 223d
00000380: 51bc 41be a50c 3abe ca0c 34be c07f d2bd
00000390: 34f4 083c 5c02 893e 7d64 45be 709b c2bd
000003a0: 2dce e63d 03cf 74be 1cc6 55be e9ba c5bd
000003b0: 9c86 70be 59cd 23be 0368 0e3e 62bd cf3d
000003c0: 18af 1ebd 4a4c b8bd c881 40be ded0 c6be
000003d0: 7b61 bc3e 432b 04bd 7c0d 563c 68a4 04be
000003e0: 7ca1 a53c 33d3 883d f931 653d 2d6e 06ba
000003f0: 2ac7 b5bb 8e44 51bd feaa 5fbe 5144 efbb

X_5.0.bias f4 [128]
-0.14375016 0.031705316 0.06187958 -0.04008659 -0.22346644 -0.12550111 0.102660194 0.024586989
-0.07507981 0.13041441 0.043750934 -0.029774986 0.07405555 -0.12824531 -0.10932649 -0.06314569
0.018881371 0.09613855 -0.2603599 -0.18684033 -0.23445603 -0.27425763 9.7984914e-05 -0.15125562
0.045185957 0.029262748 0.0326987 -0.10354969 -0.0038952886 -0.09827603 -0.1510696 0.11665482
-0.16800943 0.09911261 -0.22781846 -0.1487632 0.1903045 -0.0015323852 0.1485643 -0.18543582
0.14216296 -0.011062732 -0.14323677 -0.108910404 -0.2231034 -0.014661667 0.0045148325 0.067825295
0.17838228 0.051714025 -0.07990936 -0.033905525 0.12168833 -0.16420993 0.09980424 0.12676638
-0.055948146 -0.09137539 -0.11757141 -0.074232176 -0.17534684 -0.121086694 -0.078153856 0.059445802
-0.010398052 0.16276161 0.0080093 -0.06777022 0.012543461 -0.0017264877 -0.013041873 0.058577187
-0.18675555 -0.1197985 0.04770245 -0.2682989 0.15886177 0.1619446 0.020826705 -0.17551106
-0.19806996 -0.094328105 -0.19201972 -0.2597386 -0.10226454 -0.15670177 -0.14144887 -0.088318616
-0.26988402 0.0694666 -0.18485178 -0.07694293 0.01996544 -0.08900683 -0.17313439 -0.15622753
-0.031967662 -0.034865636 0.053883616 0.038970944 0.058775835 -0.0022182923 -0.09366128 -0.115413904
-0.22166668 -0.08475217 -0.02049622 -0.18191724 -0.20407651 0.12785596 -0.10526523 -0.011562831
0.15888119 0.047443155 -0.1694693 -0.08348496 0.14841303 0.16454 0.11327667 -0.1897611
0.037963275 -0.189956 -0.257864 -0.055778515 -0.1852752 -0.20581236 0.012785498 -0.019172931
00000000: 3e33 13be 6fdd 013d 7175 7d3d d631 24bd
00000010: 63d4 64be 5d83 00be 823f d23d a76a c93c
00000020: 72c3 99bd 5b8b 053e 2e34 333d acea f3bc
00000030: 70aa 973d bd52 03be 91e6 dfbd 8752 81bd
00000040: 1bad 9a3c 4ae4 c43d e54d 85be 1253 3fbe
00000050: 3e15 70be 7f6b 8cbe 407d cd38 c1e2 1abe
00000060: e914 393d 6eb8 ef3c 12ef 053d dc11 d4bd
00000070: 1948 7fbb f144 c9bd fdb1 1abe b9e8 ee3d
00000080: aa0a 2cbe 8dfb ca3d 3e49 69be 6155 18be
00000090: 2fdf 423e 51da c8ba 3d21 183e e3e2 3dbe
000000a0: 2b93 113e 7640 35bc a9ac 12be 6b0c dfbd
000000b0: 3875 64be 7d37 70bc 29f1 933b fde7 8a3d
000000c0: d8a9 363e 16d2 533d 85a7 a3bd 85e0 0abd
000000d0: bb37 f93d a626 28be 2a66 cc3d 0ccf 013e
000000e0: e229 65bd 0523 bbbd 48c9 f0bd 0a07 98bd
000000f0: 1f8e 33be 4dfc f7bd 210f a0bd 717d 733d
00000100: 975c 2abc fbaa 263e 7039 033c 1dcb 8abd
00000110: 1783 4d3c 504b e2ba 95ad 55bc a2ee 6f3d
00000120: d93c 3fbe ea58 f5bd a563 433d 795e 89be
00000130: a9ac 223e ced4 253e c49c aa3c 2cb9 33be
00000140: dad2 4abe 182f c1bd d1a0 44be 75fc 84be
00000150: 1270 d1bd 6e76 20be f9d7 10be 64e0 b4bd
00000160: 3d2e 8abe 8144 8e3d c949 3dbe 4194 9dbd
00000170: 908e a33c 3649 b6bd 244a 31be 1cfa 1fbe
00000180: 86f0 02bd 45cf 0ebd 11b5 5c3d ff9f 1f3d
00000190: eebe 703d c560 11bb 7cd1 bfbd 205e ecbd
000001a0: 97fc 62be 8c92 adbd b0e7 a7bc 8348 3abe
000001b0: 6ff9 50be acec 023e 4c95 d7bd 0772 3dbc
000001c0: c0b1 223e c153 423d 5c89 2dbe 2afa aabd
000001d0: 96f9 173e 2c7d 283e 99fd e73d bc50 42be
000001e0: 617f 1b3d d383 42be c006 84be 0378 64bd
000001f0: c8b8 3dbe 7ac0 52be 447a 513c 8d10 9dbc
