results/s_MLP_data_insilico_seed_56_2024-02-19_PH_45/model_epoch_93_loss_0.20.pth (torch, 11106 bytes, 14 tensors)

X_1.0.weight f4 [1, 20]
000000 a0 80 4f 3e f0 5e de 3c 6e 24 86 bd bc 04 4c 3e
       0.2026391 0.02714488 -0.06549917 0.19923681
000010 b0 49 6d bc e0 ea d0 3d 5f 35 cd bd 10 b3 42 bc
       -0.0144829005 0.10201049 -0.10019945 -0.011883512
000020 c0 40 da 3d d0 29 4e 3c 31 e8 fe bd 70 72 fb 3d
       0.10656881 0.012583211 -0.12446631 0.122776866
000030 98 11 b9 bc 52 52 d0 bd 40 ef 2e bd b8 3c 66 3d
       -0.022591397 -0.10171951 -0.042708635 0.05621025
000040 38 54 23 3d 40 68 d3 3b ec a1 d7 bd 1a b4 9f bd
       0.03987524 0.0064516366 -0.10528931 -0.077980235

X_2.0.weight f4 [1, 20]
000000 2e 5b b9 bd 48 81 47 be 07 d8 03 be 10 e1 da 3c
       -0.09050594 -0.1948291 -0.12875377 0.026718646
000010 38 a8 a0 bd 90 72 6e 3d 38 89 fa 3d 94 b3 f8 3d
       -0.07844585 0.058214724 0.12233204 0.12143627
000020 c2 8d 8b bd c8 77 9e 3d 60 cf 3a bc 20 09 76 3c
       -0.068141475 0.0773769 -0.011401981 0.015016824
000030 8c d4 50 be 0a e7 40 3e 6c b2 ab 3d e0 e8 25 3e
       -0.2039358 0.18838134 0.08383641 0.16202116
000040 60 a3 c6 bd 00 24 43 3b 1c 38 c9 3d 40 f0 5d 3b
       -0.0969913 0.0029776096 0.09825155 0.0033865124

X_3.0.weight f4 [1, 20]
000000 38 06 eb bc b0 bc a7 3d 8f 83 28 be 56 22 00 3e
       -0.028689489 0.08190286 -0.16456436 0.12513098
000010 7c 87 4d be 82 19 23 be 5a 81 3e 3e ae 4d 06 3e
       -0.20071214 -0.15927699 0.18604031 0.1311557
000020 fa 67 28 be 52 19 e3 bd 9c cf 38 3e de 06 03 3e
       -0.16445914 -0.11088814 0.18047947 0.12795588
000030 48 b9 f6 3d ce bc 0f be a0 41 a2 bb 70 e5 29 3d
       0.12047058 -0.14036867 -0.0049516708 0.041478574
000040 14 11 8b 3d 16 9f 25 3e 84 48 20 3e e9 04 59 be
       0.06790367 0.16173968 0.15652663 -0.2119328

X_4.0.weight f4 [1, 20]
000000 cb 8a 1e be 9c a1 6f bd 38 9b 1a 3d c0 ed 98 3c
       -0.15482633 -0.058503732 0.037745684 0.018668056
000010 b0 ba 21 bc 60 7c 16 bd ec a5 d9 bd c5 13 d2 bd
       -0.00987117 -0.036739707 -0.1062735 -0.10257677
000020 08 32 b5 bd 70 eb b5 3d 88 77 20 3d 00 17 2f 3e
       -0.08847433 0.08882797 0.039176494 0.17098618
000030 98 aa c3 bd 56 02 c6 bd 36 d1 c0 bd 04 1f 8b 3d
       -0.095540226 -0.09668414 -0.09414904 0.06793025
000040 00 aa 5c 3d d0 6f 4d 3e cc 7d e4 3d 99 a6 44 be
       0.053873062 0.20062184 0.11156806 -0.19204177

X_5.0.weight f4 [1, 20]
000000 cd 49 f2 bd dc 4c 36 3e 0c d7 9e bd c8 37 05 3e
       -0.11830483 0.17802757 -0.07755861 0.1300956
000010 e8 b3 b8 3c 0a 04 ed bd 6c 07 70 bd b9 31 27 be
       0.022546723 -0.11573036 -0.058600828 -0.16327561
000020 f0 fa 07 3d 86 16 2a be 12 df 62 be 20 2c ba 3d
       0.033198297 -0.16610155 -0.22155407 0.090904474
000030 00 b9 63 3b c0 df e0 3c 5a 32 07 be 73 f9 56 be
       0.003474772 0.027450442 -0.13202801 -0.20993595
000040 0c 27 9c 3d 10 bc 55 3e 8b 86 d0 bd e0 92 be bc
       0.07624635 0.20872521 -0.10181912 -0.023263395

X_6.0.weight f4 [1, 20]
000000 a2 44 88 bd b2 ae d0 bd 92 4f c9 bd 0d d7 49 be
       -0.06653716 -0.101895705 -0.0982963 -0.19710942
000010 a8 11 11 be 35 a0 f9 bd 48 e1 72 bd e3 09 37 be
       -0.14166892 -0.1218876 -0.059296876 -0.17874865
000020 5c fd 5e be dc b0 11 bd 7b 7b 62 be a4 7d 2a bd
       -0.21776336 -0.035569057 -0.22117417 -0.041623726
000030 ac c1 9b 3d 28 b8 47 3e b0 08 3f 3e a8 2a d4 3d
       0.07605299 0.19503844 0.18655658 0.103596985
000040 64 44 31 be 16 00 38 3e 3e 61 5e be 78 4f 37 bd
       -0.17311245 0.17968783 -0.21716782 -0.04475352

X_7.0.weight f4 [1, 20]
000000 82 3f 57 be c0 73 f8 3c dc 44 a8 bd ba a4 35 3e
       -0.2102032 0.030328631 -0.08216259 0.1773862
000010 1e dc 2b 3e 50 20 1d 3d e4 ba ef 3d 5e 11 17 be
       0.16783187 0.038360894 0.117055684 -0.14752719
000020 be 38 0f 3e 88 f1 6c bd 7e cb d3 bd 54 e7 93 bd
       0.13986489 -0.05784753 -0.103415474 -0.07221857
000030 e0 90 d2 3c 62 9a 8d bd 98 30 21 3d ea e2 3e 3e
       0.025703847 -0.06914212 0.039352983 0.18641248
000040 e8 47 9a bc 67 c8 e9 bd 7c 30 ac bd 8a 87 30 3e
       -0.018833116 -0.11415177 -0.08407685 0.17239204

X_8.0.weight f4 [1, 20]
000000 28 08 22 3e 08 0d a7 bc 0c a7 1d be 02 94 29 be
       0.15823424 -0.020391956 -0.15395755 -0.16560367
000010 58 ff 93 3d 12 47 1c 3e 90 26 37 bc f1 ca ca bd
       0.07226437 0.15261486 -0.011178628 -0.09901989
000020 a8 82 5c 3e 68 d7 40 be f9 29 01 be f0 48 5f 3e
       0.21534216 -0.18832171 -0.12613668 0.21805167
000030 fc 36 1e be 4b 9f 16 be bc f0 12 bd 20 79 03 be
       -0.15450662 -0.14709203 -0.035874113 -0.12839174
000040 38 83 16 3d 07 2d 28 be 76 88 9d bd 46 db 12 be
       0.036746234 -0.16423427 -0.076920435 -0.14341459

X_9.0.weight f4 [1, 20]
000000 5d 51 23 be 28 10 5d 3d da 1e 0b 3e 28 10 b8 3c
       -0.15949006 0.053970486 0.13585988 0.022468641
000010 68 6f 01 3e 50 fc 76 bd b6 64 2d be d6 08 2d 3e
       0.12640154 -0.060299218 -0.1693295 0.16897902
000020 5e 00 54 be 58 85 0f 3d 72 e8 86 bd b0 b1 5b be
       -0.20703265 0.035039276 -0.06587304 -0.21454501
000030 d0 46 20 bd d0 d1 e4 3d 30 4e 48 3e e4 e0 0e 3e
       -0.039130032 0.11172831 0.19561076 0.13952976
000040 02 fb 62 3e 3c 29 cb bd 80 25 9c 3a cc 10 41 be
       0.22166064 -0.09919974 0.0011913031 -0.18854064

X_10.0.weight f4 [1, 20]
000000 90 b8 01 3e 58 d8 db 3d 1b 75 5d be c7 46 27 be
       0.12668061 0.10734624 -0.21626703 -0.16335593
000010 74 51 b7 3d 8a bd c8 bd 00 56 6f bb 7c 02 a7 3d
       0.08951083 -0.09801777 -0.0036519766 0.08154771
000020 fc 71 0b 3e 08 30 bc bc e0 e1 db 3c da 46 33 3e
       0.136177 -0.022972122 0.026841104 0.17507496
000030 f0 63 e2 3c 64 cf ec 3d 60 d5 fb bd 5a 17 17 be
       0.027635545 0.11562994 -0.122965574 -0.14755002
000040 64 c5 1b bd 4d 30 63 be f4 e5 cb 3d 40 bd 3f bb
       -0.038030043 -0.22186394 0.099559695 -0.002925709

X_11.0.weight f4 [1, 20]
000000 60 ed a9 3b e1 66 d1 bd 4a b7 0e be 50 cc ca bc
       0.005185768 -0.10224701 -0.13937107 -0.024755627
000010 f0 f0 af bc 78 e8 5f 3d c5 99 e3 bd e8 28 30 3d
       -0.021477193 0.05466506 -0.111133136 0.04300776
000020 9c ad ed 3d 97 a7 f3 bd d0 d7 dc 3c d0 4c 56 bd
       0.11605379 -0.118971996 0.026958376 -0.052319348
000030 08 14 c9 bd 30 11 2a bd 14 61 00 3e 82 7a 30 3e
       -0.09818274 -0.041520298 0.12537032 0.17234233
000040 18 34 c7 3d 5d a6 e5 bd 54 c1 97 3d f0 a9 8d 3c
       0.09726733 -0.11213372 0.07409921 0.017292947

X_12.0.weight f4 [1, 20]
000000 28 40 20 3d 46 dd 32 3e 68 e8 eb bc 00 20 87 bd
       0.039123684 0.17467222 -0.028797343 -0.065979004
000010 0a fd 07 be 0f 9c 4f be 03 95 64 be 94 2b 23 be
       -0.1328012 -0.20274375 -0.22322468 -0.15934592
000020 63 0f 33 be e0 a2 e3 3b 42 43 26 be ec 6f 8f bd
       -0.17486338 0.0069469064 -0.16236594 -0.07003769
000030 d5 c6 e0 bd e4 1a 50 3e a4 47 5d 3e 46 51 25 be
       -0.10975424 0.20322758 0.2160936 -0.16144285
000040 8d db 35 be 98 44 fa 3d 10 25 fe 3d 44 06 00 be
       -0.17759533 0.122201145 0.12409413 -0.1250239

X_13.0.weight f4 [1, 20]
000000 10 84 1b bc 9f 1d 30 be 60 91 61 3e 04 62 c9 3d
       -0.009491935 -0.171988 0.22028112 0.09833148
000010 d4 69 83 3d 9a 3b 52 3e f0 5e 30 be 17 94 33 be
       0.064166695 0.20530549 -0.17223716 -0.1753696
000020 28 26 b7 3c 28 10 c3 3d a9 19 63 be 4c 45 f5 3d
       0.022357062 0.09524566 -0.22177757 0.11976108
000030 7d 81 28 be a1 c8 ec bd 01 35 44 be 69 18 63 be
       -0.16455646 -0.115617044 -0.19160844 -0.2217728
000040 78 3b 1f 3e 66 9f 4c be 52 e8 0a 3e b5 e9 4c be
       0.1555003 -0.1998268 0.13565186 -0.20011027

output.weight f4 [1, 13]
000000 73 05 4e 3f 9f 11 a6 3d 3f 8c dc 3d ca e9 94 3e
       0.80477065 0.0810883 0.10768937 0.29084617
000010 49 e3 37 3e 8b 25 1f be e3 df fa 3d 38 97 13 bd
       0.17957796 -0.15541665 0.12249734 -0.036032885
000020 43 6f 53 3f 30 8c c6 be da 08 9f be 9f e6 34 be
       0.82591647 -0.3877883 -0.3106144 -0.176661
000030 2a 13 9a bf
       -1.2037098
