results/MLP_tree/hidden_size_128/s_MLP_tree_t_simglucose_data_insilico_seed_56_2024-03-24_PH_120/model_epoch_131_loss_0.09.pth (torch, 722276 bytes, 23 tensors)

X_1.0.weight f4 [128, 20]
0	0x3e63115c	0.22174591
1	0x3d7fe75c	0.0624765
2	0x3d061f03	0.03274442
3	0x3e2b456c	0.16725701
4	0xbcb8a88d	-0.022541309
5	0x3d8f4c8b	0.06997021
6	0xbd2f615a	-0.04281745
7	0x3befcaed	0.007317892
8	0x3da05468	0.07828599
9	0x3d19d2d4	0.037554577
10	0xbe35a8ec	-0.1774022
11	0x3d8f5a2d	0.069996215
12	0xbd99287e	-0.074784264
13	0xbe1cc574	-0.15309697
14	0xbdbed614	-0.09318176
15	0x3bda660e	0.006664998
16	0xbc0f6804	-0.008752827
17	0xbd2926d1	-0.041296784
18	0xbe1bdc06	-0.15220651
19	0xbdfe3938	-0.12413257
20	0xbdacb955	-0.08433787
21	0x3d51a341	0.05118108
22	0xbded3c0e	-0.1158372
23	0xbdee0506	-0.11622052
24	0x3e2d6caf	0.16935991
25	0x3e51d34e	0.20490763
26	0x3e8b955d	0.27262393
27	0x3d2d7974	0.042352155
28	0x3d4fe523	0.05075563
29	0xbe0d79e2	-0.13816026
30	0xbc40c652	-0.011766033
31	0xbdcc61af	-0.09979569
32	0xbd90ad8e	-0.07064353
33	0xbe9241ef	-0.28565928
34	0x3de37fe1	0.11108375
35	0x3c35ab23	0.011088165
36	0x3dbfd9e2	0.0936773
37	0xbe251209	-0.16120161
38	0xbd6b6767	-0.05747166
39	0x3d28a277	0.041170564
40	0xbc2a65c4	-0.010400239
41	0x3b64e7e8	0.0034928266
42	0x3e8248eb	0.25446257
43	0x3e239c4d	0.15977593
44	0xbe2e6db9	-0.17034043
45	0xbbc03edc	-0.0058668684
46	0xbec4c507	-0.3843157
47	0xbe3122f5	-0.17298491
48	0x3c459344	0.012059037
49	0x3ef44ea3	0.47716245
50	0xbe3e309e	-0.18573233
51	0xbe07192c	-0.13193196
52	0x3e24290b	0.16031282
53	0x3ddf79de	0.10911916
54	0x3dd35126	0.10318212
55	0xbe1fc3a3	-0.15601973
56	0xbc9b75e0	-0.018977106
57	0x3cede5d8	0.029040262
58	0x3d697213	0.056993555
59	0x3e1bf214	0.15229064
60	0x3e0acd61	0.13554908
61	0xbe45f711	-0.1933253
62	0x3ea56fca	0.3231185
63	0xbda7cff5	-0.081939615
64	0x3d5d821c	0.05407916
65	0x3dbad8ba	0.091233686
66	0x3cc69249	0.024239676
67	0xbcfd5e3b	-0.030928722
68	0xbda523b6	-0.08063452
69	0xbd0ca7f9	-0.03433988
70	0xbe32a6cf	-0.17446445
71	0xbe241621	-0.16024067
72	0x3c8ef3a1	0.017450156
73	0xbd01e8e4	-0.031716242
74	0x3dcdec08	0.10054785
75	0xbe298d48	-0.16557801
76	0xbe2a66cc	-0.16640776
77	0xbe278ed6	-0.16363081
78	0xbab4a314	-0.0013781511
79	0xbc7ac78a	-0.015306363
80	0x3e0627c8	0.13101113
81	0x3e4becfd	0.19914623
82	0xbdb7c77b	-0.08973595
83	0x3d8b61ff	0.06805801
84	0xbe3e65b6	-0.18593487
85	0x3e37bfd9	0.17944278
86	0xbc8b294c	-0.016987465
87	0x3d776df3	0.06040759
88	0xbd2dbbe4	-0.042415515
89	0xbe2dde25	-0.16979273
90	0xbda18fd7	-0.078887634
91	0xbe3bcc41	-0.18339635
92	0x3c5fb953	0.013655025
93	0xbe3d42b2	-0.18482473
94	0xbe75208b	-0.23938195
95	0x3d977578	0.07395452
96	0xbc4efa0f	-0.012632861
97	0x3c46619e	0.012108235
98	0xbe163327	-0.1466795
99	0xbe655c42	-0.22398475
100	0x3d64789e	0.055779092
101	0x3f018860	0.50598717
102	0xbdd427d7	-0.10359161
103	0x3d65590e	0.055993132
104	0x3d7cee9a	0.061750986
105	0xbde16028	-0.110046685
106	0xbe9c7750	-0.30559778
107	0xbdf26e6f	-0.1183747
108	0xbe98512c	-0.2974943
109	0xbe228891	-0.15872408
110	0xbe109af2	-0.14121607
111	0xbda13b97	-0.07872694
112	0xbe4b5c61	-0.19859459
113	0xbe74089b	-0.23831408
114	0xbd69984c	-0.057030007
115	0xbe798255	-0.24366124
116	0xbd8595fd	-0.065227486
117	0x3d521262	0.051287062
118	0x3e2d23fd	0.1690826
119	0x3e23396a	0.1593987
120	0x3c755bc5	0.014975493
121	0xbe28c43b	-0.16481106
122	0x3eaa1873	0.33221778
123	0xbe10f72d	-0.1415679
124	0x3d275694	0.04085405
125	0x3e1ac870	0.15115523
126	0xbe3193f1	-0.17341591
127	0xbd6fd073	-0.058548402
128	0xbe180c9c	-0.1484856
129	0x3e47c843	0.19509988
130	0x3d4181f3	0.04724307
131	0xbda7dc9f	-0.08196377
132	0xbb1b8022	-0.0023727496
133	0xbe880e7d	-0.26573554
134	0x3cbbe9c1	0.022938611
135	0xbe31aba3	-0.1735063
136	0xbe5f20c3	-0.21789841
137	0xbe3e15ba	-0.18562976
138	0xbdb1a89d	-0.086747386
139	0xbe391196	-0.18073115
140	0xbb33b8d1	-0.0027423392
141	0x3debb77a	0.11509605
142	0xbd0c9311	-0.03431994
143	0xbde7a8f4	-0.11311522
144	0xbd2dc7f8	-0.042427033
145	0x3e48a325	0.19593485
146	0xbda0b19d	-0.07846377
147	0x3dedda31	0.11613882
148	0x3d3b436c	0.045718595
149	0xbd9fe901	-0.07808114
150	0xbe5db7d4	-0.21652156
151	0x3caea2eb	0.02131792
152	0x3dd012ba	0.10159822
153	0xbd7f0df0	-0.06226915
154	0xbe19c786	-0.15017518
155	0x3e2811a8	0.16412985
156	0xbe7549d9	-0.23953952
157	0xbe359b1e	-0.17734954
158	0x3e2adc23	0.16685538
159	0xbe5293d0	-0.20564198
160	0xbd6e658e	-0.05820232
161	0x3d90c696	0.07069127
162	0xbda3ee2d	-0.08004413
163	0x3b5089bc	0.0031820377
164	0xbe12e2b6	-0.14344296
165	0x3bea6306	0.007152918
166	0xbcd3e0fa	-0.025864113
167	0xbd3dbcf6	-0.046322785
168	0xbe0b8d92	-0.13628224
169	0xbd0d2eab	-0.034468334
170	0x3d9df673	0.07713022
171	0xbd1379ec	-0.036004946
172	0x3d8d0264	0.068852216
173	0xbdee9384	-0.1164923
174	0xbe65565d	-0.22396226
175	0x3ded7e2b	0.1159633
176	0xbe844fce	-0.25842136
177	0xbc72ce5f	-0.0148197105
178	0xbdea196b	-0.11430629
179	0xbe85fc56	-0.2616908
180	0xbc71e92b	-0.014765064
181	0x3eb7a054	0.35864508
182	0x3ed67649	0.4188712
183	0x3ea5c502	0.32376868
184	0x3e839493	0.2569929
185	0xbe8920f6	-0.2678296
186	0xbd96bd9c	-0.07360384
187	0xbe27f90f	-0.16403602
188	0xbeb74d22	-0.35801035
189	0x3d4db17b	0.050218087
190	0x3e3bed47	0.18352233
191	0xbe0fd9cc	-0.14047927
192	0xbdb65b2d	-0.08904109
193	0x3e2599c2	0.16171935
194	0xbce673ed	-0.02813145
195	0x3d82db6a	0.06389506
196	0x3e166366	0.14686355
197	0x3e4c3425	0.19941767
198	0x3d1d27c3	0.038367998
199	0x3db10263	0.08643033
200	0x3e0c3375	0.13691504
201	0xbcdbfa96	-0.026852887
202	0x3d9a984b	0.07548579
203	0xbe1813d8	-0.1485132
204	0xbde5e14b	-0.11224612
205	0xbc1a89b2	-0.009432243
206	0xbdfe55c6	-0.12418704
207	0x3d7c0fb2	0.061538406
208	0x3d033afb	0.03203867
209	0xbe19ee3b	-0.15032284
210	0xbd8cdae3	-0.06877687
211	0xbe347599	-0.17622985
212	0xbe5a90cb	-0.21344297
213	0xbdcaa91a	-0.09895535
214	0xbdc433e1	-0.095802076
215	0xbca1ebf5	-0.019765833
216	0xbe3e1571	-0.18562867
217	0xbd01247e	-0.031528942
218	0x3d2a09f4	0.0415134
219	0xbe461e78	-0.1934756
220	0xbdb2049e	-0.08692287
221	0xbe6aeb82	-0.22941402
222	0xbef3ea9b	-0.47639927
223	0xbe5e1a46	-0.2168971
224	0xbe1b9527	-0.15193616
225	0x3d1c5d55	0.038174946
226	0x3de348f9	0.11097903
227	0xbe669268	-0.22516787
228	0x3deb9744	0.11503461
229	0xbd114d47	-0.035474088
230	0xbe07301f	-0.1320195
231	0x3dab6d03	0.08370402
232	0x3e5da587	0.21645175
233	0x3c174cf4	0.009234656
234	0xbd02a33c	-0.031893954
235	0xbdd1dd78	-0.1024732
236	0xbe340724	-0.17580849
237	0xbe4c0c7b	-0.19926636
238	0xbe0d4332	-0.13795164
239	0xbe1f61c9	-0.15564646
240	0x3d88c45e	0.06678079
241	0xbe21390d	-0.1574442
242	0xbd9ce6cf	-0.07661211
243	0xbe55d43d	-0.20881744
244	0x3e1550a6	0.14581546
245	0x3e2329a3	0.15933852
246	0xbe27c794	-0.16384727
247	0xbdf0ca2c	-0.11757311
248	0x3d12f533	0.03587837
249	0x3dbc730e	0.092016324
250	0xbe52f045	-0.20599468
251	0xbe0d1e95	-0.13781197
252	0xbdbf8196	-0.093508884
253	0xbe850b40	-0.25985146
254	0x3e029d90	0.12755418
255	0x389f9599	7.6095756e-05

X_1.0.bias f4 [128]
0	0x3df5b388	0.119971335
1	0xbe2a117b	-0.16608231
2	0xbe7aa896	-0.24478373
3	0x3dc9a14d	0.09845219
4	0x3d1f16e4	0.03884019
5	0xbe17bc6a	-0.14817968
6	0xbd727a70	-0.059198797
7	0xbe25aa77	-0.16178308
8	0xbdf897bc	-0.12138316
9	0x3d886a87	0.066609435
10	0x3d804072	0.06262292
11	0x3e7e6ac9	0.24845423
12	0xbbabab16	-0.005238901
13	0x3e030f78	0.1279887
14	0xbd97c3f7	-0.07410424
15	0x3d08499a	0.033273317
16	0xbea7070f	-0.32622573
17	0x3e0cc843	0.13748269
18	0x3df72888	0.120682776
19	0x3d710c29	0.058849487
20	0x3d772826	0.060341023
21	0x3e07f7c6	0.13278112
22	0x3cfed158	0.031105682
23	0x3e0cab98	0.13737333
24	0xbe0db081	-0.13836862
25	0xbdc711c1	-0.09720183
26	0xbe19fbe9	-0.15037502
27	0x3caff499	0.021478938
28	0xbe26a203	-0.1627274
29	0xbe06cf3d	-0.13164993
30	0x3d70f2d3	0.058825325
31	0xbe848542	-0.25882918
32	0x3dab4fc7	0.08364826
33	0xbe26f8de	-0.16305873
34	0x3e0fec68	0.14055026
35	0xbe4cf90f	-0.20016883
36	0x3dd3314f	0.10312139
37	0xbdb379bf	-0.087634556
38	0xbe922a4b	-0.28547892
39	0xbe80b216	-0.2513587
40	0x3c21423a	0.00984245
41	0xbe9517e3	-0.29119787
42	0x3dc67b9d	0.09691546
43	0xbe46d5cf	-0.19417499
44	0xbe0c20b9	-0.13684358
45	0x3e06e5cb	0.13173597
46	0xbe1dc6e6	-0.15407905
47	0xbe508726	-0.20364055
48	0x3d2fc7d2	0.042915173
49	0x3e4ae13c	0.19812483
50	0xbdc99b5d	-0.09844086
51	0xbd11b90d	-0.03557687
52	0x3e1f8dfe	0.1558151
53	0x3beeb3fa	0.0072846385
54	0xbe540147	-0.20703612
55	0x3e31f59d	0.1737885
56	0xbe3c39c0	-0.18381405
57	0xbe8c4805	-0.27398697
58	0x3e1b9abf	0.1519575
59	0x3e621796	0.2207931
60	0xbe7b3c47	-0.24534713
61	0xbd875525	-0.06608037
62	0x3dc755dc	0.09733173
63	0xbcd0addf	-0.025473533
64	0xbd324215	-0.043520052
65	0xbd1de3f1	-0.03854746
66	0x3d27dfe6	0.04098501
67	0xbe2cf1c6	-0.16889104
68	0x3dbe69c6	0.092975184
69	0x3e169d86	0.14708528
70	0xbe985f94	-0.2976042
71	0xbea2c4a3	-0.31790647
72	0xbe1f55c9	-0.15560068
73	0xbe629271	-0.22126175
74	0xbe5d9e5a	-0.21642438
75	0xbda677ed	-0.08128343
76	0xbe297697	-0.16549145
77	0xbd7b7fbe	-0.06140112
78	0xbe91e572	-0.28495365
79	0x3dd812ce	0.10550462
80	0xbe091abd	-0.13389106
81	0xbd30f619	-0.043203447
82	0xbe842f8d	-0.25817528
83	0xbe073036	-0.13201985
84	0xbd527e49	-0.051389966
85	0xbe8fe0b7	-0.2810113
86	0xbe740e9b	-0.23833697
87	0x3d20f55a	0.039296485
88	0xbd87bad2	-0.0662743
89	0x3d2754c8	0.040852338
90	0x3b20b17a	0.0024519847
91	0xbc2731b7	-0.010204724
92	0xbc75ccb8	-0.015002422
93	0xbe7a4380	-0.24439812
94	0x3e45d5fa	0.19319907
95	0xbda46217	-0.08026522
96	0xbe9662dc	-0.293723
97	0x3de7aefc	0.113126725
98	0xbe5273d9	-0.20552005
99	0x3ae968f1	0.0017807764
100	0x3d78489a	0.060616113
101	0xbdc6da5c	-0.097096175
102	0xbd27e0f5	-0.04098602
103	0xbe1b7e8a	-0.1518499
104	0xbd6713a0	-0.0564152
105	0xbe06b5ff	-0.13155364
106	0xbe1022bd	-0.14075752
107	0xbd4e217f	-0.050324913
108	0xbe6b8ae2	-0.23002198
109	0x3e027c44	0.12742716
110	0x3e47f358	0.19526422
111	0xbd9ff965	-0.0781124
112	0xbe6162d9	-0.22010364
113	0xbe7e0da5	-0.24809892
114	0x3d84d09a	0.064851
115	0xbdbb34b3	-0.09140911
116	0xbe7fd383	-0.24983029
117	0x3d98658b	0.07441243
118	0x3e37751e	0.1791577
119	0x3d6b43ad	0.057437588
120	0x3e44775e	0.1918616
121	0xbe2dff2b	-0.1699187
122	0x3d6e547c	0.05818604
123	0xbe61a09f	-0.22033928
124	0x3e747137	0.23871313
125	0xbc68fa9a	-0.014219904
126	0xbddc318e	-0.10751639
127	0xbe465378	-0.19367778

X_10.0.weight f4 [128, 20]
0	0x3d57b9a9	0.052667294
1	0x3e35dfd3	0.17761163
2	0xbc4b2cab	-0.012400786
3	0x3e23e2c6	0.16004476
4	0xbe636f10	-0.22210336
5	0x3b184ec1	0.00232403
6	0xbe142679	-0.14467801
7	0x3dc89296	0.09793584
8	0x3bbb2db1	0.005712234
9	0xbdb29d91	-0.0872146
10	0xbe2188b8	-0.1577481
11	0x3ad9ff34	0.0016631843
12	0xbe86aa7a	-0.26301938
13	0x3a99081f	0.0011675394
14	0x3d817cd3	0.063226365
15	0x3df55c0d	0.11980448
16	0x3ded9578	0.116007745
17	0xbe6310c5	-0.22174366
18	0xbdd5b68f	-0.10435211
19	0xbea1d866	-0.3161041
20	0x3d8114d5	0.063028015
21	0xbd7cfd07	-0.061764743
22	0x3daa19b3	0.08305683
23	0x3e0e056b	0.13869254
24	0x3dff4d8c	0.12465963
25	0xbe55e4d8	-0.20888078
26	0xbd5327f5	-0.051551778
27	0xbd8fdb97	-0.07024305
28	0x3ec28536	0.37992257
29	0xbda57425	-0.080787934
30	0xbdc7829d	-0.097417094
31	0x3e10312d	0.14081259
32	0x3bbfe946	0.005856666
33	0x3d00cda2	0.031446107
34	0x3e073898	0.13205183
35	0x3e54b4a1	0.2077203
36	0xbd67a8ad	-0.056557346
37	0x3e7d103d	0.24713226
38	0x3e2b465e	0.16726062
39	0xbe2a84a6	-0.16652164
40	0xbdfa6845	-0.12226919
41	0xbcacdfff	-0.021102903
42	0x3e059428	0.13044798
43	0x3e60c6b4	0.21950799
44	0xbdc83387	-0.09775453
45	0xbd1b7e13	-0.03796203
46	0x3e48dfc9	0.19616617
47	0x3d9650ff	0.073396675
48	0x3de4d00c	0.11172494
49	0x3dc9f087	0.0986033
50	0xbd41b7e3	-0.04729451
51	0xbd545310	-0.051837027
52	0xbe762dd4	-0.2404092
53	0xbe0af2d8	-0.135692
54	0xbe07ee25	-0.13274439
55	0xbcdb5948	-0.026775971
56	0x3e083e24	0.13304955
57	0x3cc1fcbd	0.023680085
58	0xbe9166b9	-0.28398684
59	0xbe91f48e	-0.28506893
60	0x3e13e065	0.14441068
61	0xbdf87ecd	-0.1213356
62	0x3e399389	0.18122686
63	0xbd368402	-0.044559486
64	0x3e0a668b	0.1351568
65	0xbd7a8610	-0.06116301
66	0x3e229c1b	0.15879862
67	0xbe2b4651	-0.16726042
68	0x3d8ee941	0.069780834
69	0xbdbcf00d	-0.092254736
70	0xbe8096bd	-0.25115004
71	0x3db3c1ed	0.08777223
72	0xbd4e4e81	-0.050367836
73	0xbe1e4090	-0.15454316
74	0xbe27ec9e	-0.16398856
75	0x3e107043	0.14105324
76	0xbd109917	-0.035302248
77	0xbe8d0191	-0.27540258
78	0xbd08ef18	-0.033431143
79	0x3d6303c5	0.055423517
80	0x3e4568d3	0.19278269
81	0xbe3454b3	-0.17610435
82	0xbe82628f	-0.2546582
83	0xbd749d7d	-0.059720505
84	0x3e06f9c2	0.13181213
85	0x3e014861	0.12625267
86	0xbe2675cf	-0.16255878
87	0x3d84a56d	0.06476865
88	0x3d971300	0.07376671
89	0x3e0bd483	0.13655286
90	0xbd2bc576	-0.04193636
91	0x3dd97bd3	0.10619321
92	0x3e47225b	0.194467
93	0x3dbff94c	0.093737215
94	0x3e0ddff6	0.13854966
95	0xbdeb5c27	-0.11492186
96	0x3db6d7f3	0.08927908
97	0x3d088482	0.033329494
98	0x3e69c5db	0.22829382
99	0x3db6bc4b	0.08922633
100	0xbdab1822	-0.08354212
101	0xbc98e251	-0.018662604
102	0xbdd4c805	-0.10389713
103	0x3d081552	0.033223458
104	0x3bfb8bb6	0.007676567
105	0x3e8837fd	0.26605216
106	0xbd3c0267	-0.04590073
107	0x3dcce4b1	0.10004557
108	0xbd017278	-0.031603307
109	0xbd3f2195	-0.046662886
110	0xbdbfab0b	-0.09358796
111	0xbe22eb98	-0.15910184
112	0xbdc961c2	-0.09833099
113	0xbe9b9e44	-0.30394185
114	0xbe5a0922	-0.21292546
115	0x3d1e7773	0.038688134
116	0xbe61e4bd	-0.22059913
117	0xbe90f3ff	-0.28311154
118	0xbde7b34a	-0.113134935
119	0xbe265b7c	-0.16245836
120	0xbd68a320	-0.056796193
121	0x3e229a07	0.1587907
122	0x3c9d2d44	0.019186623
123	0xbd58e61a	-0.052953817
124	0xbe20e60f	-0.1571276
125	0x3b9b4ffc	0.0047397595
126	0xbd180d4d	-0.03712206
127	0x3d91eee6	0.071256444
128	0x3d24b9e7	0.040216353
129	0x3dc3328d	0.09531126
130	0x3defe2c5	0.11713175
131	0xbdf19edc	-0.11797878
132	0xbdf1b260	-0.118016005
133	0xbe07a8b9	-0.13247956
134	0x3e06290d	0.13101597
135	0xbdfdbf9a	-0.12390061
136	0xbe3c680c	-0.18399066
137	0x3d1839d1	0.037164513
138	0xbd3d9bec	-0.046291277
139	0x3d8213b0	0.06351411
140	0x3dd3913b	0.10330435
141	0x3e06b0df	0.13153408
142	0xbcc9b19b	-0.024620822
143	0xbd87c354	-0.06629053
144	0x3e3e04dc	0.18556541
145	0xbdb16bd9	-0.086631484
146	0xbe75adda	-0.239921
147	0xbe315f7b	-0.17321579
148	0xbddb1c00	-0.106987
149	0xbbf5c5c9	-0.0075003845
150	0xbe5091ba	-0.2036809
151	0xbe65822c	-0.22412938
152	0x3dac534e	0.084143266
153	0xbda72ded	-0.081630565
154	0x3cf7e995	0.030262748
155	0xbe73d3ca	-0.2381126
156	0xbdf28f9e	-0.11843799
157	0x3cae0030	0.021240324
158	0xbc051087	-0.008121616
159	0xbd450f38	-0.048110217
160	0x3e785e19	0.24254645
161	0x3e1fdf34	0.15612489
162	0x3d611912	0.05495555
163	0x3ea2bfce	0.3178696
164	0x3e3439ab	0.17600124
165	0x3d778c66	0.06043663
166	0xbe037b4d	-0.12840004
167	0xbdb3e6c6	-0.08784251
168	0xbe3dc78c	-0.18533152
169	0x3cebf632	0.028803919
170	0xbe625980	-0.22104454
171	0xbe98518a	-0.2974971
172	0x3b63e570	0.0034774207
173	0xbd074430	-0.033024013
174	0xbdd85699	-0.10563392
175	0xbde28f09	-0.11062438
176	0x3d908a3e	0.070576176
177	0x3d83fb52	0.0644442
178	0xbe26ceef	-0.16289876
179	0xbe297942	-0.16550162
180	0xbe02c325	-0.12769754
181	0xbe8f2057	-0.2795436
182	0xbc986bdd	-0.01860612
183	0xbe1c7aaa	-0.15281168
184	0x3cc8e84b	0.024524828
185	0x3e36ff06	0.17870721
186	0xbe9cb9d8	-0.30610538
187	0xbd7f55bc	-0.062337622
188	0x3dbe7791	0.09300149
189	0x3e60cbc5	0.21952732
190	0xbe2ac9c5	-0.16678531
191	0x3d7cbb9b	0.061702352
192	0xbe06ee54	-0.13176852
193	0x3d2ad0d0	0.041703045
194	0xbdd3bdd2	-0.1033894
195	0x3dfbac7a	0.12288757
196	0x3baf5a97	0.0053513753
197	0xbdd7b775	-0.105330385
198	0xbc784583	-0.015153292
199	0x3c6e1840	0.014532149
200	0xbd7de395	-0.061984617
201	0xbe38c684	-0.18044478
202	0x3dc2d6e6	0.09513645
203	0xbe0ed4f6	-0.13948426
204	0x3d0ee0b6	0.03488227
205	0x3dd47ef8	0.1037578
206	0xbe5900cd	-0.21191712
207	0x3e433b0b	0.19065492
208	0xbe4a45e7	-0.19753228
209	0xbe4934e0	-0.19649076
210	0xbe0c8509	-0.13722624
211	0x3e213b53	0.15745287
212	0xbcb06ee3	-0.02153725
213	0xbe8a4429	-0.27005127
214	0xbe8b3111	-0.27185872
215	0xbe90bef5	-0.2827069
216	0xbe12d782	-0.14340022
217	0xbe9e0ef0	-0.3087077
218	0x3daa33fd	0.08310697
219	0x3ba155f0	0.0049235746
220	0xbd62896d	-0.05530684
221	0xbd0847f6	-0.033271752
222	0x3e201f88	0.15637028
223	0xbe1c0f36	-0.15240178
224	0x3d6ed640	0.058309793
225	0x3e7826e9	0.24233593
226	0xbcb0ba60	-0.021573246
227	0x3d5af5a9	0.053456936
228	0x3e28c485	0.16481216
229	0xbd80116e	-0.062533244
230	0xbe9939c7	-0.29926893
231	0xbde39a9f	-0.11113476
232	0xbe8d3b32	-0.27584225
233	0xbe725774	-0.23666173
234	0xbe503ba8	-0.20335257
235	0xbd8198aa	-0.063279465
236	0xbe55026c	-0.20801705
237	0xbe73b627	-0.23799954
238	0xbdec4420	-0.11536431
239	0xbe56f2af	-0.20991014
240	0xbe866e08	-0.26255822
241	0xbe0f2285	-0.13978012
242	0x3e721014	0.23638946
243	0x3e747fbf	0.23876856
244	0x3d570044	0.052490488
245	0xbd99c489	-0.07508189
246	0x3e198f70	0.14996123
247	0xbde7c64f	-0.11317121
248	0xbdd5a5fc	-0.1043205
249	0x3e4510f9	0.19244756
250	0x3d443900	0.047905922
251	0x3d3eb6c6	0.046561025
252	0x3e209d4c	0.15685004
253	0x3e1066e5	0.14101751
254	0x3e4f7fca	0.20263591
255	0xbe414f09	-0.18877806

X_10.0.bias f4 [128]
0	0xbd9a5cfb	-0.07537266
1	0xbe24b2ad	-0.16083784
2	0xbe8117d2	-0.25213486
3	0x3c434ffd	0.011920926
4	0x3de137b1	0.109969504
5	0xbe57a439	-0.2105874
6	0xbe3420d4	-0.17590648
7	0x3da4cc38	0.08046764
8	0x3dba2967	0.09089928
9	0xbddb99ec	-0.10722718
10	0x3ccea80f	0.025226621
11	0x3cf3587e	0.029705282
12	0x3db83833	0.08995094
13	0xbdb0e98c	-0.086382955
14	0x3e3ea856	0.18618903
15	0x3d8ef0e1	0.06979538
16	0xbe456985	-0.19278534
17	0x3daf2fdd	0.08554051
18	0xbe17df1c	-0.14831203
19	0x3e412cf1	0.188648
20	0xbd2510ee	-0.04029935
21	0xbd044891	-0.032295767
22	0x3dbb1b43	0.09136059
23	0xbe289fd4	-0.1646722
24	0xbe7356c7	-0.23763572
25	0xbe278b34	-0.16361696
26	0x3d918963	0.071062826
27	0xbe87ed74	-0.2654835
28	0x3de15452	0.11002411
29	0xbd9185e8	-0.07105619
30	0x3d4a22ff	0.04934978
31	0xbeb4cba9	-0.3531163
32	0x3cd7a70d	0.026324773
33	0x3e220d7b	0.15825455
34	0xbd9fd277	-0.07803815
35	0xbdc325d7	-0.09528702
36	0x3dea9448	0.11454064
37	0xbb9543e1	-0.004555211
38	0x3e31ef17	0.17376362
39	0xbe16af7e	-0.14715382
40	0x3de704d5	0.112802185
41	0x3dfc17bc	0.123092145
42	0x3e3a15c6	0.18172368
43	0xbdd67737	-0.10471957
44	0x3e745422	0.23860219
45	0xbdaa04ad	-0.08301673
46	0xbe673a90	-0.22580934
47	0xbe2f0f00	-0.17095566
48	0x3e09ff77	0.13476358
49	0xbd289f58	-0.041167587
50	0x3d5fc179	0.05462787
51	0x3dcf1694	0.10111728
52	0xbd46dd92	-0.04855115
53	0xbe4f640e	-0.20253012
54	0xbc10ba61	-0.008833499
55	0xbc8eec8c	-0.017446779
56	0xbd60ae9f	-0.05485403
57	0x3e2bd889	0.1678182
58	0x3d4f58ba	0.050621726
59	0xbd2688bd	-0.040657748
60	0x3e362765	0.17788465
61	0x3ea38408	0.3193667
62	0xbdad58c0	-0.08464193
63	0x3d49e1de	0.04928767
64	0x3e19342c	0.14961308
65	0x3e6ee03c	0.23327726
66	0x3e43b8a3	0.19113402
67	0x3e366ff1	0.1781614
68	0x3da10a4d	0.07863293
69	0xbe831fcb	-0.25610194
70	0x3dac3cc2	0.08410026
71	0x3ca5ead8	0.020253584
72	0x3dea7d25	0.11449651
73	0x3e18b6bc	0.14913458
74	0xbe394116	-0.18091235
75	0xbe086c97	-0.13322674
76	0xbe0562c5	-0.13025959
77	0xbe2819ed	-0.1641614
78	0xbd381e61	-0.044950847
79	0x3d94d28b	0.072667204
80	0x3dde7aad	0.10863242
81	0x3b67e774	0.003538576
82	0x3d100c7b	0.035168152
83	0xbcca3007	-0.024681104
84	0x3e66ad69	0.22527088
85	0x3e0f5daa	0.14000574
86	0xbd466491	-0.04843575
87	0x3e17c7e8	0.14822352
88	0x3d5f626c	0.05453722
89	0x3e0ce025	0.1375738
90	0x3c8dc827	0.017307354
91	0xbda6d191	-0.0814544
92	0xbe4187cb	-0.18899457
93	0x3d58afd2	0.05290205
94	0x3d9cab7e	0.07649897
95	0x3dab677d	0.08369348
96	0x3e024efc	0.12725443
97	0x3c714071	0.014724837
98	0xbd42eaf7	-0.04758736
99	0xbe519f9a	-0.2047104
100	0xbd9190e5	-0.071077146
101	0xbdf10af0	-0.11769664
102	0xbe0a61d3	-0.1351388
103	0xbe1391da	-0.14411107
104	0xbdaabecf	-0.08337175
105	0x3d0a2d14	0.033734396
106	0x3d9444fa	0.07239719
107	0xbe33b127	-0.17548047
108	0xbe894988	-0.26813912
109	0xbde2db1c	-0.11076948
110	0xbe208f28	-0.1567961
111	0x3d631d7e	0.055448048
112	0x3d812d1c	0.06307432
113	0xbd4c326a	-0.049852766
114	0x3d9ab670	0.075543284
115	0xbe24a47b	-0.1607837
116	0x3d6f4792	0.058417864
117	0xbe251b16	-0.16123614
118	0x3e1994cd	0.14998169
119	0x3e30999c	0.17246097
120	0xbca3631c	-0.01994472
121	0xbdff0135	-0.12451402
122	0xbe9c4a8c	-0.30525625
123	0x3d83d1f0	0.06436527
124	0x3e11092b	0.14163654
125	0x3d6e61f4	0.058198884
126	0xbd08d2e8	-0.03340426
127	0xbdb414e4	-0.08793047

X_11.0.weight f4 [128, 20]
0	0xbe77f6bc	-0.24215215
1	0x3d8fb953	0.0701777
2	0x3e200673	0.1562746
3	0xbe793d11	-0.24339701
4	0xbe444eb4	-0.19170648
5	0xbe7e046f	-0.24806379
6	0x3e633054	0.22186404
7	0x3daeadac	0.08529219
8	0xbe09b853	-0.1344922
9	0x3e42884b	0.18997304
10	0x3e943cf0	0.28952742
11	0x3da41035	0.08010904
12	0x3ec78418	0.38967967
13	0x3b6594a0	0.0035031214
14	0x3d20bb8f	0.03924137
15	0x3e85a177	0.2609975
16	0x3e9e214d	0.3088478
17	0x3ea7bd47	0.32761595
18	0x3d04d308	0.032427818
19	0x3e2fbbe4	0.17161518
20	0xbd0a8f79	-0.033828232
21	0x3e68e418	0.22743261
22	0xbc5b0d17	-0.01336982
23	0x3d8e8152	0.0695826
24	0xbea28efd	-0.31749716
25	0xbe42ef73	-0.19036655
26	0x3e951450	0.2911706
27	0x3de1cf31	0.11025847
28	0xbe3c2196	-0.18372187
29	0x3d9c5394	0.07633129
30	0x3d89bc6e	0.06725393
31	0x3d9935c0	0.07480955
32	0x3d69e7b6	0.057105742
33	0x3e0ebd96	0.13939509
34	0x3b1e8478	0.0024187844
35	0x3dc49bcd	0.09600029
36	0xbe0bd3fa	-0.13655081
37	0xbd44fba8	-0.04809156
38	0xbe2312ce	-0.15925142
39	0xbe2842d9	-0.1643175
40	0x3e2ffc5f	0.17186116
41	0x3d4e26d3	0.050329994
42	0xbe41371b	-0.18868677
43	0xbcdb437f	-0.026765583
44	0xbe6d46da	-0.23171559
45	0x3d2c988b	0.042137664
46	0x3e852d5a	0.26011163
47	0x3e494bd1	0.19657828
48	0x3d476f82	0.048690327
49	0xbe0d31d7	-0.13788544
50	0x3db66126	0.08905248
51	0xbe2c0d02	-0.16801837
52	0xbd283276	-0.04106375
53	0x3df7e6e9	0.121045895
54	0xba949575	-0.0011336046
55	0x3da15b09	0.07878692
56	0xbda6e8a2	-0.0814984
57	0xbdff32df	-0.12460875
58	0xbe116650	-0.14199185
59	0x3e068786	0.13137636
60	0xbdafbe59	-0.08581228
61	0xbc2c48b7	-0.010515383
62	0xbdf78ec6	-0.12087779
63	0xbdd66b9f	-0.10469746
64	0xbda8eaf5	-0.082479395
65	0xbd9f0472	-0.0776452
66	0x3eb86945	0.36017814
67	0x3dc06a49	0.09395272
68	0xbddcdc80	-0.107842445
69	0xbc811894	-0.01575879
70	0xbe4ba650	-0.19887662
71	0xbd175505	-0.036946315
72	0x3e048f4c	0.12945288
73	0xbdcd9ef8	-0.100400865
74	0x3e121be7	0.14268456
75	0x3d60cc8c	0.05488257
76	0x3d8baab3	0.06819668
77	0xbdebaf58	-0.115080535
78	0xba0ca5bd	-0.0005365273
79	0xbe232f93	-0.15936117
80	0xbcef847e	-0.029237982
81	0xbcb7e04e	-0.022445824
82	0xbdafd114	-0.085848
83	0xbe44e5df	-0.19228314
84	0xbc62cf04	-0.013843302
85	0xbe1b0750	-0.15139508
86	0x3e909751	0.28240445
87	0xbdf94345	-0.12171034
88	0x3da6fa44	0.08153203
89	0xbc1dbd81	-0.009627701
90	0x3e446ca5	0.1918207
91	0x3c9fbb0b	0.019498369
92	0xbd22020d	-0.039552737
93	0x3e5cc911	0.21561076
94	0x3da1b24e	0.07895337
95	0x3ceb5a02	0.028729443
96	0x3db45811	0.0880586
97	0xbe00bb51	-0.12571456
98	0xbe36a59f	-0.17836617
99	0xbe37c964	-0.17947918
100	0xbc399a53	-0.011328298
101	0xbe133d42	-0.14378837
102	0xbe3507c9	-0.17678751
103	0xbd669d73	-0.0563025
104	0xbcdada5a	-0.026715446
105	0xbdbadde7	-0.09124356
106	0x3e556d3f	0.20842455
107	0x3ac2399a	0.0014818192
108	0xbd9ce111	-0.076601155
109	0xbdd6c0e8	-0.10486013
110	0xbdd2b9e9	-0.10289366
111	0xbe0db292	-0.1383765
112	0xbe63ebca	-0.22257915
113	0xbe6ef039	-0.23333825
114	0xbd33dec6	-0.043913625
115	0x3e1bf43a	0.15229884
116	0xbe48a38e	-0.19593641
117	0x3e126430	0.14296031
118	0x3e177dee	0.14794132
119	0x3e17e58d	0.1483366
120	0xbcc92540	-0.024553895
121	0xbe11a8bb	-0.14224522
122	0x3e713947	0.23557006
123	0x3c568cf8	0.013095133
124	0x3d815114	0.063142926
125	0x3cb0dc66	0.02158947
126	0xbe11ea9e	-0.14249656
127	0xbe0df586	-0.13863191
128	0xbddfc867	-0.109268956
129	0xbd9e05d4	-0.077159554
130	0x3dd5945e	0.104286894
131	0xbc6d5c24	-0.0144873
132	0xbd3d3545	-0.04619338
133	0xbe3e75e2	-0.18599656
134	0xbcb25f0d	-0.02177384
135	0xbcbc28b8	-0.022968635
136	0x3ddb57f5	0.10710136
137	0xbe385e4c	-0.18004721
138	0xbe9aa265	-0.30202022
139	0x3cfa634a	0.030564923
140	0xbe0508bb	-0.12991612
141	0xbcafb5a5	-0.02144892
142	0x3d01fe6f	0.031736787
143	0x3d0300fb	0.031983357
144	0x3e64008f	0.22265838
145	0x3e6d4cfd	0.231739
146	0x3e176360	0.14784002
147	0x3d1d52e7	0.03840914
148	0x3deee9a5	0.11665658
149	0xbe5be7cf	-0.21475147
150	0xbe2622f9	-0.16224279
151	0x3e2fbc04	0.17161566
152	0x3e2e9b25	0.1705137
153	0xbe2377af	-0.15963624
154	0x3bdba38e	0.006702847
155	0xbd21bce5	-0.039486784
156	0xbce03f8b	-0.02737405
157	0x3c128484	0.008942727
158	0xbe6d7743	-0.23190026
159	0x3d27db68	0.040980726
160	0xbe20dd6a	-0.15709463
161	0x3d676ff3	0.056503247
162	0x3d7fcd81	0.062451843
163	0x3de88904	0.11354259
164	0xbe29dfdf	-0.16589306
165	0x3d706870	0.05869335
166	0x3d84c4a8	0.06482822
167	0x3dec75dd	0.11545918
168	0xbdf1c8dd	-0.1180589
169	0xbd832efc	-0.06405446
170	0xbe03b863	-0.12863307
171	0xbe516f07	-0.2045251
172	0x3dc902ed	0.09815011
173	0xbe5ed25c	-0.21759933
174	0xbe749af9	-0.23887242
175	0xbdd90a33	-0.105976485
176	0xbe4423d0	-0.19154286
177	0xbb9a7405	-0.0047135376
178	0xbe602a6c	-0.21891183
179	0xbe31984c	-0.17343253
180	0x3e3aa870	0.18228316
181	0xbe72c5e6	-0.23708305
182	0xbe448b9b	-0.1919388
183	0xbe03e38d	-0.12879772
184	0xbd8aba80	-0.06773853
185	0x3d611bfc	0.05495833
186	0xbe54f003	-0.20794682
187	0x3db2e49a	0.087350085
188	0xbda47405	-0.080299415
189	0xbe6d93db	-0.23200934
190	0xbe0e7298	-0.13910902
191	0x3ae1811c	0.0017204615
192	0xbd8b4151	-0.067995675
193	0xbca6eea4	-0.020377465
194	0x3e1fecf2	0.15617731
195	0xbe33eca3	-0.17570738
196	0x3dd723c7	0.10504871
197	0x3d8becda	0.06832285
198	0x3e2937ef	0.16525243
199	0x3e1ec04a	0.1550304
200	0xbd530425	-0.051517624
201	0x3e6d8f38	0.23199165
202	0x3df74a80	0.120747566
203	0x3d40318d	0.046922255
204	0x3d2c053d	0.041997183
205	0xbe4bc2d9	-0.19898547
206	0x3e79e310	0.24403024
207	0xbd8a509e	-0.06753658
208	0x3ea82ebc	0.32848155
209	0xbe235fb2	-0.15954474
210	0x3caf0a5a	0.02136724
211	0xbe5e38b4	-0.21701318
212	0xbd647b52	-0.05578167
213	0xbde09f4d	-0.10967884
214	0xbd43710e	-0.04771524
215	0xbc6a5e7a	-0.0143047515
216	0x3c8dc351	0.017305048
217	0x3d328905	0.043587703
218	0xbd93f091	-0.07223619
219	0xbd526671	-0.051367227
220	0x3dbbea3a	0.091755345
221	0xbdc6c35a	-0.09705229
222	0xbdeda9e9	-0.116046734
223	0xbd789858	-0.06069216
224	0x3c4a4ac6	0.012346929
225	0xbe5b40cf	-0.21411441
226	0x3d30b465	0.043140788
227	0xbda0b055	-0.07846133
228	0xbe42adf9	-0.19011678
229	0x3dd9ee0b	0.10641106
230	0xbd827e1d	-0.063717104
231	0xbd7f0b44	-0.062266603
232	0xbe5deba8	-0.21671927
233	0x3d538246	0.05163791
234	0xbe4d89ef	-0.20072149
235	0x3c883868	0.01662846
236	0xbea77c44	-0.32711995
237	0x3d278d0b	0.040905993
238	0xbeb59ff5	-0.354736
239	0xbdd6334a	-0.10459001
240	0xbc8f5239	-0.017495262
241	0x3da18acf	0.07887804
242	0xbce25e22	-0.027632777
243	0xbc4ee97f	-0.012628912
244	0x3da5dfc1	0.08099318
245	0xbdd0e433	-0.101997755
246	0xbd8313af	-0.06400239
247	0xbe84b587	-0.25919744
248	0x3dece067	0.11566239
249	0x3db07f62	0.08618046
250	0xbda2a394	-0.07941356
251	0xbe3a8649	-0.18215288
252	0x3de73e6e	0.112912044
253	0xbd33bd93	-0.043881964
254	0x3daaaf0a	0.08334167
255	0xbe917e46	-0.2841665

X_11.0.bias f4 [128]
0	0x3e706925	0.2347761
1	0x3c84004c	0.016113423
2	0x3e570cb2	0.21000937
3	0xbe009bc4	-0.1255942
4	0x3e206201	0.15662386
5	0x3c942187	0.018082393
6	0xbe8d1010	-0.27551317
7	0x3dc4addf	0.09603476
8	0xbdaf39a3	-0.08555915
9	0xbd43028c	-0.04760985
10	0xbda24500	-0.07923317
11	0xbe0c4c0f	-0.13700889
12	0x3d356a8a	0.044291057
13	0xbe91211b	-0.2834557
14	0x3e1b7192	0.15180042
15	0xbd6c6f93	-0.057723593
16	0xbe89c2e9	-0.26906517
17	0xbcb2677a	-0.021777857
18	0xbd6cd41a	-0.057819463
19	0x3e07cfc8	0.13262856
20	0xbe04c36a	-0.1296517
21	0x3d79c02c	0.060974285
22	0xbe9d6096	-0.30737752
23	0x3d18b7ca	0.03728465
24	0xbe3ac35c	-0.18238586
25	0xbe10fc84	-0.14158827
26	0xbc072cb3	-0.008250403
27	0xbe63231b	-0.2218136
28	0x3df270af	0.11837899
29	0x3d8653c1	0.065589435
30	0xbe37b78f	-0.17941116
31	0x3e62c0e8	0.221439
32	0x3d1b456e	0.03790801
33	0xbe17bdab	-0.14818446
34	0xbe531dae	-0.2061679
35	0x3d8402c5	0.06445841
36	0xbe6685f0	-0.2251203
37	0x3c93193e	0.017956372
38	0xbd1071eb	-0.03526489
39	0xbe5ba251	-0.21448638
40	0xbe731840	-0.2373972
41	0xbbfbc103	-0.007682921
42	0xbd95dd2c	-0.07317576
43	0xbe97a59c	-0.29618537
44	0x3d87f477	0.06638425
45	0xbe79f85f	-0.24411152
46	0xbe7541d6	-0.23950896
47	0xbc10c592	-0.008836167
48	0xbe0addb9	-0.13561143
49	0xbd23d8e9	-0.040001784
50	0x3e070823	0.13186698
51	0xbd8a01e9	-0.067386456
52	0x3d988f77	0.07449239
53	0xbdb517c6	-0.08842425
54	0xbe383701	-0.17989732
55	0x3dc33b4e	0.09532796
56	0xbd947516	-0.07248895
57	0xbd7c67ff	-0.061622616
58	0xbe2243f6	-0.15846238
59	0xbc74eb5c	-0.014948692
60	0xbd5e06ef	-0.05420583
61	0x3d84d55a	0.06486006
62	0x3e4ed648	0.2019893
63	0xbe64a569	-0.22328724
64	0xbe082cc7	-0.13298331
65	0x3cd86e39	0.026419746
66	0xbe320759	-0.17385615
67	0x3e24d243	0.16095833
68	0x3e26c4b5	0.16285975
69	0x3e6187f2	0.22024515
70	0xbd93c6f5	-0.072156824
71	0xbd61d221	-0.055132035
72	0x3d491ca4	0.04909958
73	0x3e85dbc1	0.2614422
74	0xbd465ee0	-0.048430324
75	0xbc3d68f8	-0.011560671
76	0x3d402bf5	0.04691692
77	0xbe7bb475	-0.24580558
78	0xbe164ead	-0.1467845
79	0xbdf02677	-0.117260866
80	0x3e2baccb	0.16765134
81	0xbd20afff	-0.039230343
82	0x3e34d4c7	0.17659293
83	0x3e0a7b0b	0.135235
84	0x3c63d7d4	0.013906438
85	0xbe874c0c	-0.26425207
86	0xbaaaa435	-0.0013018908
87	0xbce5b819	-0.028041886
88	0xbdaa6c7b	-0.08321472
89	0xbdb42e04	-0.08797839
90	0xbd7056ec	-0.058676645
91	0x3e329f70	0.17443633
92	0x3e03dbce	0.12876818
93	0xbd780bb1	-0.060558025
94	0xbb3c0154	-0.0028687315
95	0xbdf2cbe5	-0.11855296
96	0xbcf0295a	-0.029316593
97	0xbe762e72	-0.24041155
98	0xbaef2d0e	-0.001824768
99	0xbe77cda1	-0.24199535
100	0xbe661012	-0.22467068
101	0x3e501763	0.20321421
102	0xbe1f5c57	-0.15562569
103	0xbe509036	-0.20367512
104	0x3de02167	0.10943871
105	0xbe63eb19	-0.22257651
106	0xbdb93427	-0.090431504
107	0xbe3cf00d	-0.18450947
108	0xbd5e721e	-0.05430805
109	0xbe8ecf65	-0.27892604
110	0xbe5aa670	-0.21352553
111	0xbddb548d	-0.10709486
112	0xbd9aaa5f	-0.07552027
113	0x3dc33995	0.09532467
114	0xbe0c7833	-0.13717727
115	0xbdbc3793	-0.091902874
116	0xbd04cdb3	-0.032422733
117	0x3dda00f0	0.1064471
118	0x3e1e7148	0.15472901
119	0x3db63095	0.08895985
120	0xbd92c7e6	-0.07167034
121	0x3e830902	0.2559281
122	0x3e1a9e92	0.15099552
123	0xbe5f2eba	-0.21795169
124	0xbd11b303	-0.03557111
125	0x3cd25ed5	0.025679985
126	0xbe0951ac	-0.13410062
127	0xbe857f72	-0.26073796

X_12.0.weight f4 [128, 20]
0	0xbc0d9244	-0.0086408295
1	0xbe337202	-0.1752396
2	0x3e3ed7cf	0.18637012
3	0x3e5274cc	0.20552367
4	0x3c28a4b9	0.010293179
5	0x3de6f739	0.11277623
6	0xbe4565a2	-0.19277051
7	0xbdef0254	-0.11670366
8	0xbe546b73	-0.20744114
9	0xbe049775	-0.12948401
10	0xbe20c70f	-0.15700935
11	0xbdaa1b1b	-0.08305951
12	0xbe1ca3f0	-0.15296912
13	0xbe80b131	-0.25135186
14	0xbce2af03	-0.027671343
15	0xbe5bc8e5	-0.21463354
16	0x3dd5cb6b	0.104391895
17	0xbde86d8a	-0.11349018
18	0x3ddf2b8f	0.1089698
19	0xbe4d7a85	-0.20066269
20	0x3e8bbe37	0.2729356
21	0x3e4d1354	0.20026904
22	0x3ecf9154	0.40540564
23	0x3e805b50	0.25069666
24	0x3da77faa	0.08178647
25	0x3ea158bb	0.31513008
26	0x3da30bce	0.07961236
27	0x3e8dd559	0.27701834
28	0x3e40c596	0.18825373
29	0xbc147f99	-0.009063625
30	0x3e5e2bb6	0.21696362
31	0xbd5f7a1a	-0.054559804
32	0x3d8f9789	0.07011325
33	0x3db83337	0.089941435
34	0xbd9fe087	-0.07806497
35	0xbc82c395	-0.015962401
36	0xbe016c0f	-0.12638877
37	0x3df2adcc	0.118495554
38	0xbc5ca47f	-0.013466953
39	0xbe344744	-0.1760531
40	0x3d5b6f55	0.05357297
41	0x3db1f112	0.08688559
42	0xbe499778	-0.19686687
43	0x3a470596	0.000759208
44	0xbd95bf1e	-0.07311843
45	0xbdb0821a	-0.08618565
46	0x3e01a9e7	0.12662469
47	0xbd7b1c36	-0.0613062
48	0xbd9cfa79	-0.07664961
49	0xbc53c4ae	-0.01292531
50	0x3d242171	0.040070955
51	0xbe1a9c10	-0.15098596
52	0xbe134a9b	-0.14383928
53	0x3c7b63d2	0.015343623
54	0x3ce88ca7	0.02838738
55	0xbe72fa86	-0.2372838
56	0xbd7fea89	-0.06247953
57	0x3ddb1b73	0.10698595
58	0x3cbb1cf1	0.022840949
59	0x3e32e3de	0.17469737
60	0xbe3647b8	-0.17800796
61	0xbcdf0e03	-0.027228361
62	0xbdfd3b46	-0.12364821
63	0x3e519409	0.20466627
64	0xbe08316a	-0.133001
65	0x3d0112f5	0.03151222
66	0xbde0e391	-0.10980905
67	0x3db931f5	0.09042732
68	0x3c863077	0.016380532
69	0x3db3a47c	0.08771607
70	0xbcb105b3	-0.021609163
71	0xbe1df809	-0.15426649
72	0x3c904d94	0.017615117
73	0xbe282b58	-0.16422784
74	0xbd8d8d72	-0.06911744
75	0xbdc65c67	-0.09685593
76	0xbe0f44e3	-0.13991122
77	0x3dad0699	0.08448524
78	0xbe887d14	-0.26657927
79	0xbe39a149	-0.18127932
80	0x3d5621c8	0.05227831
81	0x3e39680c	0.18106097
82	0x3c233b38	0.009962849
83	0x3e01db22	0.12681249
84	0x3c09cf2e	0.008411212
85	0xbde16bd3	-0.11006894
86	0xbdfd0da5	-0.12356118
87	0xbdbb9614	-0.091594845
88	0x3e036faf	0.12835573
89	0x3c04917a	0.008091325
90	0xbe49dc14	-0.1971286
91	0x3e1ad0a9	0.1511866
92	0xbe19913e	-0.14996812
93	0xbe82dda5	-0.25559726
94	0xbca3630f	-0.019944696
95	0x3d161fb0	0.036651313
96	0xbdce5696	-0.10075109
97	0x3ddcb7fb	0.10777279
98	0xbe01119b	-0.12604372
99	0x3d9c1637	0.07621425
100	0xbc9e0a05	-0.019291887
101	0xbe1d8875	-0.15384085
102	0x3e26e748	0.16299164
103	0x3e19de22	0.15026143
104	0xbe1ae901	-0.15127946
105	0xbdf63c86	-0.12023263
106	0x3e0c1396	0.13679346
107	0xbcf63eb4	-0.030059196
108	0xbe00be08	-0.12572491
109	0xbdf99924	-0.121874124
110	0x3e0972cd	0.134227
111	0xbd9ba55f	-0.075999014
112	0x3ca30e80	0.019904375
113	0xbdfeabb6	-0.12435095
114	0xbc3d34ea	-0.01154826
115	0xbd742639	-0.059606764
116	0xbd9c4ca2	-0.07631804
117	0x3d46c31e	0.048525922
118	0x3e28b523	0.16475348
119	0xbe565069	-0.20929112
120	0xbd3a19b3	-0.045434665
121	0xbdbfebcf	-0.09371149
122	0xbd1eb34c	-0.03874521
123	0xbb67fe60	-0.0035399422
124	0x3d3c5db8	0.045987815
125	0xbdde2137	-0.10846179
126	0x3d991b6e	0.07475935
127	0xbd9e3473	-0.07724848
128	0x3dbdc485	0.09265999
129	0xbd1f2eab	-0.038862865
130	0x3d9db28a	0.07700069
131	0xbbf3714f	-0.007429279
132	0xbe036de4	-0.12834889
133	0xbe0f1559	-0.13972987
134	0xbe60fff6	-0.21972641
135	0x3e3791fa	0.1792678
136	0x3e260c35	0.16215594
137	0xbd8e0d63	-0.06936147
138	0xbd8cc71a	-0.06873913
139	0xbe58f496	-0.21187052
140	0x3cb3b88f	0.02193859
141	0x3e752b5f	0.23942326
142	0x3a8316a7	0.0010001258
143	0x3dd4f8e3	0.10399034
144	0x3d4fce44	0.05073382
145	0xbe6ff4e7	-0.23433267
146	0x3ded7573	0.11594667
147	0x3e5bbf91	0.21459796
148	0xbd0099a9	-0.03139654
149	0x3e18bbb7	0.14915358
150	0x3d8da907	0.06917005
151	0xbd8f3195	-0.06991879
152	0xbde4ef66	-0.11178474
153	0x3dc0fdac	0.09423384
154	0xbda40329	-0.08008415
155	0x3e10f553	0.14156084
156	0xbe2aec62	-0.16691735
157	0xbe3d3f7a	-0.18481246
158	0x3e5f0571	0.2177942
159	0xbdd56c78	-0.104210794
160	0xbcfaad06	-0.030600082
161	0x3c22ec98	0.009944104
162	0xbdf9fefd	-0.12206838
163	0xbe429b97	-0.19004665
164	0x3b3c4b79	0.0028731509
165	0xbcee7897	-0.029110236
166	0xbe232621	-0.15932514
167	0xbbc7cca5	-0.0060973936
168	0x3dd14894	0.10218921
169	0x3e385372	0.18000582
170	0xbe8d991b	-0.27655873
171	0xbddee368	-0.10883218
172	0x3df26112	0.11834921
173	0xbe36dc14	-0.1785739
174	0xbe4dbe54	-0.20092136
175	0x3d980607	0.074230246
176	0x3dfed06e	0.124420986
177	0x3bd5214b	0.006504213
178	0xbe7c3ae4	-0.2463184
179	0xbd7b0862	-0.06128729
180	0xbd54e496	-0.05197581
181	0x3e1a22d7	0.15052353
182	0xbc98780b	-0.018611928
183	0xbe68b0fa	-0.22723761
184	0x3dfcae1e	0.12337898
185	0x3dfd2b40	0.12361765
186	0x3df21003	0.1181946
187	0xbddf99e1	-0.10918022
188	0xbda4a6d3	-0.08039632
189	0xbdf40105	-0.11914257
190	0xbd8c5469	-0.068520375
191	0xbe12a23d	-0.14319701
192	0xbd7b5f9e	-0.061370485
193	0xbdee79b8	-0.1164431
194	0x3e1fa456	0.15590033
195	0xbe34a38a	-0.1764051
196	0x3de8f748	0.1137529
197	0xbddb3fed	-0.10705552
198	0x3e10ad94	0.14128715
199	0xbdf5f565	-0.12009696
200	0xbe245273	-0.16047077
201	0x3a74fcd3	0.0009345535
202	0xbe34ecc1	-0.1766844
203	0xbd966910	-0.07344258
204	0x3df2d28a	0.118565634
205	0xbe888f1e	-0.2667169
206	0x3d657c3e	0.05602669
207	0xbe67f691	-0.22652651
208	0x3d725644	0.0591643
209	0xbd40e85e	-0.047096603
210	0x3e378050	0.17920041
211	0xbe0ce748	-0.13760102
212	0x3d96d364	0.07364538
213	0xbe82d072	-0.25549656
214	0xbe66e047	-0.22546493
215	0x3cb06c60	0.021536052
216	0x3e10ae27	0.14128934
217	0x3dd8e443	0.105904125
218	0x3c9fb2e1	0.019494476
219	0x3dfd7076	0.12374966
220	0xbd85a0b8	-0.06524795
221	0x3e1dde1e	0.15416762
222	0x3e537c4c	0.20652884
223	0xbbbf76c3	-0.005843015
224	0x3e5ab319	0.21357383
225	0xbd9a9f58	-0.07549924
226	0xbd78bc25	-0.060726304
227	0xbe527e01	-0.20555879
228	0xbe288e4c	-0.16460532
229	0x3e32b572	0.17452028
230	0xbe4c66cc	-0.19961089
231	0x3c71b885	0.014753466
232	0xbe82db17	-0.25557777
233	0xbe7789b5	-0.24173625
234	0xbda7120e	-0.081577405
235	0x3cc55810	0.024089843
236	0x3e159b95	0.14610131
237	0x3dc95e49	0.098324366
238	0xbcc84e0a	-0.024451274
239	0xbdd6b272	-0.104832545
240	0xbe1c6e84	-0.15276533
241	0xbd3d9532	-0.046284862
242	0xbdeabc38	-0.11461681
243	0xbd4ad32a	-0.049517788
244	0xbda24a9e	-0.07924388
245	0x3e01d61b	0.12679331
246	0x3d737922	0.059441693
247	0xbd32f79b	-0.043693166
248	0xbd270f11	-0.040785853
249	0x3d6ea260	0.05826032
250	0xbd572ea0	-0.0525347
251	0xbe9da551	-0.3079019
252	0xbeb8e940	-0.36115456
253	0xbe4cd1bd	-0.20001884
254	0xbe6fb194	-0.23407584
255	0xbe257b72	-0.16160372

X_12.0.bias f4 [128]
0	0xbe6bcf16	-0.23028216
1	0xbdb75216	-0.089512035
2	0xbe0427d3	-0.12905817
3	0x3dc61365	0.09671668
4	0xbdd5ce6c	-0.104397625
5	0x3da23244	0.07919744
6	0xbcefe511	-0.029284032
7	0x3dbe61e2	0.092960134
8	0xbd4c53e3	-0.049884688
9	0xbbc5caea	-0.006036152
10	0xbdb50f3e	-0.08840798
11	0x3d10c860	0.035347342
12	0xbec45eda	-0.38353616
13	0x3e5e924f	0.217355
14	0x3d3caa0a	0.0460606
15	0x3b95c4c5	0.004570576
16	0xbe14ed6e	-0.14543697
17	0x3d8b4cf2	0.068017855
18	0xbe55838e	-0.20850965
19	0xbe8f6a86	-0.28010958
20	0xbdd09f2a	-0.10186608
21	0xbe0a66e6	-0.13515815
22	0xbda18c78	-0.078881204
23	0x3e0f321d	0.1398396
24	0x3e4c8f37	0.19976507
25	0xbbfb1aed	-0.007663122
26	0xbe6444ae	-0.22291824
27	0x3dff1ca8	0.124566376
28	0x3ceaa141	0.028641345
29	0x3c855a4e	0.016278412
30	0xbe59cb4e	-0.21268961
31	0x3e1f3a97	0.15549694
32	0x3d047750	0.032340348
33	0xbd7d89bb	-0.061898928
34	0x3d0feeef	0.035139974
35	0x3d7c636f	0.061618265
36	0xbe35711a	-0.17718926
37	0xbb0d5e48	-0.0021571089
38	0x3deffa0b	0.11717614
39	0x3e11e1a9	0.14246239
40	0x3e209d9f	0.15685128
41	0xbdd5ae02	-0.1043358
42	0x3ce1ce2c	0.02756413
43	0xbd1a557f	-0.03767919
44	0xbe0541d9	-0.130134
45	0xbd0f6f38	-0.035018176
46	0xbc265ce0	-0.010153979
47	0x3d867a06	0.06566243
48	0x3e59fbb5	0.21287425
49	0xbe57c4a4	-0.21071106
50	0xbe769708	-0.24081051
51	0xbe60253d	-0.21889205
52	0x3de4941c	0.11161062
53	0xbe04706e	-0.12933514
54	0xbdd9b804	-0.10630801
55	0xbe1b964b	-0.15194051
56	0x3cc920e9	0.024551826
57	0xbd0cc881	-0.034370903
58	0xbdebe36e	-0.11517988
59	0x3e337585	0.17525299
60	0x3df6c8cd	0.120500185
61	0x3d9bd848	0.07609612
62	0x3cb20040	0.021728635
63	0x3e03d4a3	0.12874083
64	0x3dc2024d	0.09473095
65	0x3d83e194	0.0643951
66	0x3da3bd5a	0.079951
67	0xbb919983	-0.004443349
68	0x3db751f1	0.08951176
69	0xbe58088c	-0.2109701
70	0xbe37f048	-0.17962754
71	0x3e216abd	0.15763374
72	0x3df38752	0.11891045
73	0x3db2904e	0.0871893
74	0xbdfe6db0	-0.12423265
75	0xbdcb5f9d	-0.09930346
76	0xbd6e408a	-0.058167018
77	0xbe1a8225	-0.15088709
78	0xbe9cb98e	-0.30610317
79	0x3c2b9b94	0.010474104
80	0x3dc8be27	0.09801894
81	0x3d27cf5b	0.040969234
82	0xbdf4944a	-0.119423464
83	0xbe9a744c	-0.30166852
84	0xbe8c38f0	-0.2738719
85	0xbe4b9eb2	-0.19884756
86	0xbc18c82d	-0.009325069
87	0x3da9c3ed	0.08289323
88	0xbe0c4d04	-0.13701254
89	0x3e1fa53c	0.15590376
90	0x3c5ed9a0	0.0136016905
91	0x3c1ba26f	0.009499176
92	0xbe73ffcc	-0.23828048
93	0x3d1c641f	0.03818142
94	0x3dc8cc73	0.098046206
95	0x3dc6f048	0.09713799
96	0xbe6f0df5	-0.23345168
97	0xbd77732f	-0.060412582
98	0xbdc027f2	-0.09382619
99	0xbe7c3feb	-0.24633758
100	0x3b2b21b9	0.002611263
101	0xbe14ab21	-0.14518405
102	0xbd809f2a	-0.06280358
103	0xbc8d388e	-0.017238881
104	0xbdd84f29	-0.105619736
105	0x3d899b95	0.06719128
106	0xbe1f9f56	-0.15588126
107	0x3de8bdfc	0.11364362
108	0x3e453a94	0.19260627
109	0xbe7f751d	-0.24947019
110	0x3df74b6a	0.12074931
111	0xbdc3083f	-0.09523057
112	0x3d84ec45	0.06490377
113	0x3e198c90	0.14995027
114	0x3d40886b	0.0470051
115	0xbd163fab	-0.036681812
116	0xbe4f0190	-0.2021544
117	0xbd60b543	-0.054860365
118	0xbe31cdbe	-0.1736364
119	0x3b1cbc65	0.0023916003
120	0xbe55e764	-0.2088905
121	0x3dd26caa	0.10274632
122	0x3e8109e9	0.25202873
123	0x3da2483d	0.079239346
124	0x3df381f6	0.118900225
125	0x3dc0977e	0.09403895
126	0xbd5987cd	-0.053108025
127	0xbdf3990c	-0.11894426

X_5.0.weight f4 [128, 20]
0	0xbd955d7e	-0.07293223
1	0xbe8835a8	-0.26603436
2	0xbdcea19a	-0.10089417
3	0xbec77732	-0.38958126
4	0xbdeb74a7	-0.11496859
5	0x3e49595e	0.19662997
6	0xbd8042f5	-0.06262771
7	0xbdc0c20b	-0.09412011
8	0x3cff7f0a	0.031188507
9	0x3dc60764	0.096693784
10	0x3e147291	0.14496829
11	0xbd8b0f2d	-0.06790004
12	0xbe3c0c62	-0.18364099
13	0x3c535deb	0.01290081
14	0x3cc935cc	0.024561785
15	0xbe0720cd	-0.13196106
16	0xbe27c7ae	-0.16384766
17	0xbe78bcf4	-0.2429083
18	0x3dc4405a	0.095825866
19	0x3dfe356f	0.124125354
20	0x3ae5b349	0.0017524745
21	0xbd160b73	-0.036632013
22	0xbe48d339	-0.19611825
23	0xbe951bb4	-0.29122698
24	0x3e6b048e	0.22950956
25	0xbc87f257	-0.016595049
26	0x3d107158	0.035264343
27	0xbd83c0a1	-0.064332254
28	0xbac1676b	-0.0014755552
29	0x3dbbd899	0.09172172
30	0xbe7f4191	-0.24927355
31	0xbe55b3af	-0.20869325
32	0x3e187e47	0.14891921
33	0x3df1178f	0.117720716
34	0xbddf044d	-0.10889492
35	0x3cbce18f	0.023056773
36	0x3d8d5bd8	0.069022834
37	0xbd338764	-0.04383029
38	0x3df1d5c2	0.11808349
39	0x3cacd4cb	0.021097561
40	0x3e7913ca	0.24323955
41	0x3b788728	0.0037922356
42	0x3edc1992	0.4298826
43	0x3e1859ca	0.14878002
44	0x3e7a7831	0.24459912
45	0xbe3e277d	-0.18569751
46	0xbd841235	-0.06448785
47	0xbd520d01	-0.051281933
48	0x3df91d53	0.12163796
49	0xbce9835e	-0.028505024
50	0x3e6b55dc	0.22981972
51	0xbd2dbdd5	-0.042417366
52	0x3d620dad	0.055188823
53	0xbc73a21d	-0.014870194
54	0x3e631198	0.2217468
55	0x3e01fc71	0.12693955
56	0x3e4fc10b	0.20288484
57	0x3ded1503	0.11576273
58	0x3e0c0e6f	0.13677381
59	0xbe0c1687	-0.13680468
60	0x3cd28ed1	0.025702866
61	0xbd055159	-0.032548282
62	0xbe3e46b8	-0.18581665
63	0xbe984347	-0.2973883
64	0x3d8a0508	0.06739241
65	0x3d936d4e	0.071985826
66	0xbd12426d	-0.03570788
67	0x3e3d3bff	0.18479918
68	0xbda76668	-0.08173829
69	0x3e00f909	0.12595
70	0xbd9c6c6b	-0.076378666
71	0x3e0d1eb0	0.13781238
72	0x3e16c0a5	0.14721926
73	0xbd0dbfdb	-0.034606796
74	0x3d2711ed	0.04078858
75	0x3e25308a	0.16131797
76	0x3d98e389	0.07465274
77	0xbdc3a7f2	-0.095535174
78	0xbd13a6b1	-0.03604764
79	0xbdbb96ca	-0.0915962
80	0x3e46202f	0.19348215
81	0x3e2f9ab1	0.17148854
82	0xbd8c29e3	-0.06843927
83	0x3e6d5335	0.23176272
84	0x3d0d06a7	0.034430172
85	0x3d3a94a3	0.045551907
86	0xbea5840d	-0.3232731
87	0x3e72bd09	0.23704924
88	0xbd201467	-0.039081957
89	0xbe545782	-0.20736507
90	0xbbf15044	-0.0073643047
91	0xbe7c5a48	-0.24643815
92	0xbe5c38c8	-0.21506035
93	0x3c642c96	0.013926646
94	0x3dbcb13e	0.09213494
95	0xbe3bb1b4	-0.18329507
96	0xbd211834	-0.039329723
97	0xbe6bba09	-0.23020186
98	0x3d41b02c	0.04728715
99	0x3dc50ae5	0.096212186
100	0x3c3c956a	0.011510232
101	0x3e293f81	0.16528131
102	0xbd016244	-0.031587854
103	0x3eea6625	0.45781055
104	0x39bd5d6c	0.00036118494
105	0xbd9f2c35	-0.07772104
106	0xbe1a4cbf	-0.15068339
107	0x3e82b210	0.25526476
108	0xbe1518eb	-0.14560287
109	0xbf0f591c	-0.55995345
110	0x3e7d52a8	0.24738562
111	0x3e161efa	0.14660254
112	0xbd4c7f66	-0.049926184
113	0xbd273567	-0.040822413
114	0xbe1efdff	-0.1552658
115	0x3cb881b8	0.022522792
116	0xbd3a85e6	-0.04553785
117	0x3e317ad5	0.17332013
118	0xbd0073f1	-0.03136057
119	0x3c4bf353	0.01244815
120	0x3d8d1e56	0.06890552
121	0x3f08ff78	0.53514814
122	0xbcfac86e	-0.03061315
123	0xbdecea5a	-0.115681365
124	0x3d9b5780	0.07585049
125	0xbe3f58d9	-0.18686236
126	0xbeaffac1	-0.34370998
127	0xbbc36d4c	-0.005963957
128	0x3dc190b7	0.0945143
129	0x3e997acf	0.29976508
130	0xbe6f4d00	-0.23369217
131	0xbe3dfc5b	-0.18553297
132	0xbe056cc7	-0.13029777
133	0xbe0e451b	-0.13893549
134	0xbb911dbe	-0.0044285944
135	0xbd6faf74	-0.058516935
136	0x3e04d621	0.12972309
137	0x3cfcd01c	0.030860953
138	0xbe1c38b2	-0.15256003
139	0xbe0c959e	-0.1372895
140	0xbe44dc23	-0.192246
141	0xbdfacad4	-0.12245718
142	0x3e017900	0.12643814
143	0xbea8119c	-0.32825935
144	0x3ebaf2d2	0.36513382
145	0xbcb6583a	-0.022258867
146	0x3df08da3	0.11745765
147	0x3e1ab552	0.1510823
148	0xbdab2e76	-0.08358471
149	0x3d966737	0.073439054
150	0xbd26f816	-0.040763937
151	0x3e3ed639	0.18636407
152	0xbe4eeccc	-0.20207518
153	0x3cf51f3d	0.029922122
154	0x3cc933a2	0.024560753
155	0x3d38a982	0.04508353
156	0xbb929d42	-0.004474313
157	0x3dd63a9a	0.10460396
158	0xbda266d5	-0.0792977
159	0x3e0a183b	0.13485806
160	0xbca1f171	-0.019768449
161	0xbd67e3ae	-0.056613617
162	0x3d39dbd1	0.04537565
163	0x3d9ec596	0.0775253
164	0xbe157b2c	-0.14597768
165	0xbe5a24cb	-0.21303098
166	0x3d1ed15e	0.038773887
167	0x3e70fad5	0.23533185
168	0xbe19d337	-0.15021978
169	0x3e1d8c65	0.15385588
170	0xbe7b7145	-0.24554928
171	0xbe98babb	-0.29829964
172	0x3d11c777	0.035590615
173	0x3d674521	0.05646241
174	0xbe75e35a	-0.24012509
175	0xbde8b78c	-0.11363134
176	0xbd22f728	-0.039786488
177	0xbd0b34fa	-0.03398607
178	0xbe3b56bd	-0.18294807
179	0x3bdc1ea2	0.006717519
180	0x3dce66e6	0.1007822
181	0xbe88478f	-0.26617095
182	0x3de1bcab	0.11022314
183	0xbe4a4cde	-0.19755885
184	0x3d5cc583	0.0538993
185	0x3cf9b830	0.030483335
186	0xbe5af442	-0.2138224
187	0x3d99ccc2	0.075097576
188	0xbeae415c	-0.3403424
189	0x3ead400b	0.33837923
190	0x3d9bf185	0.076144256
191	0x3d041861	0.032249812
192	0xbe305b71	-0.17222382
193	0xbe0b018e	-0.13574812
194	0x3e1099aa	0.14121118
195	0xbe1a17e2	-0.15048173
196	0xbcc14c34	-0.023595907
197	0xbca2f6a1	-0.019892992
198	0xbd962618	-0.073314846
199	0x3e5d2112	0.21594647
200	0xbddca1d8	-0.10773057
201	0xbe43bd00	-0.19115067
202	0x3dfb57ff	0.12272643
203	0xbebe2f18	-0.37145305
204	0x3e602fec	0.2189328
205	0x3dc1ab5b	0.094565116
206	0xbe3b90e8	-0.18316996
207	0x3d3b2f6f	0.045699533
208	0xbe51f910	-0.20505166
209	0x3e2090ec	0.15680283
210	0xbe066158	-0.13123071
211	0xbd2c04f1	-0.0419969
212	0x3e1ea22b	0.1549155
213	0x3dc43444	0.095802814
214	0x3db1f1b5	0.0868868
215	0xbe5aea31	-0.213784
216	0x3e1fea84	0.15616804
217	0xbc13313e	-0.008983908
218	0x3e4372ea	0.19086805
219	0xbe0b8b26	-0.136273
220	0xbd856ea4	-0.06515244
221	0xbe7387ee	-0.23782322
222	0x3dc3ca1e	0.09560035
223	0xbe2ae3b2	-0.16688421
224	0xbea65550	-0.32486963
225	0xbead5978	-0.33857322
226	0xbeb6e32e	-0.357202
227	0xbdecc911	-0.11561788
228	0xbdcc848c	-0.09986219
229	0x3ea935ae	0.33048767
230	0xbe4f36af	-0.20235704
231	0xbdd77e5d	-0.10522149
232	0x3dce36bd	0.10069034
233	0xbe8186d4	-0.25298178
234	0xbe6589b0	-0.22415805
235	0xbde730b3	-0.112885855
236	0xbe80d964	-0.25165856
237	0xbe34f883	-0.17672925
238	0x3dfb38cc	0.122666925
239	0x3daf84c3	0.08570244
240	0x3c19817a	0.0093692485
241	0xbd3d3262	-0.046190627
242	0xbeaf9313	-0.34291896
243	0xbf08faba	-0.5350758
244	0x3edf17d4	0.43572867
245	0x3dee5732	0.11637725
246	0x3e2c43d2	0.16822746
247	0xbda68b93	-0.081320904
248	0xbe13afcb	-0.14422528
249	0x3e225c0e	0.15855429
250	0x3d66d8d2	0.05635912
251	0x3a14b4b5	0.00056726794
252	0xbb17bab1	-0.0023152048
253	0xbd39c174	-0.045350507
254	0xbe578536	-0.2104691
255	0x3b1a1ce5	0.0023515758
