results/MLP_joint/s_MLP_joint_t_simglucose_data_insilico_seed_56_2024-03-09_PH_120/model_epoch_103_loss_0.10.pth (torch, 897512 bytes, 19 tensors)

X_1.0.weight f4 [128, 20]
0.18607968 0.010816556 -0.062250312 0.22446218 -0.055265673 0.065552235 -0.12110188 -0.02836916
0.044519585 0.034999903 -0.18920095 0.057768133 -0.08856525 -0.1690612 -0.111566424 -0.014155397
-0.03189865 -0.06659012 -0.17944144 -0.15309213 -0.041075893 -0.061314914 -0.24985011 -0.24855703
0.025741715 -0.04648773 0.18880062 0.08579893 0.17328894 -0.16469657 0.057257477 -0.03136
-0.0043160785 -0.22229545 0.17116904 0.06786529 0.14728948 -0.1105228 -0.009446224 0.08683561
-0.030404055 0.053929176 0.060614698 0.1824851 -0.11375172 0.13801149 -0.15356691 -0.19298556
0.11160062 0.1468446 -0.24076886 -0.1870923 0.104694374 0.052857205 0.046231207 -0.21363822
-0.07721341 -0.029769305 -0.0023564221 0.09241711 0.13198124 -0.20628236 0.24692358 -0.13470596
-0.019921325 0.03963635 0.00044875196 -0.03441173 -0.03852287 -0.07690018 -0.14033313 -0.12621741
0.05112731 0.0015445953 0.13342267 -0.1330247 -0.13410433 -0.13151236 0.03061119 0.01659661
0.16265634 0.10435288 -0.16823725 -0.0029400163 -0.16988204 0.19718906 -0.11653507 0.09221226
-0.064266644 -0.1283855 -0.07381792 -0.17881134 0.016451491 -0.18467467 -0.24236631 0.067558944
-0.022591645 -0.0014651393 -0.16383916 -0.24462207 0.06268568 0.55363965 -0.2200819 0.14933196
0.12555695 -0.14751081 -0.43363392 -0.11156443 -0.324601 -0.09785837 -0.0791681 -0.016612183
-0.13618049 -0.17541519 0.0064249267 -0.17967397 -0.00078076543 0.11609388 0.23414749 0.22462751
0.08318539 -0.11740969 0.20156963 -0.273683 0.040808037 0.0861922 -0.1557002 0.00968048
-0.21890129 0.28054675 0.14080232 0.011843006 0.092420176 -0.16942795 0.12103193 -0.07355395
-0.11612879 -0.08216429 0.01826035 -0.074352145 0.029690634 0.1742733 0.028740112 -0.095888935
-0.028720884 0.18170512 -0.09325893 0.14855137 0.0199627 -0.09278081 -0.2036647 0.03414549
0.11433238 -0.049638506 -0.1376235 0.17663872 -0.22704819 -0.16484646 0.17939265 -0.1930639
-0.15284628 0.083347015 -0.005696131 0.1716654 -0.16092683 -0.03175817 -0.058058664 -0.14102194
-0.095869444 0.04593339 0.07071389 -0.042404063 0.062604405 -0.12235537 -0.22918485 0.11161529
-0.26171857 -0.016934814 -0.1151627 -0.2612539 0.015556044 0.053585444 0.13781816 0.089511134
0.27317205 -0.11814312 -0.03731173 -0.13387765 -0.10783033 0.097899035 0.042641558 -0.2810041
-0.22823945 0.02443605 -0.16327116 -0.06907043 0.015991883 0.07051437 -0.088706486 -0.038945653
0.10860127 0.03936334 0.17571126 -0.09498376 -0.11552846 -0.005189076 -0.17626257 0.033062946
0.018600376 -0.12301099 -0.03596727 -0.14339069 -0.18046477 -0.06573574 -0.062273484 0.014103587
-0.15141694 0.003013027 0.07635815 -0.1583617 0.058785733 -0.099909864 -0.1643868 -0.07863335
0.08580615 0.13318615 0.05857639 -0.079701446 0.107462786 -0.02551714 -0.18702485 0.0293803
0.16446342 -0.039690524 -0.07767348 -0.14533004 -0.21609205 -0.2373487 -0.1741857 -0.1903478
0.0100735435 -0.09791121 0.005080485 -0.09861567 0.2175636 0.20483059 -0.12263926 -0.17444411
-0.015295728 0.069038816 -0.17333557 -0.10445557 -0.057519965 -0.21984376 0.1725209 0.050647814
00000000: ac8b 3e3e ed37 313c 2ffa 7ebd 6ad9 653e
00000010: 425e 62bd 4040 863d 4304 f8bd 7166 e8bc
00000020: 2b5a 363d 0f5c 0f3d e5bd 41be 479e 6c3d
00000030: b361 b5bd 611e 2dbe f07c e4bd 0aec 67bc
00000040: 29a8 02bd 6760 88bd 7fbf 37be 2fc4 1cbe
00000050: 323f 28bd 5925 7bbd b5d8 7fbe bc85 7ebe
00000060: 4ae0 d23c eb69 3ebd f354 413e 59b7 af3d
00000070: a872 313e 38a6 28be d186 6a3d 5873 00bd
00000080: e46d 8dbb 6ba1 63be f046 2f3e f5fc 8a3d
00000090: 0ed3 163e c759 e2bd 56c4 1abc ded6 b13d
000000a0: ed11 f9bc d7e4 5c3d 1e47 783d 60dd 3a3e
000000b0: a9f6 e8bd e252 0d3e a540 1dbe 029e 45be
000000c0: de8e e43d 6e5e 163e 1d8c 76be 2095 3fbe
000000d0: 016a d63d cc80 583d ef5c 3d3d fac3 5abe
000000e0: 1022 9ebd c2de f3bc 346e 1abb 2f45 bd3d
000000f0: 1726 073e af3b 53be 89d9 7c3e 5cf0 09be
00000100: 0c32 a3bc ba59 223d 7846 eb39 50f3 0cbd
00000110: 28ca 1dbd d77d 9dbd 7db3 0fbe 233f 01be
00000120: df6a 513d 0574 ca3a f49f 083e a137 08be
00000130: a552 09be 2dab 06be 51c4 fa3c 9df5 873c
00000140: 628f 263e f6b6 d53d 6346 2cbe 4aad 40bb
00000150: 8ff5 2dbe eeeb 493e f0a9 eebd c8d9 bc3d
00000160: 3b9e 83bd 7d77 03be da2d 97bd 521a 37be
00000170: 47c5 863c 5b1b 3dbe e02e 78be 585c 8a3d
00000180: 1d12 b9bc eb09 c0ba 74c5 27be 357e 7abe
00000190: 5a61 803d 54bb 0d3f 265d 61be 7aea 183e
000001a0: 0092 003e 130d 17be 4405 debe e47b e4bd
000001b0: 1a32 a6be f869 c8bd e322 a2bd 4616 88bc
000001c0: e672 0bbe 0aa0 33be 3188 d23b 74fc 37be
000001d0: 48ac 4cba a1c2 ed3d 5cc4 6f3e c104 663e
000001e0: 1a5d aa3d 7e74 f0bd 4568 4e3e 2e20 8cbe
000001f0: 5426 273d 8985 b03d e06f 1fbe e09a 1e3c
00000200: a927 60be d3a3 8f3e 7c2e 103e 2b09 423c
00000210: ca46 bd3d 857e 2dbe 97df f73d 74a3 96bd
00000220: eed4 edbd c045 a8bd bb96 953c f045 98bd
00000230: c639 f33c b374 323e 6270 eb3c 6b61 c4bd
00000240: 0f48 ebbc e810 3a3e 8afe bebd da1d 183e
00000250: d188 a33c de03 bebd 7b8d 50be 24dc 0b3d
00000260: 1827 ea3d bf51 4bbd 2ded 0cbe c8e0 343e
00000270: 527f 68be 83cd 28be b5b2 373e 8bb2 45be
00000280: bc83 1cbe d7b1 aa3d 9ca6 babb 0ec9 2f3e
00000290: 01ca 24be db14 02bd ecce 6dbd 0e68 10be
000002a0: 3357 c4bd a624 3c3d 72d2 903d e2af 2dbd
000002b0: bd36 803d 7495 fabd 6faf 6abe 8f96 e43d
000002c0: faff 85be e1ba 8abc 6cda ebbd 12c3 85be
000002d0: c7de 7e3c 697c 5b3d 3420 0d3e 9d51 b73d
000002e0: 35dd 8b3e 05f5 f1bd 2fd4 18bd 3917 09be
000002f0: 26d6 dcbd 4a7f c83d eaa8 2e3d c5df 8fbe
00000300: 9ab7 69be 1c2e c83c 8e30 27be cc74 8dbd
00000310: 6901 833c d769 903d bfab b5bd 7a85 1fbd
00000320: 586a de3d 743b 213d a7ed 333e d886 c2bd
00000330: 2f9a ecbd 2009 aabb 2d7e 34be 036d 073d
00000340: d15f 983c 30ed fbbd 6b52 13bd 02d5 12be
00000350: c2cb 38be 76a0 86bd 7b12 7fbd bb12 673c
00000360: 0b0d 1bbe 3476 453b a961 9c3d 9229 22be
00000370: 4fc9 703d 8b9d ccbd 0355 28be 860a a1bd
00000380: 23bb af3d f361 083e cced 6f3d 833a a3bd
00000390: 7315 dc3d 5209 d1bc 7183 3fbe f4ae f03c
000003a0: 1969 283e 8892 22bd 4613 9fbd 66d1 14be
000003b0: 3c47 5dbe 8a0b 73be bc5d 32be 89ea 42be
000003c0: 810b 253c ac85 c8bd 327a a63b 03f7 c9bd
000003d0: fec8 5e3e 1cbf 513e 4b2a fbbd 7aa1 32be
000003e0: ef9a 7abc 3964 8d3d e17e 31be cdec d5bd
000003f0: 0e9a 6bbd b91e 61be 52a9 303e 1574 4f3d

X_1.0.bias f4 [128]
0.10967733 -0.09799487 -0.29416272 0.13505906 0.046031717 -0.081545755 0.033286065 -0.14976361
-0.12581643 -0.071660936 0.09770065 0.18111639 0.027132519 0.09698544 -0.028094105 0.02208127
-0.33380514 0.13538639 0.092598654 0.16763401 0.13532785 0.16136147 0.08319779 0.11677356
-0.30965003 -0.07476171 -0.06605056 0.09611438 -0.1399241 -0.14404473 0.06954038 -0.19249174
0.047851536 -0.1706585 0.12649074 -0.1732889 0.21298583 -0.11863179 -0.29356113 -0.27462524
0.08610643 -0.2461355 0.26341823 -0.13556439 -0.114949815 0.1415892 -0.081402786 -0.30765495
0.10299466 0.13731018 -0.11775416 -0.0009673729 0.14750588 0.062065605 -0.17544518 0.17028196
-0.182074 -0.18537463 0.0978303 0.14965087 -0.22628394 -0.112577885 0.06885883 -0.054221127
-0.055078465 -0.069944315 0.07480825 -0.2469636 0.06673049 0.20931202 -0.29019248 -0.30066654
-0.13112472 -0.16673824 -0.20119621 -0.15573017 -0.13067758 -0.1176527 -0.22161649 0.18729255
-0.12016143 -0.14574316 -0.24841426 -0.10925564 -0.058145106 -0.28176647 -0.18976577 0.06632875
-0.097367644 0.06944055 0.02584836 0.06363163 0.08650735 -0.2035285 0.10687282 -0.009057236
-0.31198165 0.122350946 -0.15761882 -0.023867846 0.08572858 -0.12057665 -0.02186795 -0.054907866
0.010962471 -0.06277448 -0.16655448 -0.07209265 -0.15547451 0.1129285 0.15044825 0.021004453
-0.19472606 -0.16961512 0.038278475 0.017753625 -0.18084571 -0.020239875 0.19101728 0.06984473
0.21205886 -0.09079478 0.14863406 -0.22435898 0.18220726 0.010113938 -0.11611535 -0.14812769
00000000: 829e e03d 89b1 c8bd 7f9c 96be ec4c 0a3e
00000010: c18b 3c3d 7601 a7bd f856 083d a25b 19be
00000020: 06d6 00be f8c2 92bd 4717 c83d 9376 393e
00000030: 0445 de3c 4da0 c63d 9c25 e6bc c8e3 b43c
00000040: 82e8 aabe bba2 0a3e 5da4 bd3d 40a8 2b3e
00000050: 6293 0a3e f13b 253e 9a63 aa3d fa26 ef3d
00000060: 738a 9ebe ab1c 99bd 8445 87bd 9ed7 c43d
00000070: 4348 0fbe 7680 13be 306b 8e3d 8e1c 45be
00000080: f9ff 433d 1ac1 2ebe ca86 013e a572 31be
00000090: f518 5a3e 39f5 f2bd a54d 96be ae9b 8cbe
000000a0: 9158 b03d f20a 7cbe c1de 863e 64d1 0abe
000000b0: cf6a ebbd c2fc 103e 81b6 a6bd f384 9dbe
000000c0: ddee d23d 0a9b 0c3e 1829 f1bd 4c97 7dba
000000d0: c80b 173e 8138 7e3d e7a7 33be 655e 2e3e
000000e0: 9b71 3abe d9d2 3dbe 415b c83d 143e 193e
000000f0: fab6 67be 3c8f e6bd dc05 8d3d f916 5ebd
00000100: f599 61bd f73e 8fbd 1135 993d 07e4 7cbe
00000110: ffa9 883d e455 563e 1c94 94be f7f0 99be
00000120: 8f45 06be 6ebd 2abe 6106 4ebe bb77 1fbe
00000130: 58d0 05be e6f3 f0bd 6fef 62be 9ec9 3f3e
00000140: 3217 f6bd b23d 15be 4f60 7ebe 6cc1 dfbd
00000150: 9029 6ebd b243 90be f551 42be 5ed7 873d
00000160: b068 c7bd d936 8e3d f1bf d33c 4d51 823d
00000170: c42a b13d c669 50be 23e0 da3d cd64 14bc
00000180: 0fbc 9fbe 2293 fa3d d466 21be 8086 c3bc
00000190: 7792 af3d e4f0 f6bd 6a24 b3bc 12e7 60bd
000001a0: f09b 333c e88f 80bd 428d 2abe 50a5 93bd
000001b0: b634 1fbe 0f47 e73d 1b0f 1a3e 8811 ac3c
000001c0: 4566 47be 96af 2dbe e4c9 1c3d 0d70 913c
000001d0: 9e2f 39be 18ce a5bc 099a 433e c10a 8f3d
000001e0: f525 593e 9df2 b9bd 8733 183e 5cbe 65be
000001f0: 8a94 3a3e eeb4 253c e2cd edbd c9ae 17be

X_11.0.weight f4 [128, 20]
-0.05310036 0.3463112 -0.16117582 0.10169053 -0.32804278 -0.054439817 -0.11067681 -0.007258402
0.047927935 -0.17864423 -0.0738817 0.085353486 -0.17993586 0.0834645 0.1447143 0.20053405
0.19605234 -0.14231263 -0.025468681 -0.23771955 0.31730837 -0.04397086 0.1119474 -0.073040284
0.1864244 -0.20065697 -0.036883425 0.18413833 0.37283486 -0.21071395 -0.11592588 0.122145355
-0.013396842 0.0113082845 0.11081066 0.18518229 -0.08057393 0.22147872 0.13984242 -0.1957801
0.0280568 -0.16037342 0.12475303 0.047184113 -0.2784093 -0.30103093 -0.059815634 0.22394507
0.019957948 0.16457385 0.0052300254 0.00047918654 -0.18876755 -0.084874995 -0.08271456 0.022580015
0.18187077 0.07211023 -0.23580292 -0.2369853 0.33612624 0.042294625 0.4395465 -0.020763509
0.20381919 -0.16581962 0.12584667 0.024178086 -0.10051552 -0.2851826 -0.156646 0.1823822
0.044601273 -0.059081674 -0.06799482 0.23757128 0.0617013 -0.17795663 0.06442016 0.15363765
0.07783713 -0.045990545 -0.040745936 -0.04180386 0.044696674 0.1393076 -0.0916753 -0.05022623
0.18669827 0.11448158 -0.1790888 -0.030992882 0.05723851 -0.04340319 0.0016720457 -0.25138906
-0.046686016 -0.102121636 0.09330056 -0.045418475 -0.057324953 -0.08519998 -0.26228583 -0.111137986
-0.010061746 0.15145993 -0.2562833 0.126301 -0.17755711 0.16519831 -0.05175104 -0.11786284
-0.059425533 -0.26867837 -0.1821357 0.064490736 -0.20008905 -0.26804617 -0.10354893 -0.15827635
-0.15981582 0.16184981 0.028328769 -0.055097096 -0.17402655 0.01881078 0.02192514 -0.031787317
0.14296281 -0.035064243 0.09101255 -0.1438108 -0.14271516 -0.15536684 0.110448696 -0.1417776
-0.19891658 0.025341561 -0.054966252 0.057939805 0.37984455 -0.014266782 0.13686338 -0.26162577
0.16037104 -0.0175159 0.15879793 0.10275981 0.05911932 -0.029457055 -0.16544053 -0.18499205
0.12653244 -0.034609243 0.082501024 -0.18053368 -0.05565984 0.08893226 0.064116016 0.028271314
0.22804835 -0.011822168 -0.074938096 0.13915148 0.11568494 -0.053558704 -0.25994217 -0.10226654
-0.16906022 -0.057069454 -0.20246632 -0.27920908 0.020692624 -0.017382277 -0.091787845 -0.09862038
0.080801845 0.073015854 -0.1558224 -0.15974717 -0.06638351 -0.19347213 0.33781096 0.046601858
0.16340807 0.12217801 -0.3201729 -0.0011551669 -0.22265787 -0.058752637 -0.0994957 0.12982784
-0.06032268 0.11843877 -0.020079993 0.21348384 0.10343226 -4.598405e-06 0.09682454 0.13231856
-0.043692682 -0.07544357 0.07472386 -0.04886803 -0.013710339 0.073310636 -0.24289282 0.208909
-0.17118263 -0.09326715 -0.11899484 0.17588218 -0.0023864931 -0.24985734 -0.25048652 -0.26014063
-0.11969887 -0.28397417 0.10875208 0.031344958 0.079352245 -0.13043465 0.13973238 -0.106194936
0.21692716 0.121634185 -0.24761121 0.1879939 0.11265988 -0.09947646 -0.12120427 0.06694907
-0.09771955 -0.058636256 -0.025766058 0.11336782 -0.03291006 -0.06507531 0.054743834 -0.043200046
-0.2030662 -0.13693549 0.41426665 0.14337428 -0.0041097095 -0.23065175 0.056994483 -0.053487558
-0.23567206 0.1767295 0.021891834 0.020244092 0.12937132 0.1117721 0.1712985 -0.22234145
00000000: c37f 59bd b44f b13e 460b 25be 2043 d03d
00000010: 39f5 a7be 49fc 5ebd 86aa e2bd e4d7 edbb
00000020: 1550 443d 83ee 36be 4a4f 97bd cfcd ae3d
00000030: 1b41 38be 70ef aa3d fc2f 143e cc58 4d3e
00000040: f2c1 483e 67ba 11be b2a3 d0bc c16c 73be
00000050: 3e76 a23e ca1a 34bd ae44 e53d 2596 95bd
00000060: 0ae6 3e3e 0579 4dbe 1313 17bd c28e 3c3e
00000070: 36e4 be3e 66c5 57be 8c6a edbd 5827 fa3d
00000080: 6e7e 5bbc 6246 393c b3f0 e23d 6da0 3d3e
00000090: f203 a5bd 51cb 623e da32 0f3e 947a 48be
000000a0: 60d7 e53c ee38 24be 847e ff3d 2144 413d
000000b0: aa8b 8ebe ba20 9abe 3d01 75bd db51 653e
000000c0: da7e a33c 0c86 283e a260 ab3b 543b fb39
000000d0: 484c 41be f1d2 adbd 4066 a9bd b9f9 b83c
000000e0: 553c 3a3e 87ae 933d 5276 71be 46ac 72be
000000f0: bd18 ac3e 213d 2d3d 3d0c e13e 3c18 aabc
00000100: fab5 503e 9ecc 29be f3dd 003e 1f11 c63c
00000110: 15db cdbd 7403 92be cf67 20be 66c2 3a3e
00000120: d3af 363d a0ff 71bd de40 8bbd e345 733e
00000130: 81ba 7c3d 433a 36be b8ee 833d 3053 1d3e
00000140: 1369 9f3d 9560 3cbd 36e5 26bd 863a 2bbd
00000150: dc13 373d a7a6 0e3e 42c0 bbbd 05ba 4dbd
00000160: d52d 3f3e 5275 ea3d 0e63 37be c9e4 fdbc
00000170: ee72 6a3d 8bc7 31bd 8b28 db3a 11b6 80be
00000180: d639 3fbd 2625 d1bd 5d14 bf3d b908 3abd
00000190: 92cd 6abd 547d aebd 544a 86be 509c e3bd
000001a0: 06da 24bc 5018 1b3e 9137 83be 0d55 013e
000001b0: 88d1 35be bf29 293e e6f8 53bd 1362 f1bd
000001c0: 3068 73bd 3690 89be c881 3abe b813 843d
000001d0: 25e4 4cbe 593d 89be 7611 d4bd 3213 22be
000001e0: c2a6 23be f5bb 253e bc11 e83c 7ead 61bd
000001f0: 0434 32be 1119 9a3c 5a9c b33c 6b33 02bd
00000200: d864 123e 869f 0fbd ca64 ba3d 2343 13be
00000210: ec23 12be 7c18 1fbe ed32 e23d 262e 11be
00000220: cab0 4bbe 1b99 cf3c 4b24 61bd 4a52 6d3d
00000230: fc7a c23e 39bf 69bc ea25 0c3e d0f3 85be
00000240: 4e38 243e 817d 8fbc ed9b 223e bc73 d23d
00000250: 1a27 723d ec4f f1bc 3e69 29be 8e6e 3dbe
00000260: b891 013e 6cc2 0dbd 4cf6 a83d d2dd 38be
00000270: 93fb 63bd 1e22 b63d 424f 833d 3e99 e73c
00000280: 8285 693e c4b1 41bc 2579 99bd ba7d 0e3e
00000290: 3aec ec3d 5f60 5bbd 2417 85be 1f71 d1bd
000002a0: 1f1e 2dbe a9c1 69bd 5553 4fbe 7ef4 8ebe
000002b0: 9483 a93c 4765 8ebc 44fb bbbd 7bf9 c9bd
000002c0: 707b a53d 5689 953d e88f 1fbe c394 23be
000002d0: 14f4 87bd 8f1d 46be 8ff5 ac3e 97e1 3e3d
000002e0: 7254 273e 7738 fa3d b4ed a3be f868 97ba
000002f0: 6d00 64be 9ba6 70bd 67c4 cbbd 97f1 043e
00000300: ea14 77bd 0790 f23d cc7e a4bc 829b 5a3e
00000310: 4bd4 d33d 004c 9ab6 f24b c63d 847e 073e
00000320: 19f7 32bd 2982 9abd d308 993d d829 48bd
00000330: 54a1 60bc e323 963d e5b8 78be 3eec 553e
00000340: 804a 2fbe d902 bfbd 91b3 f3bd 751a 343e
00000350: b666 1cbb 9ada 7fbe c53f 80be 2731 85be
00000360: ae24 f5bd 1065 91be 69b9 de3d 9263 003d
00000370: 6e83 a23d a990 05be 0116 0f3e bb7c d9bd
00000380: 2722 5e3e 581b f93d cb8d 7dbe 7981 403e
00000390: 39ba e63d 50ba cbbd f239 f8bd 981c 893d
000003a0: 3021 c8bd 922c 70bd 5713 d3bc 632d e83d
000003b0: b3cc 06bd 3446 85bd 123b 603d 88f2 30bd
000003c0: 96f0 4fbe d138 0cbe c21a d43e b5d0 123e
000003d0: beaa 86bb f92f 6cbe 0c73 693d c515 5bbd
000003e0: 0454 71be 94f8 343e 8156 b33c f0d6 a53c
000003f0: ea79 043e c5e8 e43d e068 2f3e 7aad 63be

X_11.0.bias f4 [128]
0.01445799 -0.18643774 -0.20011057 0.104045615 -0.027578115 -0.16992168 -0.1990335 0.11117819
0.10791877 -0.04846649 0.046746373 0.20250915 0.05934957 -0.11463056 0.18995269 0.10261032
-0.29708746 0.10236998 -0.14702918 0.15593122 -0.094661266 -0.024679186 0.10740568 -0.23102172
-0.13343628 -0.14635238 0.10985077 -0.24608234 0.06824727 -0.06425716 0.034777384 -0.16422552
-0.03651477 0.16155821 -0.17091681 -0.04877919 0.035299733 -0.024532916 0.06895373 -0.18005443
0.10509963 0.16967636 0.1967526 -0.050020467 0.122011736 -0.1233817 -0.2575795 -0.2108924
0.1540243 -0.03004698 0.11121866 -0.10214446 0.014886289 -0.12691163 0.10378546 -0.042668853
-0.16646203 0.12132176 0.09991646 -0.009400731 0.15478401 0.08753394 -0.052049123 0.027305167
0.116549134 0.2057827 0.14510095 0.12098687 0.03885001 -0.2501595 0.09878631 0.05954692
0.12535116 0.1885016 -0.19276224 -0.1744496 -0.017391305 -0.15416923 0.059292573 -0.013470922
0.07716337 -0.03452341 0.08324433 -0.16286735 0.08998687 0.13925241 -0.1453563 0.049164753
0.07505543 0.08414135 0.013437836 -0.085065864 -0.20095846 0.056475047 0.09399741 0.012658936
0.16807292 0.066358805 -0.06525955 -0.1557972 -0.10029095 -0.09907215 -0.16114917 -0.22503255
-0.12087127 -0.005792861 0.14797986 -0.1526651 -0.2224748 -0.123602144 -0.1797647 0.10186444
0.013466961 -0.048462998 0.011513551 -0.050461072 0.05747559 -0.120890796 0.09905269 0.20670648
0.0022306147 -0.14279328 -0.3043804 0.058156934 0.19101629 -0.056144517 -0.027319983 -0.11531755
00000000: 35e1 6c3c 89e9 3ebe c9e9 4cbe de15 d53d
00000010: 80eb e1bc f3ff 2dbe 70cf 4bbe 64b1 e33d
00000020: 8404 dd3d cc84 46bd 2079 3f3d 8f5e 4f3e
00000030: 8918 733d 6dc3 eabd f582 423e 5c25 d23d
00000040: d91b 98be 5aa7 d13d d18e 16be 6fac 1f3e
00000050: c4dd c1bd 012c cabc 82f7 db3d f590 6cbe
00000060: 85a3 08be 66dd 15be 71f9 e03d 02fd 7bbe
00000070: 3ac5 8b3d 4299 83bd bb72 0e3d bc2a 28be
00000080: 8390 15bd 846f 253e d104 2fbe b0cc 47bd
00000090: 7496 103d 41f9 c8bc 9d37 8d3d 3060 38be
000000a0: 7a3e d73d a4bf 2d3e 8379 493e 43e2 4cbd
000000b0: 4ae1 f93d 8baf fcbd 76e1 83be 2df4 57be
000000c0: 8cb8 1d3e 1625 f6bc 9cc6 e33d 1d31 d1bd
000000d0: 9fe5 733c 1ff5 01be 798d d43d 89c5 2ebd
000000e0: 0675 2abe 8b77 f83d 00a1 cc3d 8605 1abc
000000f0: b37f 1e3e ff44 b33d 7631 55bd 16af df3c
00000100: 50b1 ee3d b3b8 523e 5895 143e f7c7 f73d
00000110: 3021 1f3d e814 80be 7a50 ca3d 79e7 733d
00000120: 0e5c 003e 9006 413e 7763 45be eaa2 32be
00000130: 3678 8ebc 8ade 1dbe c5dc 723d 24b5 5cbc
00000140: d407 9e3d 6b68 0dbd 017c aa3d b3c6 26be
00000150: 094b b83d 2f98 0e3e 48d8 14be fb60 493d
00000160: a9b6 993d 4d52 ac3d 5f2a 5c3c 0337 aebd
00000170: 0ec8 4dbe 6152 673d b781 c03d 6d67 4f3c
00000180: 4f1b 2c3e 20e7 873d cda6 85bd 4d89 1fbe
00000190: 5765 cdbd 57e6 cabd 4a04 25be ef6e 66be
000001a0: 5b8b f7bd 0ad2 bdbb 0888 173e 3d54 1cbe
000001b0: 6fd0 63be 1f23 fdbd 3d14 38be 4e9e d03d
000001c0: 87a4 5c3c 2381 46bd 55a3 3c3c 45b0 4ebd
000001d0: 866b 6b3d 9895 f7bd 23dc ca3d ddaa 533e
000001e0: 812f 123b 6738 12be bfd7 9bbe f735 6e3d
000001f0: c699 433e cbf7 65bd 28ce dfbc 9c2b ecbd

X_12.0.weight f4 [128, 20]
-0.1938893 0.0746314 0.16838042 -0.036840975 -0.032246508 -0.1019418 0.053955074 0.13361172
-0.11537163 0.07817804 0.028594803 -0.18097068 0.12794499 -0.25940326 -0.22523214 -0.0053050504
0.04056571 0.057303187 -0.23989907 -0.1026494 -0.10831557 0.027374549 -0.029140672 0.21421137
-0.23323232 -0.15310413 0.104872584 0.0356101 -0.1362895 0.16617292 0.009449486 0.016582154
-0.0026003965 0.07764024 -0.061641537 0.029529925 -0.20545533 -0.11938581 -0.23283981 -0.24004939
0.08363359 0.025186064 -0.20738214 0.07728167 -0.23934993 0.13000682 0.25570682 0.10831059
0.076956734 -0.045791015 0.0060390616 -0.25142643 -0.12595034 0.033915844 -0.091032565 -0.014294323
-0.17812672 -0.22510177 -0.24659728 0.022533586 -0.10690593 -0.08707109 -0.3169971 -0.30306196
-0.08341285 -0.08268647 0.40464756 0.07276972 -0.06607883 0.08412717 -0.21930122 -0.056555253
0.11280909 -0.11275482 0.1353383 0.05296202 0.07198982 -0.10535733 0.015277616 -0.13737255
-0.08231445 0.0405137 0.06932148 -0.088645436 0.12696525 -0.12638618 0.15276647 -0.17500186
-0.037000928 0.050392702 0.13519369 -0.037128426 -0.096206084 0.15886854 0.02205316 -0.028378302
0.030710757 -0.18332294 -0.23624097 -0.23762026 -0.10205164 -0.12864293 0.0045466316 0.025498668
0.060824137 -0.09463646 0.13978568 -0.08934811 -0.13648534 -0.009135239 -0.10304734 -0.1384732
-0.2224648 -0.2329236 -0.04316489 0.15338384 -0.19453746 0.14465378 0.14989755 0.15052643
0.0011827681 -0.14102793 0.32381552 0.26793322 0.06644865 0.010630276 -0.22930467 -0.11306071
-0.31656197 -0.16770786 0.23369487 0.114901535 0.08303404 -0.05717742 0.10636298 0.10420552
0.23301728 -0.05573616 -0.17974384 0.15026179 -0.123904936 0.046114735 0.117398866 -0.08034051
0.23384693 0.1786775 0.17442489 0.04414225 0.12469656 0.01157398 -0.16429377 0.16973232
0.1692071 -0.16020514 0.0068201125 -0.038873684 -0.026522586 0.009755277 -0.231388 0.04098154
-0.10690711 -0.12930256 -0.024998033 0.1611736 -0.091376804 0.030247603 -0.27578148 0.16559842
-0.22978498 0.01222095 -0.04119825 -0.11727294 0.18448405 -0.1331306 -0.15722491 -0.028064102
-0.1182136 0.06326431 -0.15697269 -0.11811283 0.0060059554 -0.21413366 -0.0102571435 0.005082469
-0.11630608 0.018895999 -0.25153804 -0.08941331 0.16947925 -0.008448435 -0.2529378 -0.11202874
-0.18127291 -0.132688 0.045212377 -0.28511313 -0.0026973179 -0.037724216 0.06096342 0.052639514
-0.13936566 0.34386376 0.21710353 0.0166212 0.0061686076 -0.31930193 0.20072727 -0.15553501
0.16719478 -0.053286288 0.11249725 -0.12609547 0.03437406 -0.020550199 0.04041098 0.07303604
0.104180224 0.13034034 0.014696311 0.035970792 0.11584662 -0.0032993222 -0.08478062 0.027699197
-0.050718844 -0.13811174 0.1683069 -0.054370537 -0.099164546 0.04432862 -0.005465314 -0.0032710528
-0.15487428 0.117850326 -0.1291948 0.09407165 -0.24337927 0.13119683 -0.25775415 -0.00087213796
0.055536978 0.047635395 0.030895207 0.05576125 0.1708588 -0.110140786 -0.112092465 -0.1863554
0.27878505 0.24079454 -0.038201865 -0.14072621 0.15531503 0.00022315583 0.12966773 -0.2353376
00000000: eb8a 46be 59d8 983d eb6b 2c3e 90e6 16bd
00000010: ea14 04bd ddc6 d0bd ffff 5c3d 83d1 083e
00000020: f647 ecbd cf1b a03d a63f ea3c 6150 39be
00000030: 0304 033e 81d0 84be 41a3 66be fdd5 adbb
00000040: 3b28 263d bfb6 6a3d 1aa8 75be d939 d2bd
00000050: 8ed4 ddbd 9740 e03c 6bb8 eebc 3a5a 5b3e
00000060: 74d4 6ebe 54c7 1cbe 70c7 d63d e5db 113d
00000070: 7a8f 0bbe 3c29 2a3e 04d2 1a3c 4cd7 873c
00000080: 6a6b 2abb d901 9f3d d67b 7cbd bee8 f13c
00000090: e262 52be 8c80 f4bd 8f6d 6ebe 82cf 75be
000000a0: 1648 ab3d 0153 ce3c fc5b 54be da45 9e3d
000000b0: 2618 75be 8220 053e 01ec 823e f1d1 dd3d
000000c0: 7e9b 9d3d 5c8f 3bbd 52e3 c53b f7ba 80be
000000d0: 20f9 00be 57eb 0a3d 486f babd bc32 6abc
000000e0: da66 36be 1481 66be ff83 7cbe 5b98 b83c
000000f0: 7ff1 dabd 5452 b2bd 724d a2be f02a 9bbe
00000100: 5bd4 aabd 8657 a9bd f72d cf3e 4a08 953d
00000110: 5654 87bd de4a ac3d 8090 60be 7ba6 67bd
00000120: 7408 e73d 00ec e6bd 2096 0a3e b4ee 583d
00000130: 666f 933d 95c5 d7bd f74e 7a3c 64ab 0cbe
00000140: 7a94 a8bd b2f1 253d 6cf8 8d3d bd8b b5bd
00000150: 2e03 023e 616b 01be d06e 1c3e b033 33be
00000160: 498e 17bd 9468 4e3d 3770 0a3e fa13 18bd
00000170: b207 c5bd 6fae 223e d4a8 b43c 9d79 e8bc
00000180: 2095 fb3c 02b9 3bbe 27e9 71be ba52 73be
00000190: 7300 d1bd f9ba 03be e9fb 943b 95e2 d03c
000001a0: bb22 793d c3d0 c1bd fa23 0f3e 24fc b6bd
000001b0: d0c2 0bbe f8ab 15bc 7c0a d3bd ebcb 0dbe
000001c0: d0cd 63be 8683 6ebe abcd 30bd a710 1d3e
000001d0: d434 47be 1f20 143e be7e 193e 9a23 1a3e
000001e0: 1d07 9b3a a069 10be 26cb a53e 8b2e 893e
000001f0: 3b16 883d 9c2a 2e3c d8ce 6abe 608c e7bd
00000200: 6914 a2be 9cbb 2bbe b54d 6f3e 7f51 eb3d
00000210: c00d aa3d df32 6abd d6d4 d93d b469 d53d
00000220: 159c 6e3e 9a4b 64bd c50e 38be 3ade 193e
00000230: dfc1 fdbd cee2 3c3d d16e f03d 9189 a4bd
00000240: 9275 6f3e 3cf7 363e 709c 323e 81ce 343d
00000250: e960 ff3d caa0 3d3c a03c 28be 4fce 2d3e
00000260: a044 2d3e d10c 24be 407b df3b 033a 1fbd
00000270: e545 d9bc 99d4 1f3c faf0 6cbe 42dc 273d
00000280: 1df2 dabd e467 04be adc8 ccbc b10a 253e
00000290: c323 bbbd d2c9 f73c 3b33 8dbe a292 293e
000002a0: c14c 6bbe 613a 483c 7fbf 28bd cc2c f0bd
000002b0: 63e9 3c3e 6353 08be 91ff 20be b0e6 e5bc
000002c0: f919 f2bd b890 813d 73bd 20be 24e5 f1bd
000002d0: 9bcd c43b db45 5bbe 940d 28bc d78a a63b
000002e0: e231 eebd c8cb 9a3c 98c9 80be 531e b7bd
000002f0: f88b 2d3e 4e6b 0abc 1081 81be 536f e5bd
00000300: 9b9f 39be 5ddf 07be 9d30 393d 59fa 91be
00000310: 7cc5 30bb b584 1abd c7b4 793d 889c 573d
00000320: dfb5 0ebe e90e b03e 6350 5e3e 2f29 883c
00000330: 0822 ca3b 8b7b a3be 738b 4d3e 9244 1fbe
00000340: 1c35 2b3e b942 5abd f564 e63d 2c1f 01be
00000350: d0cb 0c3d e458 a8bc fc85 253d eb93 953d
00000360: 715c d53d f077 053e ccc8 703c 1c56 133d
00000370: fe40 ed3d 7139 58bb 76a1 adbd 6de9 e23c
00000380: 90be 4fbd 2a6d 0dbe a558 2c3e a4b3 5ebd
00000390: c816 cbbd ed91 353d 6016 b3bb 295f 56bb
000003a0: 5d97 1ebe 835b f13d a44b 04be a3a8 c03d
000003b0: 6a38 79be 7658 063e 5af8 83be 30a0 64ba
000003c0: be7a 633d 551d 433d f217 fd3c e965 643d
000003d0: 9cf5 2e3e 7e91 e1bd bc90 e5bd f3d3 3ebe
000003e0: eabc 8e3e d892 763e 8f79 1cbd 881a 10be
000003f0: e70a 1f3e f0fe 6939 9ec7 043e 57fc 70be

X_12.0.bias f4 [128]
-0.02704106 -0.03635963 0.1276105 -0.14866704 0.09640299 0.016331147 -0.14774759 0.09321319
-0.0028779593 -0.16316202 0.0057040188 -0.07879114 0.0842199 -0.21478426 0.11439928 0.0074550435
-0.25623566 -0.032557 -0.0499364 0.017615639 -0.13529477 -0.0088209845 -0.28129625 0.06446997
-0.21296467 -0.02736813 -0.029126957 -0.12453812 0.05473139 0.043567285 -0.23365535 0.10174864
0.11414011 -0.1475943 -0.16183801 0.044484887 -0.220142 -0.025740186 0.017374028 -0.14332812
-0.22256811 -0.011337161 0.03421991 -0.27981684 0.05546111 -0.26702833 -0.14617708 -0.01247236
-0.19582777 -0.12780748 0.0964973 -0.19781385 0.059538033 -0.11239186 -0.11824404 0.055871584
-0.16686787 -0.06954484 -0.093429595 0.050233025 -0.118807346 -0.0363081 0.21895455 -0.15664648
-0.122509465 -0.09189838 -0.16347577 0.15549266 0.037725374 0.19717032 -0.079290085 -0.13048322
0.066421956 0.103067495 -0.13734537 -0.07839766 -0.031134464 -0.25540417 -0.11344328 -0.12791649
0.07784632 -0.09610968 0.118539505 1.2122502e-05 0.0153736295 -0.26274747 -0.014950158 -0.07159426
-0.014497198 -0.053970244 -0.03808709 0.12351273 0.029141158 -0.06288201 -0.06644165 -0.14006719
-0.039392818 -0.26266912 0.009011025 -0.26877254 -0.16371349 0.025986232 -0.020766161 -0.21420266
0.09666089 -0.19331844 0.038772754 -0.1892728 -0.14443418 -0.25474572 -0.2629244 -0.026458919
-0.11441778 0.017195733 -0.1546121 -0.17094466 -0.08480526 0.03090586 0.21178621 0.04074491
-0.042814933 0.14366205 0.13915235 -0.19474526 -0.011622425 0.013934109 -0.11785389 -0.22765523
00000000: 3785 ddbc d6ed 14bd 54ac 023e 2c3c 18be
00000010: ee6e c53d e6c8 853c 254b 17be 8fe6 be3d
00000020: 259c 3cbb f213 27be c7e8 ba3b 405d a1bd
00000030: 7c7b ac3d 68f0 5bbe 2b4a ea3d 7049 f43b
00000040: 5231 83be 7d5a 05bd 1c8a 4cbd ac4e 903c
00000050: b68a 0abe e485 10bc 1006 90be d508 843d
00000060: 6913 5abe 2133 e0bc a89b eebc d80d ffbd
00000070: 062e 603d 9c73 323d 5943 6fbe 9761 d03d
00000080: 4ac2 e93d f622 17be ddb8 25be c935 363d
00000090: e86c 61be 15dd d2bc fa53 8e3c 9bc4 12be
000000a0: e5e8 63be 80bf 39bc 2d2a 0c3d 2744 8fbe
000000b0: 302b 633d f0b7 88be 72af 15be df58 4cbc
000000c0: 1387 48be f7df 02be 60a0 c53d b78f 4abe
000000d0: 27de 733d b42d e6bd ee29 f2bd 9ad9 643d
000000e0: 69df 2abe 866d 8ebd 0458 bfbd 25c1 4d3d
000000f0: 4451 f3bd cdb7 14bd 9f35 603e ef67 20be
00000100: 3ee6 fabd 3835 bcbd 3166 27be 7839 1f3e
00000110: ec85 1a3d 04e7 493e d762 a2bd 659d 05be
00000120: 3c08 883d 0d15 d33d 44a4 0cbe f48e a0bd
00000130: b40d ffbc 56c4 82be f354 e8bd 8afc 02be
00000140: e46d 9f3d 27d5 c4bd d7c4 f23d c061 4b37
00000150: ade1 7b3c d686 86be 82f1 74bc 03a0 92bd
00000160: a885 6dbc e70f 5dbd 3501 1cbd 3ef4 fc3d
00000170: 70b9 ee3c 49c8 80bd 8f12 88bd c66d 0fbe
00000180: 5d5a 21bd 917c 86be faa2 133c 8e9c 89be
00000190: 82a4 27be 14e1 d43c cc1d aabc f157 5bbe
000001a0: 25f6 c53d 45f5 45be 2ed0 1e3d bbd0 41be
000001b0: 8ee6 13be 086e 82be 079e 86be 60c0 d8bc
000001c0: de53 eabd 11de 8c3c a252 1ebe 1e0c 2fbe
000001d0: 61ae adbd 492e fd3c 7cde 583e 22e4 263d
000001e0: b65e 2fbd 251c 133e f47d 0e3e 4d6b 47be
000001f0: fc6b 3ebc e44b 643c 615d f1bd 741e 69be

X_2.0.weight f4 [128, 128]
-0.048826486 0.05982705 0.056752954 0.0120193 0.065510094 -0.08990752 -0.06178088 -0.13625765
-0.16982494 -0.16827224 -0.084545985 -0.01949655 -0.124108285 -0.13681579 -0.14748041 -0.1427932
0.1048932 -0.06843246 0.048260577 -0.13455196 -0.086318865 -0.06321504 0.14505206 0.054969072
-0.04897964 -0.033136133 -0.0036519968 0.0016722996 0.22208998 -0.021200035 0.10910032 -0.13028745
0.103833325 -0.10086105 -0.06254301 -0.07579194 -0.12756908 0.00086530705 -0.06872924 -0.19477743
-0.027565254 -0.015538037 -0.112732366 -0.103431106 0.06316945 -0.043187656 -0.02903056 -0.11416906
-0.08409732 0.04007683 -0.022310542 -0.10884641 -0.12294685 -0.085505985 -0.06246606 -0.16870938
-0.022383224 0.077659935 -0.06907893 0.04818822 -0.07849421 -0.10383537 -0.03175529 -0.009882962
-0.11607909 0.035241 -0.11637391 -0.04478288 -0.028718151 -0.020802699 0.02555919 -0.08856931
-0.019174637 -0.011015246 -0.042715594 -0.11383731 0.0054576877 0.030504918 -0.033149023 -0.10586938
-0.11959462 -0.04894917 -0.014463764 0.1348899 -0.043078665 -0.092673525 -0.13534942 -0.13891491
0.022202725 -0.050769575 -0.1270829 0.08109024 0.026268197 -0.14891598 -0.09634393 0.077110365
-0.11647648 0.06803868 -0.15234919 0.02939647 -0.076311275 -0.0014162434 0.109196045 0.27146053
-0.085008256 -0.1207025 -0.022432605 -0.08956121 -0.09909603 -0.11845944 -0.07995852 -0.2778779
-0.04779569 -0.15308683 -0.0430877 -0.023719445 0.036928706 -0.007199507 -0.038992345 -0.11854534
-0.2797293 -0.21043691 -0.12015865 0.0014139223 0.041494608 -0.044944197 0.1013887 0.22553268
-0.09288253 0.028719224 -0.010379305 0.0015125134 -0.1534313 -0.12584579 -0.18936516 0.031954564
0.042303015 -0.046305746 -0.014782645 -0.1594243 -0.09085743 0.01839086 0.18007386 0.03505399
0.041353695 0.0009384202 0.063539505 0.060426563 -0.057148114 -0.045566864 0.13266659 -0.01866021
-0.09587232 0.05995921 0.012811062 -0.042725317 0.032337822 -0.18423837 0.05829834 0.00109462
0.00039561075 -0.06522984 -0.17148846 -0.10836378 0.041492507 -0.033847947 -0.0586877 0.023862172
0.01638813 0.050283466 -0.05776712 -0.07165974 0.019344185 -0.07301683 -0.09080825 0.0031819942
0.0062629706 -0.04063393 -0.098579615 0.010272203 -0.12949985 0.10552617 -0.05458766 -0.15015107
0.03923782 0.06726068 -0.053360805 -0.11609459 -0.10945932 -0.095645525 -0.05740978 -0.04758712
-0.06777439 -0.033661533 0.043147586 -0.15560767 0.0285482 0.072803244 0.041577134 -0.067495696
-0.11135137 -0.0749215 -0.14692914 -0.06029047 0.011139833 -0.064822234 0.048517607 -0.103613764
0.021060038 -0.08371216 0.07205792 -0.040203754 -0.020214273 -0.19597073 -0.0980581 -0.0018265314
0.082297355 0.013648055 -0.010724044 0.04730397 0.2722344 -0.016181182 0.0069436235 -0.0039002623
-0.03015481 -0.058826312 -0.082089014 -0.1245356 -0.049016535 0.03150291 -0.045815248 0.12833723
-0.054523207 -0.11637913 0.12930365 0.008185424 0.09067279 0.03223402 0.07067487 0.095641434
-0.079397336 -0.08031102 -0.10123561 -0.090009294 0.06307933 0.003913954 -0.060250312 -0.008563992
-0.1299841 -0.027727446 0.09124489 -0.11276426 -0.19468984 0.03145083 -0.030903293 0.0012870666
00000000: 48fe 47bd 350d 753d c975 683d 99ec 443c
00000010: 282a 863d 6f21 b8bd f30d 7dbd 2087 0bbe
00000020: 97e6 2dbe 8f4f 2cbe 7226 adbd 3bb7 9fbc
00000030: 7c2c febd 7019 0cbe 1b05 17be 6138 12be
00000040: 3fd2 d63d 5126 8cbd e2ac 453d fdc7 09be
00000050: f2c7 b0bd e376 81bd 8788 143e 4027 613d
00000060: e09e 48bd c1b9 07bd 5756 6fbb 1031 db3a
00000070: 8e6b 633e b2ab adbc fd6f df3d 136a 05be
00000080: 91a6 d43d 3d90 cebd 8d16 80bd ce38 9bbd
00000090: 78a1 02be c6d5 623a eac1 8cbd bc73 47be
000000a0: 87d0 e1bc 4093 7ebc 3ae0 e6bd b0d3 d3bd
000000b0: fc5e 813d 8ae5 30bd 7fd1 edbc 78d1 e9bd
000000c0: 373b acbd 9a27 243d 99c4 b6bc deea debd
000000d0: 8fcb fbbd c31d afbd 69dc 7fbd 27c2 2cbe
000000e0: 065d b7bc 2c0c 9f3d 4179 8dbd 0361 453d
000000f0: 93c1 a0bd a3a7 d4bd d611 02bd 26ec 21bc
00000100: e0ba edbd de58 103d 7255 eebd 416e 37bd
00000110: 5442 ebbc 6c6a aabc 8261 d13c d463 b5bd
00000120: 2114 9dbc 4a79 34bc 8cf6 2ebd 8923 e9bd
00000130: 67d6 b23b 73e5 f93c 45c7 07bd 0cd2 d8bd
00000140: 06ee f4bd ed7e 48bd 6cf9 6cbc 9420 0a3e
00000150: 4173 30bd 9ecb bdbd 0a99 0abe b63f 0ebe
00000160: 7de2 b53c c2f3 4fbd 0522 02be a412 a63d
00000170: 6730 d73c 6e7d 18be f74f c5bd 0aec 9d3d
00000180: 398b eebd dd57 8b3d 6d01 1cbe ded0 f03c
00000190: 1649 9cbd 3ea1 b9ba 2da2 df3d e0fc 8a3e
000001a0: cf18 aebd df32 f7bd 95c4 b7bc de6b b7bd
000001b0: dcf2 cabd dd9a f2bd 4bc1 a3bd 0346 8ebe
000001c0: 6ac5 43bd cbc2 1cbe ba7c 30bd 484f c2bc
000001d0: 8e42 173d d8e9 ebbb 70b6 1fbd e6c7 f2bd
000001e0: ae38 8fbe c67c 57be bd15 f6bd 5c53 b93a
000001f0: 40f6 293d 6817 38bd e1a4 cf3d 0af2 663e
00000200: 3239 bebd 9444 eb3c f60d 2abc 873f c63a
00000210: 181d 1dbe b8dd 00be f1e8 41be cae2 023d
00000220: ed45 2d3d 18ab 3dbd e832 72bc 2040 23be
00000230: 7613 babd 6ea8 963c 4865 383e c694 0f3d
00000240: 7e62 293d 5000 763a 0021 823d d881 773d
00000250: 2414 6abd 52a4 3abd c0d9 073e 4cdd 98bc
00000260: b558 c4bd ca97 753d 7de5 513c be00 2fbd
00000270: aa74 043d fca8 3cbe 3dca 6e3d 5a79 8f3a
00000280: fa69 cf39 3997 85bd ac9a 2fbe d4ed ddbd
00000290: 0cf4 293d 25a4 0abd 8462 70bd 9a7a c33c
000002a0: 6640 863c 09f6 4d3d 379d 6cbd 57c2 92bd
000002b0: b277 9e3c d989 95bd adf9 b9bd 0189 503b
000002c0: 9b39 cd3b c46f 26bd 1ce4 c9bd be4c 283c
000002d0: 9c9b 04be 1b1e d83d 4f97 5fbd 34c1 19be
000002e0: d6b7 203d f8bf 893d dc90 5abd 00c3 edbd
000002f0: 352c e0bd cde1 c3bd 8426 6bbd b6ea 42bd
00000300: 4dcd 8abd ade0 09bd 86bb 303d 9e57 1fbe
00000310: eadd e93c de19 953d c94c 2a3d 2f3b 8abd
00000320: 300c e4bd 7270 99bd 9874 16be 24f3 76bd
00000330: d983 363c 85c1 84bd 66ba 463d 7433 d4bd
00000340: 1a86 ac3c 4871 abbd 1a93 933d b1ac 24bd
00000350: 6798 a5bc 8dac 48be afd2 c8bd 3968 efba
00000360: 848b a83d 179c 5f3c e7b3 2fbc cfc1 413d
00000370: 4f62 8b3e 668e 84bc 5687 e33b 8b9b 7fbb
00000380: 3807 f7bc dcf3 70bd 491e a8bd 850c ffbd
00000390: 90c5 48bd 3209 013d c5a8 3bbd d66a 033e
000003a0: ba53 5fbd 2e58 eebd 2d68 043e 281c 063c
000003b0: a8b2 b93d d207 043d fcbd 903d a8df c33d
000003c0: 129b a2bd 1b7a a4bd 9e54 cfbd cb56 b8bd
000003d0: bc2f 813d a040 803b 08c9 76bd fc4f 0cbc
000003e0: 8d1a 05be ab24 e3bc 9ade ba3d f3f0 e6bd
000003f0: c65c 47be 96d2 003d e728 fdbc cab2 a83a

X_2.0.bias f4 [128]
0.10397163 -0.0046564173 -0.07901333 -0.001821179 0.06040673 -0.1351079 0.08662093 0.0012737584
0.0044203433 -0.09807647 -0.008877818 -0.013958028 -0.03362529 0.0054453635 -0.044021327 -0.04135374
0.0016371547 0.010163513 -0.08950664 -0.035520244 -0.044172723 -0.013513114 -0.028163094 0.100233965
0.011129953 -0.07033039 -0.06561672 0.18515706 -0.03572605 -0.005565273 -0.035952818 -0.0707627
-0.12596418 -0.15534455 -0.036769923 -0.018102763 -0.09129148 0.014851003 -0.029610936 0.027461382
0.062428035 0.1318617 -0.008785006 -0.052969754 0.078175664 -0.13804647 0.054025196 -0.09365853
0.03303779 0.030059824 -0.1039998 -0.11544647 -0.090941206 -0.08513944 0.048416287 -0.1540719
-0.02668151 -0.034543294 0.07143702 0.06223005 0.04775318 0.043844104 -0.19218259 0.085099034
-0.11237214 0.09702998 0.06665343 -0.006886422 -0.0545896 -0.018759552 -4.241729e-05 0.059475284
-0.15441687 -0.093608156 -0.05866858 -0.11436857 0.09246748 -0.12536284 -0.10250712 0.029045017
0.07701605 0.08832636 -0.056154296 -0.18815202 -0.28064823 0.06311328 -0.085691795 -0.09800243
-0.103356816 -0.121011235 0.084292114 -0.008150144 -0.030973654 0.07372552 -0.11619453 0.025093062
-0.04506268 -0.004305441 0.0428216 -0.08127346 -0.025153594 -0.09386534 -0.047262043 0.11776927
0.015912384 -0.03902136 -0.07990541 0.0070334477 0.07797902 0.07533522 0.07571192 -0.027244473
-0.029089417 0.092590265 0.082848944 -0.060471144 0.05869468 -0.0033549897 -0.04251169 -0.13047215
-0.1120996 -0.06903547 0.019780394 0.10195842 -0.12383093 -0.16061153 -0.017397618 -0.19315001
00000000: 14ef d43d dc94 98bb bed1 a1bd a0b4 eeba
00000010: 0c6d 773d ba59 0abe 5066 b13d 3df4 a63a
00000020: 87d8 903b 51dc c8bd 4474 11bc 36b0 64bc
00000030: acba 09bd 056f b23b b54f 34bd 8a62 29bd
00000040: cc95 d63a dd84 263c 424f b7bd ad7d 11bd
00000050: 75ee 34bd 1c66 5dbc 4ab6 e6bc 7747 cd3d
00000060: 685a 363c 6109 90bd 0f62 86bd d099 3d3e
00000070: 7b55 12bd e55c b6bb 4343 13bd 09ec 90bd
00000080: c1fc 00be a412 1fbe 0f9c 16bd 3f4c 94bc
00000090: 07f7 babd 9f51 733c a292 f2bc b1f6 e03c
000000a0: 8ab4 7f3d c106 073e fcee 0fbc d0f6 58bd
000000b0: 901a a03d 0e5c 0dbe 8649 5d3d 0bd0 bfbd
000000c0: a252 073d 0540 f63c d9fd d4bd 336f ecbd
000000d0: 623f babd 965d aebd 2850 463d 06c5 1dbe
000000e0: 2f93 dabc 457d 0dbd 934d 923d f0e4 7e3d
000000f0: d798 433d e095 333d 83cb 44be 6748 ae3d
00000100: 5d23 e6bd a7b7 c63d 9881 883d 7fa7 e1bb
00000110: 5899 5fbd a2ad 99bc 38e9 31b8 5b9c 733d
00000120: 751f 1ebe a2b5 bfbd 774e 70bd 123a eabd
00000130: 975f bd3d 1e5f 00be 41ef d1bd d1ef ed3c
00000140: 97ba 9d3d 73e4 b43d 0c02 66bd ecaa 40be
00000150: 20b1 8fbe 8941 813d 2e7f afbd 7fb5 c8bd
00000160: bdac d3bd bdd4 f7bd 58a1 ac3d 2e88 05bc
00000170: 76bc fdbc 68fd 963d 66f7 edbd f78f cd3c
00000180: a593 38bd a814 8dbb b465 2f3d b372 a6bd
00000190: e90e cebc 793c c0bd d895 41bd 0431 f13d
000001a0: b05a 823c ddd4 1fbd 73a5 a3bd d678 e63b
000001b0: 77b3 9f3d 5a49 9a3d da0e 9b3d cd2f dfbc
000001c0: ee4c eebc f79f bd3d b5ac a93d 97b0 77bd
000001d0: d569 703d 63df 5bbb bd20 2ebd 7e9a 05be
000001e0: 7a94 e5bd 7862 8dbd 7e0a a23c 93cf d03d
000001f0: 129b fdbd 5977 24be 7385 8ebc 1ec9 45be

X_3.0.weight f4 [128, 128]
-0.025637843 0.02790907 -0.13883132 -0.14671426 -0.046602435 -0.18218668 -0.056059107 0.017898085
-0.092816606 0.03242569 0.030259173 0.017041868 0.12193885 -0.027841754 -0.07532528 0.0424786
-0.013303133 -0.060801182 -0.0013931002 -0.100837424 0.033389393 -0.11557018 -0.0929041 -0.032954264
-0.046070408 -0.023691336 -0.052330334 -0.09128387 0.041083332 -0.0012883391 -0.082153 -0.1669599
0.044198476 0.19416425 -0.07763362 -0.081536666 0.03894772 0.06206104 -0.2102869 0.08192864
-0.15172093 0.23220731 -0.0071446584 0.03072267 0.014849976 0.0057359906 -0.026757088 -0.048737645
-0.029405015 -0.03300542 -0.014343808 0.115990624 -0.123342626 0.09512943 0.04311545 -0.054433603
0.033706613 0.062129032 -0.004988594 -0.10219045 0.0011841322 -0.18155462 0.07618089 -0.0026443142
0.06955924 -0.104271434 -0.040947944 -0.06034977 0.02305408 -0.044351958 0.112261675 0.013495974
0.12624168 -0.0031490987 -0.07718147 -0.17174697 0.12562002 0.1593323 -0.015821429 -0.12431175
-0.11363026 -0.18472141 0.022932861 0.09300768 0.03100442 -0.09810241 -0.06667098 0.15910041
-0.07354276 -0.16097276 0.0006148593 0.11460041 -0.0082831215 -0.068119586 0.006712887 -0.039063856
0.15139207 -0.09708031 -0.0696278 -0.10046715 0.076140076 0.014468742 0.0027118733 -0.24868219
0.115528405 0.06574644 -0.10665721 0.058764044 -0.052512493 -0.09098422 0.015296911 0.024675835
-0.10195608 -0.0042723306 -0.11795277 -0.00370059 -0.18036684 0.022241829 -0.004836579 0.06869849
0.09685424 -0.12839419 -0.09646174 -0.017532805 0.03795294 0.04514762 0.06472206 0.03263706
0.04037678 0.05013069 -0.08656043 -0.003502248 -0.05254561 -0.11543243 0.17955503 -0.04044356
0.066783704 0.0069524143 0.09379227 0.055903267 -0.0010512052 0.09360566 0.15472503 -0.04403246
0.078418896 -0.019885255 -0.031519182 -0.05056416 0.020391347 0.029897347 0.024705255 0.107666954
0.020899812 0.058403067 -0.011164332 -0.05064525 0.06233719 -0.05488968 -0.07662984 -0.08539501
0.0064100064 0.013226978 0.13345829 -0.023308363 0.019212114 0.10260869 0.104111746 0.059590437
0.10824742 0.10967705 -0.08598351 -0.06724953 0.07330869 0.15347268 0.010448401 -0.0744589
0.0789168 0.044180892 0.077625304 -0.0752722 -0.027914591 0.017892338 -0.11486958 0.09149175
0.018226536 0.1224368 -0.04719771 -0.020697696 0.066334434 0.056286894 -0.009263133 -0.09666802
0.01338956 0.035995036 0.020953884 -0.011640785 -0.069660954 0.11454555 0.0039160894 -0.0069442727
0.07172817 -0.0407655 -0.12966274 -0.13779902 0.08776659 -0.052528966 -0.0030180048 0.07934522
-0.082102865 0.13042678 0.028095905 0.21310471 -0.0988524 -0.10359992 0.0021843917 0.025006652
0.061767366 0.00038983606 0.018199436 -0.03101653 0.028980602 -0.048190348 0.03564425 0.0079963375
0.042966373 -0.00071743 -0.05833111 -0.047090136 0.07576039 0.08675832 -0.0077648466 0.06929845
0.0278691 0.20455088 -0.060784493 0.08767751 -0.026853489 0.14438638 -0.052774046 0.013210762
0.16187105 0.056741122 -0.008409366 0.0027614266 0.00327697 -0.06441336 0.07080426 -0.1909053
0.05058991 0.036095906 -0.045296047 0.028751707 0.10511311 -0.00071293564 -0.04454003 0.035834804
00000000: 7406 d2bc 90a1 e43c cc29 0ebe 433c 16be
00000010: 32e2 3ebd 258f 3abe 3c9e 65bd 019f 923c
00000020: a216 bebd cdd0 043d 16e2 f73c 639b 8b3c
00000030: 13bb f93d 6414 e4bc 2444 9abd 0afe 2d3d
00000040: 62f5 59bc a90a 79bd b098 b6ba da83 cebd
00000050: 51c3 083d 0fb0 ecbd 8144 bebd 0dfb 06bd
00000060: 53b4 3cbd 5514 c2bc 5558 56bd 0af3 babd
00000070: ff46 283d 7ddd a8ba d53f a8bd 89f7 2abe
00000080: 7609 353d fed2 463e 60fe 9ebd b2fc a6bd
00000090: a587 1f3d b833 7e3d 7355 57be 34ca a73d
000000a0: bb5c 1bbe c1c7 6d3e bd1d eabb 1cae fb3c
000000b0: 504d 733c faf4 bb3b ae31 dbbc 20a1 47bd
000000c0: c9e2 f0bc b130 07bd 4b02 6bbc 7e8c ed3d
000000d0: 0f9b fcbd 38d3 c23d d399 303d c5f5 5ebd
000000e0: f20f 0a3d 037b 7e3d 5c77 a3bb 3a49 d1bd
000000f0: e234 9b3a 74e9 39be ba04 9c3d 3b4c 2dbb
00000100: 1375 8e3d 438c d5bd 08b9 27bd 5231 77bd
00000110: e9db bc3c 66aa 35bd 73e9 e53d 381e 5d3c
00000120: 8045 013e 1c61 4ebb 5211 9ebd 70de 2fbe
00000130: 89a2 003e 0228 233e f19b 81bc 2997 febd
00000140: fbb6 e8bd 9c27 3dbe b2dd bb3c cf7a be3d
00000150: fbfc fd3c ebe9 c8bd cb8a 88bd 38eb 223e
00000160: 969d 96bd 0bd6 24be 822e 213a 9fb3 ea3d
00000170: eeb5 07bc 4882 8bbd c7f7 db3b 6c01 20bd
00000180: 8606 1b3e 0bd2 c6bd 0599 8ebd b9c1 cdbd
00000190: 54ef 9b3d 4d0e 6d3c afb9 313b 8ba6 7ebe
000001a0: 289a ec3d 12a6 863d 186f dabd 91b2 703d
000001b0: 5717 57bd ef55 babd e59f 7a3c fa24 ca3c
000001c0: 59ce d0bd e8fe 8bbb 3991 f1bd 9985 72bb
000001d0: 16b2 38be 7f34 b63c 2a7c 9ebb cbb1 8c3d
000001e0: 845b c63d c479 03be bc8d c5bd f5a0 8fbc
000001f0: 8b74 1b3d b6ec 383d 008d 843d 70ae 053d
00000200: 1f62 253d d755 4d3d 9846 b1bd f985 65bb
00000210: 113a 57bd d667 ecbd 46dd 373e 25a8 25bd
00000220: e5c5 883d 14d1 e33b 2916 c03d d3fa 643d
00000230: 98c8 89ba 53b4 bf3d 3d70 1e3e 615b 34bd
00000240: 169a a03d 67e6 a2bc 421a 01bd 5d1c 4fbd
00000250: c10b a73c 48eb f43c ad62 ca3c 7e80 dc3d
00000260: 1536 ab3c 0e38 6f3d 9aea 36bc 6571 4fbd
00000270: 4855 7f3d 00d4 60bd 1bf0 9cbd 94e3 aebd
00000280: 080b d23b f7b5 583c 4aa9 083e 2ef1 bebc
00000290: b962 9d3c 8124 d23d 8a38 d53d 1a15 743d
000002a0: d3b0 dd3d 5c9e e03d 1f18 b0bd 1fba 89bd
000002b0: de22 963d f127 1d3e c52f 2b3c e87d 98bd
000002c0: 229f a13d 06f7 343d 04fa 9e3d 5028 9abd
000002d0: 24ad e4bc f492 923c be40 ebbd 0760 bb3d
000002e0: d14f 953c 25c0 fa3d 6352 41bd 378e a9bc
000002f0: 59da 873d 168d 663d 65c4 17bc e2f9 c5bd
00000300: e35f 5b3c 886f 133d 7ba7 ab3c feb8 3ebc
00000310: 67aa 8ebd db96 ea3d 8a52 803b c88c e3bb
00000320: 38e6 923d baf9 26bd 4fc6 04be 301b 0dbe
00000330: f8be b33d 9d28 57bd b8c9 45bb bf7f a23d
00000340: 8c25 a8bd 998e 053e 6229 e63c 1f38 5a3e
00000350: 2173 cabd 322c d4bd 0328 0f3b c0da cc3c
00000360: c7ff 7c3d e962 cc39 fc16 953c 6116 febc
00000370: ba68 ed3c 3e63 45bd b5ff 113d 1203 033c
00000380: 82fd 2f3d ea11 3cba 9aec 6ebd 96e1 40bd
00000390: 4328 9b3d 59ae b13d 4170 febb 59ec 8d3d
000003a0: bd4d e43c c975 513e 29f9 78bd 4490 b33d
000003b0: d9fb dbbc 06da 133e 9929 58bd f471 583c
000003c0: 86c1 253e 6169 683d 70c7 09bc 0df9 343b
000003d0: 6fc2 563b 27eb 83bd d301 913d ae7c 43be
000003e0: 5e37 4f3d 4dd9 133d 5988 39bd b388 eb3c
000003f0: 8b45 d73d 4de4 3aba 9b6f 36bd 84c7 123d

X_3.0.bias f4 [128]
0.0041537634 -0.121440895 -0.037916593 -0.0011212649 -0.05572745 -0.001875242 0.11558912 0.0569483
-0.1270749 -0.100128286 -0.1071082 0.04939279 -0.0029804409 0.108261846 -0.040373202 0.08076974
-0.08299386 -0.06910958 -0.006172655 -0.09449286 0.1188635 -0.08088987 -0.046488244 -0.045637194
0.024102265 -0.098775886 0.07423947 0.07309513 0.05070287 -0.059425503 -0.09818416 -0.15440373
-0.03606064 0.031104803 0.104591176 0.0923109 -0.065641925 -0.011687101 -0.0032913233 0.18306845
-0.10204931 0.094248496 0.14404258 -0.024811689 0.04867148 0.13033083 -0.11552595 -0.12205512
0.03753772 -0.05699245 0.07861006 0.09331114 -0.1296308 -0.032659136 0.11964687 0.1428716
0.16392323 -0.034581948 0.025860151 -0.1679102 0.11975122 0.035223555 -0.035825636 -0.10435615
0.08897207 -0.023790019 -0.13836959 0.00091868674 -0.11676431 -0.11833366 0.011863876 0.09911473
0.112402186 -0.04269582 -0.068121105 -0.051032346 0.054583777 -0.052944157 0.087977506 -0.21173818
0.055740234 -0.027866941 0.09773586 -0.059762508 -0.15493602 -0.24538894 -0.013185563 0.07872933
0.08817807 -0.088556565 -0.1923899 -0.082824804 0.053673282 -0.056459542 0.08982741 0.08495688
-0.013782917 0.09257327 0.067943074 0.064485244 0.11587566 0.021580793 -0.27507916 0.007670979
0.039575014 -0.054819606 0.08886717 0.10778657 -0.0041722283 -0.054631945 0.044815347 0.04137569
0.075315624 0.12346296 0.153676 -0.11432835 -0.13237186 0.08822149 -0.054811295 -0.0062922714
-0.07239698 -0.10773358 -0.27216268 0.0076327194 0.107959196 -0.12075305 -0.13085644 0.037469983
00000000: 4b1c 883b 01b6 f8bd 6e4e 1bbd 68f7 92ba
00000010: 7742 64bd aeca f5ba fdb9 ec3d 9f42 693d
00000020: ec1f 02be 0f10 cdbd 8b5b dbbd 1850 4a3d
00000030: 8053 43bb 63b8 dd3d 5f5e 25bd 9b6a a53d
00000040: aff8 a9bd 5389 8dbd fc43 cabb 7985 c1bd
00000050: b56e f33d 97a9 a5bd 756a 3ebd 11ee 3abd
00000060: 1d72 c53c 034b cabd dd0a 983d e6b2 953d
00000070: d0ad 4f3d 2868 73bd c714 c9bd 031c 1ebe
00000080: 52b4 13bd 80cf fe3c e633 d63d 7f0d bd3d
00000090: 466f 86bd 417b 3fbc 3eb3 57bb 4c76 3b3e
000000a0: 3bff d0bd 5b05 c13d e67f 133e e241 cbbc
000000b0: bf5b 473d 7275 053e df98 ecbd 09f8 f9bd
000000c0: 27c1 193d ea70 69bd 50fe a03d e919 bf3d
000000d0: f0bd 04be 96c5 05bd 6b09 f53d ef4c 123e
000000e0: 7edb 273e cda5 0dbd abd8 d33c a7f0 2bbe
000000f0: 2140 f53d 9346 103d e7bd 12bd adb8 d5bd
00000100: fd36 b63d 49e3 c2bc c2b0 0dbe 06d4 703a
00000110: 2022 efbd eb58 f2bd b460 423c aafc ca3d
00000120: 1e33 e63d d0e1 2ebd 1483 8bbd 4b07 51bd
00000130: 3d93 5f3d f9db 58bd 8d2d b43d e5d1 58be
00000140: df4f 643d 3649 e4bc bd29 c83d 88c9 74bd
00000150: 8ca7 1ebe 3d47 7bbe 4208 58bc d83c a13d
00000160: b496 b43d 255d b5bd dc01 45be 0da0 a9bd
00000170: 84d8 5b3d 1f42 67bd 6ff7 b73d dffd ad3d
00000180: bed1 61bc 0e97 bd3d bd25 8b3d d710 843d
00000190: 3850 ed3d 34ca b03c 2dd7 8cbe d65c fb3b
000001a0: 6919 223d 868a 60bd feff b53d 35bf dc3d
000001b0: 30b7 88bb bfc5 5fbd 4c90 373d 8e79 293d
000001c0: 143f 9a3d 26da fc3d 3e5d 1d3e fb24 eabd
000001d0: 7d8c 07be 78ad b43d cf81 60bd 662f cebb
000001e0: de44 94bd 6ca3 dcbd e858 8bbe e41b fa3b
000001f0: b619 dd3d 604d f7bd 3bff 05be 207a 193d
